models/mlp_4_128.pth (torch, 542671 bytes, 8 tensors)

weight f4 [128, 784]
0	0x3be1bd33	0.0068890094
1	0xbb4eb930	-0.0031543486
2	0x3cd4861a	0.02594285
3	0x3af9ff58	0.0019073291
4	0xbd0f4b13	-0.034983706
5	0x3bcba3e9	0.006214608
6	0xbaa2ffa2	-0.0012435804
7	0xbc2ef29e	-0.010677962
8	0xbce85e03	-0.02836514
9	0x3cd72b1a	0.02626567
10	0xba185ed1	-0.00058124686
11	0x3cf23e9f	0.029570876
12	0xbcf6127a	-0.030038107
13	0xbc690dcc	-0.014224481
14	0x3cf17209	0.029473322
15	0xbca1da72	-0.019757483
16	0xbc9c104d	-0.019050742
17	0x3c82c829	0.015964584
18	0x3ce86156	0.028366726
19	0xbd0f9fee	-0.03506463
20	0xbb22238c	-0.0024740426
21	0xbc6ad42c	-0.014332812
22	0x3cddc025	0.02706916
23	0xbca5845d	-0.020204717
24	0xbcac2b34	-0.021016695
25	0x3b9d4341	0.004799277
26	0xbccbf76c	-0.024898253
27	0x3bd29284	0.0064261574
28	0x3cca5ba6	0.024701905
29	0xbc15afd0	-0.009136155
30	0xbc35ec2a	-0.011103669
31	0x3cb38abb	0.021916738
32	0x3c17391e	0.009229926
33	0x3c90c3cb	0.017671486
34	0xbc8882b3	-0.016663885
35	0x3cf4ad0c	0.029867671
36	0xbc828e5d	-0.015937025
37	0x3bd837b9	0.0065984395
38	0x3c9cde7a	0.019149054
39	0x3bd56d6b	0.006513288
40	0x3c250e36	0.010074189
41	0x3bc014df	0.005861863
42	0xbd1305be	-0.035894148
43	0x3c8766b7	0.01652847
44	0x3c4c3588	0.012463935
45	0x3b80e906	0.0039340286
46	0xbb2fff0b	-0.0026854898
47	0xbb367a1e	-0.0027843784
48	0x3cdfec73	0.027334427
49	0x3c8b213b	0.016983619
50	0x3cbf9efe	0.023391243
51	0x3b1dca74	0.002407697
52	0xbb81fad0	-0.0039666668
53	0xbcc32531	-0.023821445
54	0x3ca38b0f	0.01996377
55	0x3b9ed151	0.00484673
56	0xbca4f2d1	-0.020135315
57	0xbd16f3c1	-0.036853556
58	0x3b2b2740	0.0026115924
59	0xbc968385	-0.01837326
60	0xbc9052aa	-0.017617542
61	0x3c80e834	0.015735723
62	0x3ce9d43b	0.028543582
63	0x3c2c62c6	0.010521596
64	0x3be98328	0.0071262307
65	0xbcb09a5d	-0.021557981
66	0x3c337db8	0.010955267
67	0x3c34bed6	0.011031827
68	0x3d6dcd6f	0.058057245
69	0x3d60d276	0.05488821
70	0xbd596703	-0.053076755
71	0xbd723a1e	-0.059137456
72	0xbd39fade	-0.04540526
73	0xbd02a188	-0.03189233
74	0xbcd71d86	-0.026259195
75	0x3c7b4ed4	0.015338618
76	0x3c5d7d04	0.013518576
77	0x3b00e875	0.0019669805
78	0xbc924138	-0.017853364
79	0xbc4c7901	-0.012480021
80	0xbb41ebfc	-0.002959012
81	0xbc8b7b53	-0.017026579
82	0x3c87f89b	0.016598037
83	0xbd08ca12	-0.033395834
84	0xba1661d1	-0.00057366217
85	0xbd0446db	-0.032294136
86	0x3cb167b5	0.021655897
87	0xbbdf52dc	-0.0068152975
88	0x3b46e94e	0.0030351463
89	0xbc22b08d	-0.009929788
90	0x3d1ac48f	0.03778511
91	0x3d51e5bf	0.051244494
92	0x3d8ef13f	0.06979608
93	0x3d00067f	0.031256195
94	0xbc656582	-0.014001252
95	0x3d36319b	0.0444809
96	0x3e49a955	0.19693501
97	0xbd967607	-0.07346731
98	0xbe04139c	-0.12898105
99	0xbdc55629	-0.09635574
100	0xbe16f29a	-0.14740983
101	0xbe1ccb58	-0.15311944
102	0xbde06f35	-0.10958711
103	0xbd1893d5	-0.03725036
104	0xbded2aa4	-0.11580399
105	0xbd8bda11	-0.06828702
106	0xbd919876	-0.07109158
107	0xbd85d262	-0.06534268
108	0xbcfd7727	-0.030940605
109	0x3c6ed6bb	0.014577563
110	0xbbcc8204	-0.006241085
111	0x39ef98ea	0.00045699562
112	0x3c85b8ef	0.016323535
113	0x3c2a44ea	0.010392407
114	0x3aaf94ee	0.0013395825
115	0x3ab9743b	0.0014149019
116	0xbb15bb7a	-0.002284734
117	0x3d921545	0.07132963
118	0x3d1efa6f	0.03881305
119	0x3d1c90d7	0.038224068
120	0x3d1000a3	0.035156857
121	0x3cd48d04	0.025946148
122	0x39475e70	0.000190133
123	0x3aca14a7	0.0015417532
124	0xbc670793	-0.014100927
125	0xbdffde9e	-0.12493633
126	0xbd802fe1	-0.06259132
127	0xbdc1a97c	-0.09456155
128	0xbe6b321a	-0.22968331
129	0xbdfc3c35	-0.12316171
130	0xbe30d320	-0.17268038
131	0xbe275e39	-0.16344537
132	0xbddaa3da	-0.106757835
133	0xbe0b1fe5	-0.13586386
134	0xbe1f5300	-0.15559006
135	0xbdd3ee98	-0.103482425
136	0xbd16857e	-0.0367484
137	0xbcfea9a7	-0.031086756
138	0x3c3d03dd	0.011536566
139	0x3c5b81df	0.013397663
140	0xbaccf864	-0.0015637991
141	0x3cd7069a	0.026248265
142	0x3cece049	0.028915541
143	0xbb628c17	-0.0034568363
144	0x3d3441ca	0.044008054
145	0x3d6c167b	0.057638627
146	0x3d935d3b	0.07195517
147	0x3dafbc66	0.08580856
148	0xbb9a6f0d	-0.0047129453
149	0xbd9cfa6a	-0.0766495
150	0xbe184b25	-0.14872415
151	0xbd9a1aad	-0.07524619
152	0xbddc9bd3	-0.107719086
153	0xbc62a815	-0.013834019
154	0x3d690dbc	0.056897864
155	0xbdf28d0b	-0.11843308
156	0xbd9cbd4e	-0.076532945
157	0xbe6146f9	-0.2199973
158	0xbea2b0a8	-0.31775403
159	0xbea781ae	-0.32716125
160	0xbe1ad5b6	-0.15120587
161	0xbdccc519	-0.09998531
162	0xbe217e6b	-0.15770881
163	0xbe43cb47	-0.19120513
164	0xbdbe503b	-0.092926465
165	0xbe0ba6f2	-0.13637903
166	0xbd23ca9b	-0.03998814
167	0xbcce6dcd	-0.025198841
168	0xbcb7d738	-0.022441491
169	0xbd205026	-0.039138936
170	0x3b20d47f	0.002454072
171	0x3a0f40e5	0.0005464687
172	0x3d118ba9	0.03553358
173	0x3e2dafc7	0.16961585
174	0x3e289b6f	0.16465543
175	0x3dbf8abb	0.093526326
176	0xbd871c11	-0.0659715
177	0xbe2a4f65	-0.16631849
178	0xbde2d139	-0.11075062
179	0xbd4fbc74	-0.050716832
180	0xbe112024	-0.14172417
181	0xbdc7353b	-0.0972695
182	0xbd8fcf52	-0.07021965
183	0xbe37b581	-0.17940332
184	0xbe5756c8	-0.21029198
185	0xbe840976	-0.25788468
186	0xbe845bd4	-0.2585131
187	0xbe5d2c45	-0.21598919
188	0xbde06696	-0.10957067
189	0xbe878ee3	-0.264762
190	0xbe4931ce	-0.19647905
191	0xbe09a6e5	-0.13442571
192	0xbd68e7de	-0.05686175
193	0xbd45e17a	-0.048310734
194	0x3d3e1ec4	0.04641606
195	0xbd0b40c8	-0.033997327
196	0x3c9b1cd1	0.01893464
197	0xbccd7df5	-0.025084475
198	0x3bd35f68	0.0064505823
199	0x3accb966	0.0015619218
200	0x3cfdf065	0.030998418
201	0x3e0a74bb	0.13521092
202	0x3dcb77f1	0.099349864
203	0x3d85f439	0.065407224
204	0xbd8abfd2	-0.06774868
205	0xbe4674b3	-0.19380455
206	0x3c200ca8	0.0097686425
207	0xbd974f74	-0.07388201
208	0xbe28be4e	-0.16478845
209	0xbe559fed	-0.20861788
210	0xbdf1d8b7	-0.11808913
211	0xbe8f9dfb	-0.28050217
212	0xbe92b363	-0.28652486
213	0xbe8c66f7	-0.27422306
214	0xbe84f162	-0.2596541
215	0xbea4cd45	-0.32187858
216	0xbe315f3c	-0.17321485
217	0xbc82e102	-0.015976433
218	0xbd834402	-0.06409456
219	0xbe31ca92	-0.1736243
220	0xbddfb022	-0.109222665
221	0xbd7c4c5d	-0.061596263
222	0x3c94622f	0.018113224
223	0x3cc15354	0.023599304
224	0x3c5c0bd8	0.013430558
225	0xbc8dcbae	-0.017309036
226	0x3b9798da	0.0046263756
227	0x3d039116	0.032120787
228	0x3cbb7487	0.022882713
229	0x3dc584db	0.09644481
230	0xbd8b5e70	-0.06805122
231	0xbe12815d	-0.1430716
232	0xbe20c66e	-0.15700695
233	0xbe2a8cb8	-0.16655242
234	0xbc08c946	-0.008348769
235	0x3ca5db0e	0.020246055
236	0xbe095e41	-0.13414861
237	0xbe5d4824	-0.2160955
238	0xbe67e337	-0.2264527
239	0xbe3a4f8c	-0.18194407
240	0xbdaebac6	-0.08531718
241	0xbcb8ec7b	-0.0225737
242	0x3d1c4e47	0.03816059
243	0x3d964a9a	0.07338448
244	0x3e0964fd	0.1341743
245	0x3da25905	0.079271354
246	0x3d2eb24c	0.042650506
247	0x3d5bbd1c	0.053647146
248	0x3e1195e6	0.14217338
249	0x3e11264c	0.14174765
250	0xbbc773a9	-0.006086786
251	0xbb7397e6	-0.0037169396
252	0x3cf5f28b	0.03002288
253	0xbd05d41d	-0.03267299
254	0xb9c9d6b9	-0.00038497688
255	0x3b231f02	0.0024890308

bias f4 [128]
0	0xbc7e4cac	-0.01552121
1	0x3c82fe44	0.015990384
2	0xbd05be88	-0.032652408
3	0xbc6776aa	-0.014127413
4	0xbd70321e	-0.058641545
5	0xbd6ed7fe	-0.058311455
6	0x3d24a263	0.040193927
7	0xbc8b40b0	-0.016998619
8	0xbb991210	-0.0046713427
9	0xbd23e7b6	-0.0400159
10	0xbd75111e	-0.059830777
11	0xbcf85df5	-0.03031824
12	0xbbb2d84d	-0.005457914
13	0xbc8c8d14	-0.017157115
14	0xbaf058d7	-0.0018337023
15	0xbca96c9b	-0.02068167
16	0x3c59dba2	0.013296993
17	0xbd6931df	-0.056932326
18	0xbc7aa525	-0.015298163
19	0x3c532999	0.012888336
20	0xbced5013	-0.028968846
21	0x3b7e0698	0.0038761254
22	0xbd053e4c	-0.032530114
23	0xbca79787	-0.020457996
24	0xbc10bb90	-0.008833781
25	0xbcbe652b	-0.0232416
26	0xbd255776	-0.040366612
27	0xbce6e4a0	-0.028185189
28	0xbd0985da	-0.033574916
29	0xbd5e3b54	-0.0542558
30	0xbd92f47d	-0.07175539
31	0xbccb109a	-0.02478819
32	0xbc27dbc8	-0.010245271
33	0x3d495786	0.049155734
34	0xbc7af9df	-0.015318363
35	0xbd2a8d0b	-0.041638415
36	0xbd35d54a	-0.04439286
37	0xbd5de4b2	-0.05417318
38	0xbca58cff	-0.020208834
39	0xbb814e96	-0.0039461358
40	0x3ba7a1b4	0.005115712
41	0x3ca23818	0.019802138
42	0xbcda3e0d	-0.026640916
43	0xbbc52d72	-0.0060173804
44	0xbc2f6300	-0.010704756
45	0xbad6e9f0	-0.0016396623
46	0x3c5e7954	0.013578732
47	0xbca3ff45	-0.020019183
48	0x3c9d638d	0.019212509
49	0x3bd236ba	0.0064152153
50	0xbc299b42	-0.010351958
51	0x3c1af877	0.009458653
52	0xbd7291a1	-0.059220914
53	0xbd08318d	-0.03325038
54	0xbd6b7525	-0.057484765
55	0x3c513a10	0.012770191
56	0xbd8ddb9f	-0.06926655
57	0xbd6ca253	-0.057771992
58	0x3b9110f2	0.004427069
59	0xbcb64165	-0.02224798
60	0x3c83da67	0.016095353
61	0x3ce22572	0.027605746
62	0x3b8cd33b	0.0042976416
63	0xbb8fa78f	-0.004383988
64	0xbc10a189	-0.0088275755
65	0x39ce92fc	0.00039400894
66	0xbc1bfe36	-0.009521058
67	0xbcfaa7ac	-0.03059753
68	0x3b4038cd	0.002933073
69	0xbd00b733	-0.031424712
70	0xbcb1da59	-0.021710562
71	0xbcae6c67	-0.021291925
72	0xbd151cd5	-0.03640445
73	0xbc5ee130	-0.013603494
74	0xbd779869	-0.060448084
75	0x3c0d06b2	0.008607553
76	0x3be3ab5d	0.0069479183
77	0xbd69c93c	-0.057076678
78	0x3beb9895	0.00718982
79	0xbc7533dc	-0.0149659775
80	0x3cce059f	0.025149165
81	0xbd0f2e14	-0.034956053
82	0xbc454827	-0.012041128
83	0x3bfb9024	0.007677095
84	0x3cb8c93f	0.0225569
85	0xbceba93a	-0.028767217
86	0xbcec1f6e	-0.02882358
87	0xbc136528	-0.0089962855
88	0xbd15e57d	-0.03659581
89	0xbd7c890f	-0.061654147
90	0xbd2bea40	-0.041971445
91	0x3cc1d1b5	0.023659566
92	0xbc953ebf	-0.018218396
93	0x3cf093bc	0.02936732
94	0x3bec7c76	0.0072169853
95	0xbcbb0940	-0.02283156
96	0xbd10dc6f	-0.03536647
97	0xbce902ec	-0.028443776
98	0x3bf4416a	0.007454087
99	0xbb822d94	-0.0039727185
100	0xbd12a628	-0.03580299
101	0xbd9a4f82	-0.07534696
102	0xbd1fe25a	-0.039034225
103	0x3cbd6595	0.023119727
104	0x3cfa7fe7	0.030578567
105	0xbcc51c61	-0.024061384
106	0xbcac3bb8	-0.02102457
107	0x3c908af7	0.017644389
108	0xbce96a76	-0.028493147
109	0xbce69a93	-0.028149879
110	0xbd2f493b	-0.042794447
111	0x3ccc901d	0.024971062
112	0xbcd9ef32	-0.026603315
113	0xbd52fe41	-0.051512007
114	0x3ab78c34	0.0014003576
115	0xbd26fb76	-0.040767156
116	0xbd695918	-0.056969732
117	0xbd24a84e	-0.04019957
118	0xbd1d1f99	-0.038360212
119	0xbd55dee5	-0.052214522
120	0x3c34b5f6	0.011029711
121	0xbca0341e	-0.019556101
122	0xbbd49508	-0.0064874925
123	0xbc8d320c	-0.017235778
124	0xbb96afb6	-0.004598583
125	0xbd3be53e	-0.04587292
126	0xbc9affbd	-0.018920774
127	0xbd597d10	-0.053097785

weight f4 [128, 128]
0	0x3d965f0a	0.07342346
1	0x3d28ab77	0.041179147
2	0x3dbf5806	0.09342961
3	0x3e1bfeb5	0.15233882
4	0xbccccc97	-0.0249999
5	0xbe703d5c	-0.23460907
6	0xbd7d781a	-0.061882116
7	0x3dad6c85	0.08467964
8	0x3cc67efb	0.02423047
9	0xbdb6e7ee	-0.08930956
10	0x3da21591	0.0791427
11	0x3dc01da5	0.09380654
12	0x3de2938e	0.110633
13	0x3d26a9a5	0.04068913
14	0x382dc79c	4.1432315e-05
15	0xbdc3cd6f	-0.09560668
16	0x3ad32ba5	0.001611103
17	0xbe81defa	-0.2536543
18	0x3c0a12d2	0.008427339
19	0x3cf9f077	0.03051017
20	0xbdd4cefa	-0.1039104
21	0xbbbd28c8	-0.005772684
22	0xbd65ad62	-0.056073554
23	0x3d979207	0.074008994
24	0x3c9ebc9e	0.019377049
25	0xbd5e1177	-0.054215875
26	0xbc1a37b3	-0.009412694
27	0x3d08db58	0.033412308
28	0x3d515772	0.051108785
29	0x3ce1704f	0.027519373
30	0xbdfb44dd	-0.12268994
31	0x3e34cea5	0.17656954
32	0xbda60398	-0.08106154
33	0xbe24c76d	-0.160917
34	0x3db8a15d	0.090151526
35	0xbdd1b283	-0.102391265
36	0x3bab0d6d	0.0052201063
37	0xbc01ab2e	-0.007914348
38	0xbc82f1e0	-0.015984476
39	0x3de64937	0.112444334
40	0xbe6a520f	-0.22882865
41	0xbd4597b0	-0.048240364
42	0x3d3bc18f	0.04583889
43	0xbd0a22db	-0.033724647
44	0x3ac1b680	0.0014779121
45	0xbd7056cf	-0.058676537
46	0x3decf1a7	0.11569529
47	0xbe043e49	-0.12914385
48	0x3db674e9	0.089090176
49	0xbcd06cf9	-0.025442587
50	0x3dcd2db7	0.10018485
51	0x3d54edc2	0.051984556
52	0x3ccb4ec4	0.024817832
53	0x3c84e076	0.016220313
54	0x3e1233a3	0.1427751
55	0xbd5aebe4	-0.05344762
56	0xbe486c1c	-0.1957249
57	0xbe315232	-0.17316511
58	0xbccd9ac2	-0.025098208
59	0xbd85f656	-0.065411255
60	0x3d1b9b66	0.037989996
61	0xbd0cd6f4	-0.034384683
62	0xbb8c764a	-0.004286562
63	0xbd93e36a	-0.0722111
64	0xbcf5d08a	-0.030006666
65	0xbda93a86	-0.082631156
66	0xbca62727	-0.020282341
67	0x3d18bced	0.03728955
68	0xbde9fdcb	-0.1142536
69	0x3ddc297f	0.10750102
70	0xbd300d73	-0.042981576
71	0xbdb0d68d	-0.08634672
72	0x3dd9e17e	0.10638712
73	0xbc91c8a2	-0.017795864
74	0xbd2a5e15	-0.04159363
75	0xbe001095	-0.12506326
76	0xbe92996b	-0.28632674
77	0xbe3de36b	-0.18543784
78	0xbd484e59	-0.048902843
79	0xbe1896df	-0.14901303
80	0xbdc0afca	-0.09408529
81	0xbe00ab2c	-0.12565297
82	0x3e0180bc	0.12646765
83	0x3d36aa68	0.044596106
84	0x3c92a332	0.017900083
85	0xbd8179a3	-0.063220285
86	0x3d9468dd	0.072465636
87	0xbde3dca7	-0.111260705
88	0xbd2367d9	-0.03989396
89	0xbd077454	-0.033069924
90	0x3d0db15e	0.03459298
91	0xbe6bd6f2	-0.23031214
92	0x3d8fd3c8	0.07022816
93	0x3df1de0d	0.11809931
94	0x3d79f51a	0.061024763
95	0xbe4ce34e	-0.20008585
96	0xbce94c77	-0.028478844
97	0xbd81b8f8	-0.06334108
98	0x3d1828d2	0.037148304
99	0xbd1d414b	-0.038392346
100	0xbdceeea4	-0.10104111
101	0x3bd03243	0.006353648
102	0x3d97c0b3	0.07409801
103	0xbc8c1b37	-0.01710282
104	0x3da65665	0.08121947
105	0x3d6abce9	0.057309065
106	0x3d6105f6	0.054937325
107	0xbd04d5e9	-0.032430563
108	0xbd68c59e	-0.056829087
109	0x3d874762	0.06605412
110	0xbe146914	-0.14493209
111	0xbe2de8e4	-0.16983372
112	0xbd8a525d	-0.06753991
113	0xbd124dd6	-0.03571876
114	0xbd854295	-0.0650684
115	0x3d878914	0.066179425
116	0xbdab01fb	-0.08349987
117	0xbe0892cb	-0.13337247
118	0xbd55077c	-0.05200909
119	0x3db8bf5c	0.09020874
120	0xbd0314d4	-0.032002285
121	0x3dfdd604	0.12394336
122	0x3d5a02fb	0.0532255
123	0xbca4ee56	-0.020133179
124	0xbcfa63d1	-0.030565174
125	0x3d9444f9	0.07239718
126	0x3dadfde0	0.084956884
127	0x3d4fd35b	0.050738674
128	0xbe04b870	-0.12960982
129	0x3ba629b9	0.0050708917
130	0x3e15ee4b	0.14641683
131	0xbd153adc	-0.036433086
132	0xbc475659	-0.012166583
133	0xbd8a8d14	-0.0676519
134	0x3d6364a9	0.05551592
135	0x3d05b5c0	0.032644033
136	0x3dfe841c	0.124275416
137	0x3d3a9061	0.045547847
138	0x3d9708b0	0.07374704
139	0x3dd315b3	0.10306873
140	0xbbebe7fb	-0.007199285
141	0xbd931fa6	-0.07183771
142	0xbdea99f1	-0.11455143
143	0x3da02366	0.07819252
144	0x3cb37b84	0.021909483
145	0x3dab6dff	0.083705895
146	0x3deef26d	0.11667333
147	0xbe22396c	-0.15842217
148	0xbdfb9529	-0.122843094
149	0x3d78c033	0.06073017
150	0xbd4dae7d	-0.050215233
151	0x3c88d7cb	0.01670446
152	0xbdb763f6	-0.08954613
153	0x3dc038f7	0.09385865
154	0x3da0f953	0.07860055
155	0x3daf0f83	0.085478805
156	0xbcad8411	-0.021181138
157	0x3dc55548	0.09635407
158	0x3d9222a4	0.071355134
159	0x3e1772ea	0.1478993
160	0x39b60c1f	0.00034722776
161	0x3de3a945	0.1111627
162	0x3d5441e4	0.05182065
163	0x3e5d7a3c	0.2162866
164	0x3de6737c	0.11252496
165	0xbd48421a	-0.048891164
166	0xbcfa621e	-0.030564364
167	0x3dce96ce	0.100873575
168	0xbd629141	-0.055314306
169	0xbcd8a656	-0.026446503
170	0xbdc95501	-0.09830666
171	0x3cdde730	0.027087778
172	0x3c9ace32	0.01889715
173	0x3e136b1f	0.14396332
174	0x3c35bd74	0.011092532
175	0x3bab7816	0.005232821
176	0x3c526992	0.012842553
177	0xbd99ceb2	-0.07510127
178	0x3dc27fca	0.0949703
179	0x3d1abbe1	0.03777683
180	0xbe44f98c	-0.1923582
181	0x3c6a139c	0.014286902
182	0x3d15fc85	0.036617775
183	0xbe42ff47	-0.19042693
184	0xbe19ac3d	-0.1500711
185	0x3dde709e	0.10861324
186	0xbd54d956	-0.05196508
187	0xbe3d5ff2	-0.18493631
188	0xbde17643	-0.11008885
189	0x3c81dc34	0.015852071
190	0x3c3ce386	0.011528855
191	0xbe1b5663	-0.15169673
192	0xbd8aeffa	-0.06784053
193	0xbdcb08d2	-0.09913792
194	0xba638eea	-0.00086806586
195	0xbe61771a	-0.2201809
196	0x3e00e1c6	0.12586126
197	0x3e4088c3	0.1880217
198	0x3d6a111d	0.057145227
199	0x3d9c84ec	0.0764254
200	0x3ccecb8f	0.025243549
201	0xbdb3d9ee	-0.08781801
202	0xbe06065d	-0.13088365
203	0x3d21b98a	0.039483584
204	0x3d2b1480	0.041767597
205	0xbc138a09	-0.009005078
206	0xbe047d36	-0.12938389
207	0xbb61e9f5	-0.0034471725
208	0xbdbf2e2c	-0.093349785
209	0xbe215c3a	-0.15757838
210	0xbd478b28	-0.048716694
211	0xbc8e9d60	-0.017409027
212	0xbdd39a8d	-0.103322126
213	0xbd2549a2	-0.040353425
214	0x3d394ad4	0.045237377
215	0x3e675acf	0.22593234
216	0xbd9d1d7a	-0.07671638
217	0xbcd3aa87	-0.02583815
218	0x3d5900d2	0.052979298
219	0xbb5c0554	-0.0033572512
220	0x3ce2de05	0.027693758
221	0xbdf63302	-0.12021448
222	0xbe879add	-0.2648534
223	0xbe96946f	-0.2941012
224	0x3d18300c	0.037155196
225	0xbd982d84	-0.074305564
226	0x3dfa80a8	0.122315705
227	0xbda166d4	-0.07880941
228	0x3dc33ae7	0.09532719
229	0xbdca34d8	-0.098733604
230	0x3cffb8b4	0.031216003
231	0xbe840913	-0.25788173
232	0xbcffb2d2	-0.031213198
233	0xbde37d3f	-0.11107873
234	0x3d12fec7	0.035887506
235	0xbe722b85	-0.23649414
236	0xbcce21f7	-0.02516268
237	0xbdabfada	-0.083974555
238	0x3e4d454d	0.20045967
239	0xbe879be1	-0.26486114
240	0xbc88bc66	-0.016691398
241	0x3de930bc	0.113862485
242	0xbde35411	-0.11100019
243	0x3c88c746	0.016696583
244	0x3da06d55	0.078333534
245	0x3d91b7b9	0.071151204
246	0xbd346321	-0.04403985
247	0x3decfca2	0.115716234
248	0xbd76d463	-0.06026114
249	0x3df25d74	0.11834231
250	0x3d72d814	0.0592881
251	0xbd993b9c	-0.07482073
252	0xbc484b55	-0.012224992
253	0x3da356c6	0.07975535
254	0x3b861f3f	0.0040930803
255	0xbdbcfb87	-0.092276625

bias f4 [128]
0	0x3d5ae8f7	0.05344483
1	0x3cd5740a	0.026056308
2	0xbde43a96	-0.11143987
3	0xbdea995f	-0.114550345
4	0x3d6206cb	0.05518226
5	0x3e072335	0.13197024
6	0xbdc7097b	-0.09718605
7	0x3cc05be1	0.023481311
8	0x3de13e55	0.10998217
9	0xbd131e25	-0.03591742
10	0x3be0fc07	0.0068659815
11	0x3d90379c	0.07041857
12	0xbcef982b	-0.029247364
13	0xbe2d05be	-0.16896722
14	0x3db5894c	0.08864078
15	0xbd16b150	-0.036790192
16	0xbb5da03c	-0.003381743
17	0x3d93321a	0.071872905
18	0xbe3fa5f0	-0.18715644
19	0x3df6068c	0.120129675
20	0x3cc35bb1	0.023847433
21	0x3e12b963	0.14328532
22	0x3c0206cd	0.007936192
23	0xbe02c742	-0.12771323
24	0x3d16975c	0.03676544
25	0x3d0c4013	0.034240793
26	0x3e1f7be4	0.15574604
27	0xbe5b4fcc	-0.21417159
28	0xbe04689d	-0.12930532
29	0x3d7bad60	0.06144464
30	0xbdf81874	-0.12114039
31	0xbcca956e	-0.024729457
32	0xbe5f4477	-0.21803461
33	0x3c510a34	0.01275878
34	0xbcf709c0	-0.030156016
35	0xbce11846	-0.027477395
36	0x3e60616b	0.21912162
37	0xbdbd7af0	-0.09251964
38	0x3c3b24a9	0.011422315
39	0x3df96a52	0.12178482
40	0xbe0718a2	-0.1319299
41	0xbe436b9f	-0.19084023
42	0xbd1681fa	-0.03674505
43	0xbde2016e	-0.11035429
44	0xbd0c0071	-0.03418011
45	0xbc703887	-0.014661915
46	0xbd0ef593	-0.034902167
47	0x3e19caef	0.1501882
48	0xbdb39c53	-0.08770051
49	0xbe5b8353	-0.21436815
50	0xbce7b31d	-0.02828365
51	0xbda2723b	-0.07931944
52	0x3e758686	0.23977098
53	0x3e8a501c	0.27014244
54	0x3d5174dc	0.051136836
55	0xbda35052	-0.07974304
56	0xbe083f06	-0.13305292
57	0xbd6e4cab	-0.058178585
58	0xbcddd0c5	-0.027077088
59	0x3d1f7c18	0.038936704
60	0x3bcb6a2e	0.006207726
61	0xbd4786e4	-0.048712626
62	0xbdc1fc12	-0.09471907
63	0x3db6c38d	0.08924017
64	0x3db61fbb	0.08892771
65	0xbd99725e	-0.07492517
66	0x3d770f3c	0.060317263
67	0xbb36a04c	-0.002786654
68	0x3d919bb6	0.07109778
69	0xbe0b6f14	-0.13616592
70	0x3d4c6cfa	0.049908616
71	0x3bd05407	0.006357673
72	0xbd9c13de	-0.07620977
73	0xbe096907	-0.13418971
74	0xbdd73049	-0.105072565
75	0xbd17540b	-0.036945384
76	0xbd3604c7	-0.04443815
77	0x3dfe17f6	0.12406914
78	0x3dff1965	0.124560155
79	0xbe0ced31	-0.13762356
80	0xbdd5e2b4	-0.10443631
81	0xbd8f7410	-0.07004559
82	0xbd798b48	-0.060923845
83	0x3e083566	0.1330162
84	0x3ce18726	0.027530264
85	0xbdb75f18	-0.089536846
86	0x3c27f1f2	0.010250555
87	0xbdb4006f	-0.08789145
88	0x3da0bb21	0.07848192
89	0x3ccbed54	0.02489344
90	0xbdcbb13e	-0.09945916
91	0xbb1763ee	-0.0023100334
92	0xbe2efb47	-0.17088042
93	0xbd8f9f12	-0.07012762
94	0x3c92765c	0.017878704
95	0x3e6b9d00	0.2300911
96	0xbdba7940	-0.09105158
97	0xbdfde2ea	-0.12396796
98	0x3d219182	0.039445408
99	0x3db221bf	0.08697843
100	0xbbce3d3b	-0.0062939203
101	0x3e0aee93	0.13567571
102	0xbe32da86	-0.17466173
103	0x3c8eb9e2	0.01742262
104	0xbda6864e	-0.08131085
105	0xbdec85ec	-0.11548981
106	0xbca36b0b	-0.019948503
107	0xbd2633aa	-0.040576614
108	0xbe0e758b	-0.13912027
109	0x3c83609a	0.016037274
110	0x3cbc0d1b	0.022955468
111	0xbdfbf50b	-0.123025976
112	0xbe602b48	-0.2189151
113	0x3d565d4c	0.05233507
114	0xbdaf4394	-0.085578114
115	0x3cd6735a	0.02617805
116	0x3e3ea4ff	0.18617629
117	0x3d568625	0.052374024
118	0xbd88c9c5	-0.066791095
119	0xbd4ef135	-0.050523
120	0xbcf3ea10	-0.029774696
121	0xbdac36ba	-0.08408876
122	0xbc38c0f9	-0.011276477
123	0xbe698129	-0.22803177
124	0xbc6a48eb	-0.014299612
125	0x3d26abcd	0.040691186
126	0xbdc9bda1	-0.09850622
127	0x3c1fd171	0.009754525

weight f4 [128, 128]
0	0x3d96a4c1	0.07355643
1	0xbd67e478	-0.05661437
2	0x3d41018a	0.04712061
3	0xbdf180d7	-0.117921524
4	0xbd271ca8	-0.040798813
5	0x3d7f38ad	0.06230991
6	0x3d26f15c	0.040757522
7	0xbe4cc4f3	-0.19997005
8	0xbd568cd2	-0.05238039
9	0xbd77ecce	-0.06052857
10	0x3caf6219	0.021409081
11	0x3d5f7628	0.054556042
12	0xbda5cd54	-0.08095804
13	0x3a61ae8a	0.0008609077
14	0x3d861b3a	0.06548162
15	0xbdceb214	-0.100925595
16	0xbdf7c879	-0.12098784
17	0x3db888ff	0.09010505
18	0xbe1d9992	-0.15390614
19	0xbd4947f0	-0.04914087
20	0xbddac41a	-0.10681935
21	0x3d280c9a	0.041027643
22	0xbd9f50a6	-0.07779054
23	0x3e0e52b9	0.13898744
24	0x3e182a54	0.14859897
25	0xbdd08708	-0.10182005
26	0x3de4733d	0.111547925
27	0xbe0c1536	-0.13679966
28	0xbe1818e2	-0.14853242
29	0xbd5d987b	-0.054100495
30	0xbe622b23	-0.22086768
31	0x3e12350a	0.14278045
32	0xbd789d37	-0.060696807
33	0xbd4ed01d	-0.05049144
34	0xbda26ab2	-0.07930507
35	0xbd705880	-0.05867815
36	0x3dc095ad	0.094035484
37	0xbd035994	-0.03206785
38	0xbd2463e9	-0.040134344
39	0x3dc9597d	0.09831522
40	0x3cd90b2e	0.026494589
41	0xbe1d1936	-0.15341648
42	0xbe02c266	-0.1276947
43	0xbd96ed4b	-0.07369479
44	0x3cdb7801	0.02679062
45	0xbd387367	-0.04503193
46	0xbdb699d7	-0.08916061
47	0xbd4269cf	-0.04746419
48	0xbd59b151	-0.053147618
49	0x3b7a56c0	0.003819868
50	0xbd00a101	-0.031403545
51	0x3bfd4464	0.0077291
52	0x3d84a627	0.064770035
53	0x3e15d021	0.14630176
54	0x3d4da847	0.05020931
55	0xbe63635a	-0.22205868
56	0xbe142f7a	-0.14471236
57	0xbd8fba8a	-0.070180014
58	0xbd224026	-0.039611958
59	0xbdb51469	-0.088417836
60	0x3d35d8df	0.044396278
61	0xbe0b0ac7	-0.1357833
62	0x3e4921f6	0.19641861
63	0xbde3db2a	-0.111257866
64	0x3e358c17	0.17729221
65	0xbd9463f8	-0.0724563
66	0x3d5ca984	0.0538726
67	0x3d861d37	0.06548541
68	0xbdde209a	-0.10846062
69	0xbe4be555	-0.19911702
70	0x3d8b7e45	0.068111934
71	0xbdc2d389	-0.095130034
72	0x3d45caa3	0.048288953
73	0xbe8256db	-0.2545689
74	0xbe0f53e3	-0.13996844
75	0xbc7e2739	-0.015512281
76	0x3e0d1b58	0.13779962
77	0x3d8ea115	0.06964318
78	0xbcfa5336	-0.030557256
79	0xbe5be8cf	-0.21475528
80	0x3dad4c6d	0.08461843
81	0xbe2eb3ca	-0.17060772
82	0x3d110b2f	0.035411056
83	0xbc6babf1	-0.014384256
84	0x3c4188d4	0.0118124075
85	0xbd68cb9c	-0.056834802
86	0x3d631935	0.05544396
87	0xbdcd1f52	-0.100157395
88	0x3ddeb3ce	0.10874139
89	0xbdc1c8d1	-0.09462131
90	0xbddb0582	-0.1069441
91	0xbda107e7	-0.078628354
92	0x3ba0de5a	0.004909319
93	0xbd1b2289	-0.037874732
94	0x3d2a0798	0.04151115
95	0x3dace562	0.08442189
96	0xbd1bfef1	-0.038084928
97	0xbe11e6d0	-0.14248204
98	0x3d0d564c	0.034506127
99	0x3dcf9ed1	0.10137714
100	0xbd177804	-0.03697969
101	0x3cfcea40	0.030873418
102	0xbd026847	-0.031837728
103	0x3e08bf3c	0.133542
104	0x3e6ce8bf	0.2313566
105	0xbe2f9b18	-0.17149007
106	0xbe1446df	-0.1448016
107	0x3e203e71	0.1564882
108	0x3c539b78	0.012915485
109	0x3d9c9d26	0.07647161
110	0x3e5bbefe	0.21459576
111	0x3d917502	0.071023956
112	0xbe22b49c	-0.1588921
113	0x3d2bb533	0.041920852
114	0xbe182458	-0.14857614
115	0x3d86a2d0	0.06574023
116	0x3db68b11	0.089132436
117	0x3c8b8c58	0.017034695
118	0x3d8dc45c	0.06922218
119	0x3db1c744	0.08680585
120	0xbe42cf0c	-0.19024295
121	0x3d65ebde	0.056133144
122	0xbd2981b3	-0.041383456
123	0xbdfbbd1e	-0.122919306
124	0xbbceb0c7	-0.0063076946
125	0xbd52ca7b	-0.05146263
126	0xbe4fb831	-0.20285107
127	0x3dd33de6	0.103145406
128	0xbd2100c9	-0.03930739
129	0x3daaed28	0.08346015
130	0x3d2bf38d	0.041980315
131	0xbe62d5d7	-0.22151886
132	0x3d87a02f	0.066223495
133	0xbdc9b165	-0.098482884
134	0xbdb6cc1d	-0.0892565
135	0xbde5049f	-0.11182522
136	0xbd60b10c	-0.054856345
137	0xbd83d44c	-0.06436977
138	0x3e2fa4c3	0.17152695
139	0xbcbabdb2	-0.022795532
140	0x3e027ff9	0.1274413
141	0xbdcb3eb1	-0.09924067
142	0xbdcbc70b	-0.09950074
143	0x3e42569f	0.18978356
144	0x3e322745	0.17397793
145	0x3b7f03c1	0.003891215
146	0x3d12f03d	0.03587364
147	0x3d67b7e9	0.056571875
148	0xbc4a09df	-0.012331455
149	0x3e3e61d3	0.18592004
150	0x3d906484	0.07050422
151	0x3e4aa4b6	0.19789395
152	0x3de61c3a	0.112358525
153	0xbdf5f83c	-0.120102376
154	0xbdc828f1	-0.09773434
155	0xbe660ab6	-0.22465023
156	0x3e36382d	0.17794867
157	0x3d2421e4	0.040071383
158	0x3d9b0b49	0.07570512
159	0xbc79c812	-0.015245454
160	0xbbede81b	-0.007260335
161	0x3d5fb9b5	0.054620463
162	0xbd922d26	-0.07137518
163	0xbe7a8f59	-0.24468745
164	0xbde044e2	-0.10950638
165	0xbe28c22f	-0.16480325
166	0x3d867d0f	0.06566822
167	0xbd7f6282	-0.062349804
168	0x3d10b5c0	0.03532958
169	0x3e015fea	0.12634245
170	0xbdb8e357	-0.09027737
171	0x3d8a0bc8	0.06740528
172	0x3d1ff14b	0.039048474
173	0x3d6d5181	0.057939056
174	0xbd330e51	-0.043714825
175	0x3dd7c241	0.10535098
176	0xbd29941b	-0.04140101
177	0xbe0ce8ff	-0.13760756
178	0x3dafdfe2	0.08587624
179	0x3db6c496	0.089242145
180	0xbcad37f0	-0.021144837
181	0xbd939e1d	-0.07207892
182	0x3de99a89	0.11406428
183	0xbd50ce14	-0.05097778
184	0xbcdf7925	-0.027279446
185	0xbdfa2af1	-0.12215222
186	0xbc5404a5	-0.0129405605
187	0xbdfbe5c9	-0.122996874
188	0xbdfebdbc	-0.12438533
189	0xbd39088c	-0.045174167
190	0x3d61581d	0.055015672
191	0xbdf82108	-0.12115675
192	0xbd2b5ce5	-0.041836638
193	0xbd9c418b	-0.07629689
194	0x3dbf7118	0.09347743
195	0xbe96e241	-0.29469493
196	0x3e2ad9fe	0.1668472
197	0x3e05b109	0.13055815
198	0xbd57da4d	-0.052698422
199	0xbd19727b	-0.037462693
200	0x3ca59c0f	0.020216016
201	0xbdf22fd5	-0.118255295
202	0x3df98f1a	0.121854976
203	0xbd47131e	-0.048602216
204	0xbe22bc96	-0.15892252
205	0x3d8d275e	0.06892274
206	0x3d3aeff2	0.045638986
207	0x3d1eb2e2	0.038744815
208	0xbb91f0db	-0.004453761
209	0x3dbdb289	0.092625685
210	0xbd58c952	-0.05292637
211	0xbc9b2d21	-0.018942418
212	0x3df6745b	0.12033912
213	0xbe441b0c	-0.19150943
214	0x3d68abfa	0.056804635
215	0x3c4b1299	0.012394571
216	0xbe05f8b9	-0.13083161
217	0x3d3066a3	0.043066632
218	0x3eb8bf30	0.36083364
219	0xbe3dd78e	-0.18539259
220	0x3c7e8549	0.015534707
221	0x3d93fd60	0.07226062
222	0x3e037258	0.12836587
223	0xbde9a84d	-0.11409054
224	0x3cfc4f8f	0.030799655
225	0x3db6d88e	0.08928023
226	0xbc686ed8	-0.014186583
227	0x3c0243bf	0.007950722
228	0xbc985f45	-0.018600116
229	0xbdf7af7e	-0.12094019
230	0xbc84375e	-0.016139682
231	0xbe6e31bc	-0.2326116
232	0x3df7b251	0.12094558
233	0xbd3254f4	-0.04353805
234	0xbbaf07de	-0.005341514
235	0xbdce616d	-0.10077176
236	0xbcce1e89	-0.025161045
237	0x3ce465e1	0.02788061
238	0x3d1545c7	0.036443498
239	0xbc860b04	-0.016362675
240	0x3e5e1cba	0.21690646
241	0xbdaf72eb	-0.08566841
242	0x3dd16fa9	0.102263756
243	0xbd855715	-0.0651075
244	0x3dead8db	0.11467143
245	0x3d02d14f	0.031937893
246	0xbe3debfc	-0.18547052
247	0xbdf82b92	-0.121176854
248	0x3d0988f1	0.033577863
249	0xbcc403e2	-0.023927633
250	0xbe25f60a	-0.16207138
251	0xbaff0c0a	-0.0019458544
252	0x3d5577ad	0.052116085
253	0x3dc302e6	0.09522037
254	0xbd4c3fc9	-0.049865518
255	0xbdd00ea2	-0.10159041

bias f4 [128]
0	0x3e4af67f	0.19820593
1	0xbe20d71c	-0.15707058
2	0xbdca09fd	-0.09865186
3	0x3c31564d	0.010823798
4	0x3dc58ce1	0.09646011
5	0xbdf09efa	-0.117490724
6	0x3e02dd43	0.12779717
7	0x3c858b5e	0.016301807
8	0xbe1417e8	-0.14462245
9	0x3e255b63	0.16148143
10	0x3e0fce57	0.14043556
11	0x3d14ee71	0.036360208
12	0xbcfef838	-0.03112422
13	0x3df71f6d	0.12066541
14	0xbcef8757	-0.02923934
15	0x3de29aae	0.11064659
16	0xbd329f53	-0.043608975
17	0x3e2348e4	0.15945774
18	0xbe23983a	-0.15976039
19	0xbd1c0df7	-0.038099255
20	0xbdba0457	-0.09082859
21	0xbd93f41b	-0.07224294
22	0x3e9b4658	0.30327106
23	0x3d5f52b0	0.054522216
24	0x3df2b15e	0.11850236
25	0xbd0a1316	-0.033709608
26	0x3df83a5b	0.121205054
27	0x3cf389b6	0.029728752
28	0xbe0df5ed	-0.13863344
29	0xbdb8d8bf	-0.09025716
30	0x3e90b027	0.28259394
31	0x3e899a99	0.2687576
32	0xbd4ad1d3	-0.04951651
33	0x3e38b35b	0.18037169
34	0xbc6d95a7	-0.014501012
35	0xbd674ff8	-0.05647275
36	0xbd6fb303	-0.05852033
37	0x3e3da74c	0.1852085
38	0x3de8d717	0.1136915
39	0xbc71ccb5	-0.014758279
40	0xbe50f5b3	-0.20406227
41	0x3d9fbbd6	0.07799499
42	0x3d97dd2e	0.074152336
43	0xbd6d8a2c	-0.0579931
44	0xbe612a98	-0.21988904
45	0xbd5f077e	-0.054450504
46	0x3db8bb0b	0.090200506
47	0x3d36fefa	0.04467676
48	0xbd4d08e7	-0.050057318
49	0xbdddb67a	-0.1082582
50	0x3db61e8c	0.08892545
51	0xbbcd3ad0	-0.0062631145
52	0x3e23c0f5	0.15991576
53	0x3c801358	0.015634224
54	0x3e08ae77	0.13347803
55	0xbde5d02d	-0.11221347
56	0xbe3d41c5	-0.1848212
57	0xbd9aa622	-0.075512186
58	0xbb64e872	-0.0034928587
59	0x3e1e6c31	0.15470959
60	0xbcd00192	-0.025391374
61	0x3d9fbe06	0.07799916
62	0x39495168	0.0001919918
63	0x3daa0aa7	0.08302813
64	0x3cde6266	0.02714653
65	0x3d863dae	0.06554733
66	0xbd72f561	-0.059316043
67	0xbd15890c	-0.03650765
68	0x3e85469e	0.2603044
69	0xbc8e1528	-0.017344072
70	0x3e082559	0.13295497
71	0xbce5c531	-0.02804813
72	0x3cbea2fc	0.023271076
73	0x3c232cba	0.009959394
74	0xbc560298	-0.013062142
75	0x3e23e689	0.16005911
76	0xbc976f53	-0.0184857
77	0xbdd4c3eb	-0.10388931
78	0xbde0be4a	-0.10973795
79	0x3d6edcbf	0.05831599
80	0x3dbd37de	0.092391714
81	0xbe3c47e6	-0.18386802
82	0x3d4b0901	0.049569134
83	0x3de1c591	0.11024011
84	0x3e87f496	0.26553792
85	0x3d5bda61	0.05367506
86	0x3d761040	0.06007409
87	0xbdcff3a5	-0.101538934
88	0xbdd47e41	-0.103756435
89	0x3e04ded7	0.12975632
90	0xbd0b1668	-0.033956915
91	0xbdfa966b	-0.12235721
92	0xbde80411	-0.113289006
93	0xbcf56ca7	-0.029959036
94	0x3e03856b	0.12843864
95	0x3c5be2ee	0.0134208035
96	0x3e4a5296	0.19758067
97	0xbe7b1cdb	-0.24522726
98	0x3dae67c5	0.08515886
99	0xbda46fa2	-0.08029105
100	0x3e2c9f33	0.16857605
101	0x3c8cabcf	0.017171768
102	0x3cf8ff6f	0.030395238
103	0xbe170d34	-0.1475113
104	0x3d8493a4	0.06473473
105	0xbd86feab	-0.06591543
106	0x3cb6960e	0.022288349
107	0x3e00c794	0.12576133
108	0x3c111762	0.008855673
109	0xbd46d2e1	-0.048540954
110	0x3e2bcd56	0.16777548
111	0x3e28caa8	0.16483557
112	0x3da5a9c8	0.08089024
113	0xbd98b439	-0.0745625
114	0x3d481ead	0.04885738
115	0x3e02695a	0.12735501
116	0x3c163583	0.009168032
117	0xbdc9bae3	-0.09850099
118	0x3e223fc1	0.15844633
119	0xbde76c04	-0.11299899
120	0xbe1cd40d	-0.15315266
121	0xbd634626	-0.05548682
122	0x3b9bfd61	0.0047604297
123	0x3d14ea88	0.03635648
124	0x3d8df11c	0.069307536
125	0xbc392b08	-0.011301763
126	0xbc92fa38	-0.01794158
127	0xbdc0ff8d	-0.094237424

weight f4 [10, 128]
0	0x3c17c975	0.00926434
1	0x3d020e2b	0.031751793
2	0xbd91b62a	-0.07114823
3	0xbcfc3d4d	-0.03079095
4	0x3db64934	0.08900681
5	0xbdc664cd	-0.09687195
6	0x3de49bcc	0.111625284
7	0xbd67f8c7	-0.056633737
8	0xbda49778	-0.08036703
9	0xbdeeee3a	-0.11666532
10	0xbe351c48	-0.1768657
11	0x3daef02c	0.08541903
12	0x3d2f7f09	0.04284576
13	0x3dc6f571	0.09714783
14	0xbe07da0f	-0.13266777
15	0xbe661384	-0.22468382
16	0xbd150ad1	-0.03638727
17	0xbe68216c	-0.22669
18	0xbd2d54e7	-0.042317297
19	0x3df510dd	0.11966107
20	0x3d92785b	0.07151862
21	0xbe0dea41	-0.13858892
22	0xbe16a1b5	-0.14710124
23	0x3d131567	0.035909083
24	0xbd2ddc76	-0.042446576
25	0x3dd8d379	0.1058721
26	0xbd902cb6	-0.07039778
27	0xbe313c89	-0.17308249
28	0xbe11e985	-0.14249237
29	0xbe5b41bf	-0.21411799
30	0x3dafb773	0.08579912
31	0xbcd847b0	-0.02640137
32	0xbe03ba2d	-0.12863989
33	0xbe1b0a13	-0.15140562
34	0x3d70b97d	0.058770645
35	0xbe6bbdfd	-0.23021694
36	0xbe360d1c	-0.17778438
37	0x3dba71e7	0.091037564
38	0xbdf5fec5	-0.12011484
39	0x3dae95a8	0.085246384
40	0x3c43c635	0.011949112
41	0x3cce8def	0.025214164
42	0x3d7e9372	0.062152334
43	0xbb9bcb1c	-0.004754437
44	0x3de49ee5	0.11163119
45	0xbdada11a	-0.08477993
46	0x3dc83c69	0.09777147
47	0x3ddeadfa	0.10873027
48	0x3d5b8c84	0.053600803
49	0x3def2351	0.11676658
50	0x3d7d14c1	0.06178737
51	0xbd348cbd	-0.04407953
52	0xbe1c9f41	-0.15295126
53	0xbd08d3c2	-0.033405073
54	0xbe05ac5d	-0.13054033
55	0x3debf056	0.1152045
56	0xbcc51141	-0.024056079
57	0x3b01f541	0.001983002
58	0x3d3e811c	0.046509847
59	0x3d8f7fd6	0.07006805
60	0x3e1d8355	0.1538213
61	0xbdf95443	-0.12174275
62	0xbe0582e9	-0.1303822
63	0x3d84cdcc	0.06484565
64	0xbe1f3de2	-0.1555095
65	0xbda6cb86	-0.08144288
66	0x3d8c2f56	0.06844966
67	0xbd94ca90	-0.07265198
68	0xbd8e530b	-0.06949433
69	0x3d10f2d4	0.03538783
70	0xbbfa8ba3	-0.0076460405
71	0x3cbf1e9c	0.023330025
72	0xbd990b19	-0.0747282
73	0x3dbccbaf	0.09218537
74	0x3d27b3e6	0.04094305
75	0xbd8248ff	-0.06361579
76	0xbe08d5c8	-0.13362801
77	0x3e051907	0.12997828
78	0x3d81e7b9	0.06343026
79	0x3e297fd3	0.16552667
80	0xbe279f3d	-0.16369338
81	0xbdfa4c58	-0.12221593
82	0x3d1e5a15	0.038660128
83	0xbde2029b	-0.11035653
84	0xbddac18f	-0.106814496
85	0xbe0054f2	-0.12532404
86	0xbe87f0b9	-0.26550844
87	0xbdf86824	-0.12129238
88	0xbde2fe1f	-0.11083626
89	0xbd26b3f0	-0.040698946
90	0xbc64b8cd	-0.013960076
91	0xbdff1dfb	-0.1245689
92	0x3e2fe956	0.17178854
93	0x3e358bda	0.1772913
94	0xbe0aeda5	-0.13567217
95	0xbe54ffac	-0.20800656
96	0xbde374bc	-0.1110625
97	0xbd90eefa	-0.07076831
98	0xbddebc7e	-0.10875796
99	0xbd0ecc32	-0.034862705
100	0xbe857e09	-0.2607272
101	0x3d45f0a4	0.048325196
102	0xbd65d0d0	-0.056107342
103	0xbe151b0c	-0.14561099
104	0x3d3449d7	0.04401573
105	0x3d8f2571	0.06989563
106	0xbe3213ca	-0.17390361
107	0xbb9a7d83	-0.004714669
108	0x3d45be8c	0.048277423
109	0xbd5469f7	-0.05185887
110	0xbe408038	-0.18798912
111	0x3c99c36f	0.018769948
112	0x3d8b61e2	0.06805779
113	0xbe5b29b9	-0.21402635
114	0xbcdff787	-0.02733971
115	0x3ddf04a1	0.10889555
116	0x3da85e2e	0.08221088
117	0xbdca0406	-0.09864049
118	0xbcdfbcdb	-0.027311733
119	0xbdb96c8a	-0.09053905
120	0xbd252f8a	-0.04032854
121	0xbc33f6d5	-0.010984142
122	0xbcc91c14	-0.024549522
123	0xbe2dd2e4	-0.1697498
124	0xbe1e202c	-0.1544196
125	0xbd176b2c	-0.03696744
126	0xbe4bbc3d	-0.19896026
127	0x3dcd18a0	0.100144625
128	0xbe89c2ce	-0.26906437
129	0x3d261337	0.04054567
130	0x3dbb275b	0.09138366
131	0x3d1ae864	0.03781928
132	0xbe81116d	-0.25208607
133	0xbc1ff896	-0.009763857
134	0x3d614291	0.054995123
135	0x3c996fee	0.01873013
136	0xbdbb1aa8	-0.09135944
137	0x3c26a303	0.010170701
138	0xbddd621b	-0.10809728
139	0xbd3bbd5c	-0.045834884
140	0xbd78e676	-0.06076666
141	0xbdf0b8c5	-0.11753992
142	0x3bed1581	0.0072352295
143	0x3dfcfb28	0.12352592
144	0xbd7e964e	-0.06215506
145	0x3d748d67	0.059705164
146	0xbd8f6abc	-0.0700278
147	0x3dce72d7	0.10080498
148	0x3d9f4e1e	0.077785715
149	0x3d729c96	0.059231363
150	0xbd13f71c	-0.036124334
151	0xbdb1ea8b	-0.08687314
152	0xbe11af08	-0.14226925
153	0xbe09f952	-0.13474014
154	0xbe2b8c19	-0.16752662
155	0xbda5f9ae	-0.08104263
156	0xbdb2b89a	-0.08726616
157	0xbc6e002d	-0.014526409
158	0xbe1d1ee5	-0.15343817
159	0xbe157b62	-0.14597848
160	0xbde3c75a	-0.11122008
161	0x3d61bc20	0.05511105
162	0x3d07a58c	0.033116862
163	0x3dfc788b	0.12327679
164	0xbdf15e44	-0.11785558
165	0x3d29cd6a	0.041455664
166	0x3dc5839d	0.09644244
167	0x3db3a3d5	0.08771483
168	0x3d4575f0	0.048208177
169	0xbe27a2a2	-0.16370633
170	0xbde04316	-0.109502956
171	0x3ce1ea06	0.027577411
172	0x3d9fa8d1	0.07795871
173	0xbd8282a3	-0.06372573
174	0xbe845291	-0.25844243
175	0xbe790b29	-0.24320664
176	0xbe5a304a	-0.21307483
177	0xbc6f5f4c	-0.014610123
178	0xbe125800	-0.14291382
179	0xbcaa67c6	-0.020801436
180	0xbdcb0f88	-0.09915072
181	0xbd8febb2	-0.07027377
182	0x3bfb6b51	0.007672705
183	0x3d3089d5	0.043100197
184	0x3dd75933	0.1051506
185	0xbd22a2a9	-0.039705906
186	0xbe8e9411	-0.2784734
187	0x3d4aab41	0.049479727
188	0xbbd0d289	-0.006372754
189	0xbe14ea97	-0.14542614
190	0x3de4681d	0.111526705
191	0xbe3659ba	-0.17807665
192	0x3d9a5f20	0.07537675
193	0xbde669e7	-0.11250668
194	0x3cac5e59	0.021041082
195	0x3d835f4c	0.06414661
196	0xbe2b326d	-0.16718455
197	0xbe13e52a	-0.14442888
198	0xbe54df88	-0.20788395
199	0xbe5d8351	-0.21632124
200	0xbe318b9c	-0.17338413
201	0xbd96d124	-0.07364109
202	0xbd6f9721	-0.058493737
203	0xbd813ce2	-0.063104406
204	0xbe020dde	-0.12700602
205	0xbe153685	-0.14571579
206	0xbea772fc	-0.32704914
207	0x3c0288df	0.007967203
208	0xbe4a0ebd	-0.19732185
209	0xbcba7a8c	-0.022763513
210	0xbe30f1d2	-0.17279747
211	0xbdb257f1	-0.0870818
212	0xbdcc9303	-0.09988978
213	0xbde3d8ea	-0.111253574
214	0xbd9b7525	-0.07590703
215	0xbd09da3c	-0.03365539
216	0xbe217510	-0.15767312
217	0xbcc413f9	-0.023935305
218	0x3deedaec	0.1166285
219	0xbd81acc6	-0.06331782
220	0xbd9101e6	-0.0708044
221	0xbe243444	-0.16035563
222	0xbe8b22d2	-0.27175003
223	0x3dea4e18	0.114406765
224	0x3e09041f	0.13380478
225	0x3cc81292	0.024422918
226	0xbda3002e	-0.07959019
227	0xbdb32fe7	-0.08749371
228	0x3d810a38	0.06300777
229	0xbe2e6e75	-0.17034324
230	0xbd7a7848	-0.061149865
231	0x3e0f5246	0.13996229
232	0xbe49166a	-0.19637457
233	0xbda4d477	-0.08048337
234	0xbca24047	-0.01980604
235	0x3db9864d	0.09058819
236	0x3db887f8	0.09010309
237	0x3dc813de	0.09769414
238	0x3d8b31c1	0.06796599
239	0xbe054cf4	-0.13017637
240	0xbe0f5c31	-0.14000012
241	0x3db6085a	0.08888312
242	0x3dc3e831	0.09565771
243	0x3cbd2c0f	0.023092298
244	0xbbb00201	-0.0053713326
245	0x3c92ba29	0.017911034
246	0xbe0384de	-0.12843654
247	0x3e29338b	0.16523568
248	0x3ce2121a	0.027596522
249	0x3c1ae2fe	0.009453533
250	0xbec06116	-0.3757407
251	0x3de2b48c	0.11069593
252	0x3d6acd55	0.057324726
253	0x3d4626aa	0.048376717
254	0x3d993026	0.07479887
255	0x3e0566e5	0.13027532

bias f4 [10]
0	0xbb5fd580	-0.0034154356
1	0xbde90cfa	-0.11379428
2	0xbd9b9a2c	-0.07597765
3	0x3d8a12a3	0.06741836
4	0x3d601c0f	0.05471426
5	0xbd470895	-0.04859217
6	0x3c7f06be	0.015565572
7	0xbe0e9c65	-0.13926847
8	0x3e9fe4e7	0.31229326
9	0x3c7e75a5	0.015530978
