models/mlp_3_128.pth (torch, 475991 bytes, 6 tensors)

weight f4 [128, 784]
000000 a7 a9 0b 3d fc 80 bb bc 6f f2 73 3c d6 1e 50 3c
       0.03409734 -0.022888653 0.014889344 0.012702664
000010 31 5b 91 3c a9 46 2f 3d 0f 24 70 3c 58 fe 0c bb
       0.017743679 0.042791996 0.014657035 -0.0021513905
000020 a9 ea 1c 3d 12 ed c7 3b d6 da c3 bb bf a4 a8 3c
       0.038309727 0.006101259 -0.005977015 0.02058637
000030 c1 9e 0a 3a 8f 31 9f 3c 34 b3 94 3b 3b 41 70 3c
       0.00052879384 0.019432811 0.0045379642 0.01466399
000040 c8 57 8b bb 61 56 ad 3c 42 c2 c1 3b 87 73 2f 3d
       -0.0042524077 0.021159353 0.00591305 0.042834785
000050 51 56 3d bc 1e 5e 2c bc c7 a7 0f 3d 67 66 66 3c
       -0.011556224 -0.010520486 0.035072114 0.014062501
000060 2f f3 7b 3c ff 62 09 3d 72 46 35 bc ef fc 13 3d
       0.015377804 0.033541676 -0.011064159 0.03612989
000070 52 de ce 3b 9a 3a d0 3b 6c ec 93 3b 07 23 30 3d
       0.0063131237 0.006354642 0.0045142677 0.043002155
000080 3f 80 65 3c 99 e4 a8 bc 17 c8 0b 3d 2b 5b fd 3c
       0.014007627 -0.020616816 0.034126367 0.030927261
000090 2f e5 9f 3c 82 7b ce bb f7 46 a1 3c 04 25 51 3b
       0.019518463 -0.0063013444 0.019687159 0.0031912932
0000a0 2e e0 f0 3c 98 41 88 3d 83 7e ff bb 43 05 2f 3c
       0.029403772 0.06653136 -0.007797064 0.010682407
0000b0 c7 74 62 bc a7 ed d4 3c 09 1c 0d bc 0d 82 41 3d
       -0.013821787 0.025992228 -0.008612641 0.047243167
0000c0 36 aa 74 3b cd 65 1d 3d ad 62 3a 3c f0 ce 08 3c
       0.00373329 0.038427163 0.011376065 0.008350119
0000d0 15 ba 01 3d 98 f7 7e bc b7 e1 cb 3c 27 a0 c0 ba
       0.031671602 -0.015561961 0.024887903 -0.0014696167
0000e0 70 8a 13 39 45 99 b3 bc 21 61 2c bc d7 41 5c bc
       0.00014070584 -0.02192367 -0.010521204 -0.013443432
0000f0 74 29 30 bc 8f fd fb 3b 58 ed a0 b9 72 fd 8a 3c
       -0.010752071 0.0076901386 -0.00030694413 0.016966555
000100 69 c4 77 3c 20 e7 93 bd 6b 70 14 bd 3c 57 60 3c
       0.015122511 -0.07221818 -0.036240023 0.013692673
000110 b4 51 15 bc 4e 1b 84 bd 00 54 16 bd b4 b0 34 3d
       -0.009113718 -0.064505205 -0.036701202 0.04411383
000120 76 f0 c3 3d 0d 44 d4 3d 0c bb f7 3d bc e5 1e 3e
       0.09567349 0.10364542 0.12096223 0.15517324
000130 3b db 4c 3d 8e 07 b6 3d 21 cc 1a 3d 47 53 88 3d
       0.050013762 0.0888816 0.03779233 0.06656509
000140 ad f8 df bc 58 b6 98 bc 05 dc a6 3c 5d 0b 2c 3d
       -0.027340258 -0.018641636 0.020368585 0.042003024
000150 0d 73 d7 3c ab c4 29 3d ce cb be 3c af bf 8d bc
       0.026299978 0.041447323 0.023290541 -0.017303316
000160 08 48 a5 3c 25 35 33 bc 1d 85 33 3d 52 34 85 3c
       0.020175949 -0.010937964 0.04382812 0.0162603
000170 f7 74 1b bd 57 83 1a be 65 b5 36 be c2 ab be bd
       -0.037953343 -0.15089165 -0.17842634 -0.09310104
000180 87 cf 04 be 0c 36 94 bd 27 f4 5f bd 96 1f a0 bd
       -0.1296979 -0.07236871 -0.0546762 -0.078185245
000190 aa 4c 6d bd af 0d a0 3c 20 e6 df 3d 72 1c 01 3e
       -0.05793444 0.019537775 0.10932565 0.12608507
0001a0 07 de 12 3e 4d 1d ef 3d cd 9f c4 3c 52 6f b4 3d
       0.14342509 0.116755106 0.02400198 0.08810295
0001b0 34 8d 1f 3d 98 dc 66 bb 0f e8 39 3d 5f b1 94 3c
       0.03895302 -0.00352267 0.045387324 0.018150983
0001c0 fc a3 01 3c d2 f1 e3 3b ac 97 9a bc f9 7e 98 3c
       0.007912632 0.0069563175 -0.01887115 0.018615233
0001d0 fd ec cf 3c 44 d8 08 bd 4f 39 37 bd 8f a8 b9 bd
       0.02538156 -0.033409372 -0.044732388 -0.09065353
0001e0 c8 66 1b be 96 a2 c8 bd fc 15 c9 3b 45 24 16 bd
       -0.15175927 -0.09796636 0.006136654 -0.036655683
0001f0 eb 19 0a be 2b 09 a6 bd 3a 52 30 be ae f0 7d bd
       -0.1348645 -0.081072174 -0.17218867 -0.06199711
000200 4c 4e 10 3b 05 52 45 3d fd 67 69 3d 73 13 8a bc
       0.0022019325 0.048173923 0.056983937 -0.016854977
000210 ac b4 30 3d a6 af be 3d 89 3c 5b 3d c5 37 2d 3e
       0.043141052 0.09310846 0.053524528 0.16915806
000220 08 72 9c 3d bb 52 e5 3c 01 07 2e 3c 17 81 33 3d
       0.07638937 0.02799355 0.010621787 0.04382428
000230 8f 99 5b bc 8d e0 ca bc 95 99 ff 3c 8c 80 30 3d
       -0.01340331 -0.024765277 0.031201163 0.04309134
000240 12 14 52 bd c4 2a e4 bb b6 34 29 be f6 30 df bd
       -0.05128867 -0.006963106 -0.16524014 -0.108980104
000250 20 38 51 bd 5b b5 ad 3c 80 78 ad bb 31 6a d0 3c
       -0.051078916 0.021204641 -0.0052939057 0.025441261
000260 9b 4b 3b bd c7 90 b5 bd db a2 9d 3a 37 86 46 3d
       -0.0457264 -0.08865505 0.0012026684 0.04846784
000270 fc 68 8c 3d b7 63 e3 3c 39 59 95 bb 0d 3c 61 3c
       0.06855962 0.027757509 -0.0045577553 0.013747227
000280 b6 46 df 3c c5 79 69 3d 10 f0 33 3c 2a 04 1b 3e
       0.027255397 0.057000894 0.010982528 0.15138307
000290 8a 70 77 3d c5 da 00 3d 7e 44 94 3d ad 1a 03 3a
       0.06041006 0.031458635 0.07239626 0.00050012284
0002a0 eb 8b 68 bc 77 67 17 3d 08 a0 09 3d 47 86 ed bb
       -0.014193515 0.036963906 0.033599883 -0.007248673
0002b0 df d1 8e bd 99 be 51 bd bb 2f 07 be 12 b6 dc bd
       -0.069736235 -0.05120716 -0.13201801 -0.10776915
0002c0 f7 31 83 3b a9 9f 83 bd d7 ba 81 bb 88 64 af 3b
       0.004003759 -0.06426937 -0.0039590406 0.0053525604
0002d0 ac 19 d0 bb ea ee 0e bd 42 55 f1 3c 09 16 4e bb
       -0.0063507166 -0.034895815 0.0294596 -0.003144624
0002e0 83 6a 89 bd 3c 77 f3 bc 3b 4b 04 3e 55 35 35 3e
       -0.067097686 -0.029719941 0.12919323 0.17696126
0002f0 06 bb 31 3e b6 a2 a9 bd d9 93 ca 3d 6d e4 23 3e
       0.173565 -0.08282988 0.09891481 0.16005106
000300 da 30 54 3e dc 4f 00 3e 87 bb 7c 3d 47 be 55 bb
       0.2072176 0.12530464 0.061702278 -0.0032614635
000310 22 7e eb 3c c1 2f 0f bd 61 cf 5a 3c 7b 54 21 bd
       0.028746668 -0.03495765 0.013355107 -0.039387207
000320 22 26 fe bd ef 0f 0f bd e6 c5 17 be 6b 5f 16 bd
       -0.12409617 -0.034927305 -0.14821586 -0.03671209
000330 b6 ae ca bd 1a 0c e2 3b 1c 3f 93 3d ba 03 18 3d
       -0.09896605 0.0068984153 0.071897715 0.03711293
000340 94 da b2 bc 78 b9 48 3c fe e3 48 3d 64 9d 6b 3d
       -0.021832742 0.01225125 0.049045555 0.057523146
000350 cd 27 a6 3d 49 7a 32 3e 1b 8f 1f 3e 57 44 7e 3e
       0.0811306 0.1742946 0.15581934 0.24830757
000360 a8 9c 87 3e a9 6a 60 3d 72 ea 13 3e 87 01 7f 3e
       0.26486707 0.05478922 0.14444903 0.24902926
000370 d2 ce 59 3e 8f 59 40 3e ca 65 14 3d dd ec 84 3a
       0.21270302 0.18784164 0.036229886 0.0010141392
000380 28 43 bd 3c d7 be da 3c fc 17 13 bc 78 e0 f2 bc
       0.023103312 0.026702328 -0.008977886 -0.02964805
000390 6b 66 28 bd a2 22 8b bd 39 c6 25 3c 08 2d 55 3d
       -0.0411133 -0.06793715 0.010118061 0.0520449
0003a0 0e 33 e0 bc 35 c8 a3 3c 21 e4 02 3c f0 0c 84 3d
       -0.027368095 0.019992927 0.0079889605 0.0644778
0003b0 47 28 9a bc b5 46 84 3c 55 80 e9 3c d6 c3 da 3d
       -0.018818034 0.016146997 0.028503576 0.10681884
0003c0 e5 fd 5b 3e 0a 55 0f 3e 66 10 1f 3e 94 bd 78 3e
       0.21483572 0.13997284 0.155336 0.24291068
0003d0 61 a5 87 3e b0 89 a4 3d b7 fe 05 3e b1 ae 70 3e
       0.26493362 0.08034074 0.13085447 0.2350414
0003e0 6e e3 87 3e e9 d7 05 3e 06 1e 0e 3d 07 cf 47 bc
       0.26540703 0.13070644 0.0346966 -0.012195355
0003f0 3c 09 94 bc 19 5e 24 3d bf 15 e4 bc 39 72 3b 3c
       -0.01807081 0.0401288 -0.0278424 0.011440807

bias f4 [128]
000000 34 d4 90 3c a0 0e 8d 3b 45 d4 8f 3b a6 1c 33 bd
       0.017679311 0.004304722 0.004389318 -0.043728493
000010 17 83 de bb 72 fd 5d bd ad 61 08 bd 9c d7 ca 3c
       -0.0067905295 -0.054196782 -0.033296276 0.024761014
000020 ea f9 23 3c ec 78 c5 bc 52 00 83 bd 35 74 18 bc
       0.010008315 -0.024105512 -0.063965455 -0.00930505
000030 35 bb 8a bb 40 d0 81 bd 82 58 a4 3c 8e 4e 03 3d
       -0.0042337426 -0.06338549 0.020061735 0.032057337
000040 de d2 a1 ba dc 9c 80 ba 89 a3 e9 bc 4f 85 c2 3c
       -0.0012346169 -0.0009812373 -0.028520362 0.023745207
000050 00 95 af 3b b0 d2 28 3b a3 c8 08 3c 01 36 44 3b
       0.0053583384 0.0025760345 0.008348617 0.0029939415
000060 51 4c 88 3c e2 06 15 3b 4d 65 a0 bd 41 ea f9 3b
       0.016637953 0.0022739698 -0.078318216 0.007626802
000070 56 f4 01 3d 72 e8 31 bd 76 7b 84 3c 0b 94 96 bc
       0.031727158 -0.043434568 0.016172152 -0.01838114
000080 9e 81 4e bc 44 c6 ef bb 9b c4 49 bd 00 c4 4d bd
       -0.012604145 -0.0073173363 -0.049259763 -0.05023575
000090 ea 35 40 bc be 71 98 bd 31 59 a1 bc 5f 85 27 bb
       -0.011731604 -0.074435696 -0.01969585 -0.0025561673
0000a0 fd 12 7f 3c 33 bf f8 bb ca b1 bb bd 94 8a 53 bc
       0.015568492 -0.007591152 -0.0916477 -0.012911458
0000b0 23 35 b4 bc 53 d0 17 bb 07 80 aa 3a 97 df a2 bc
       -0.021997994 -0.0023164942 0.0013008126 -0.019882007
0000c0 b5 dd 35 3c 7a 0a a7 3c de 32 6c bd 97 fa c1 3c
       0.011100222 0.020390738 -0.0576657 0.02367906
0000d0 32 a7 d2 bc a4 89 43 bd 54 d1 c1 3c 01 1f cb 3b
       -0.02571449 -0.047738686 0.023659386 0.0061987643
0000e0 26 9f f3 ba f8 e5 3e 3b 85 a9 19 bc 46 0d bb 3b
       -0.0018586859 0.0029128771 -0.0093787955 0.0057083694
0000f0 af 6e 19 bc a6 f7 e6 bc 24 ac f8 3b 78 cc 80 bc
       -0.009364768 -0.02819426 0.00758888 -0.015722498
000100 69 be ac bc 71 23 d5 3c 42 df 26 bd 65 8a 53 bb
       -0.021086888 0.026017876 -0.04074026 -0.0032278534
000110 2f fd 59 bb 08 80 19 3b e2 45 e6 bc 17 aa 69 3b
       -0.0033262481 0.002342226 -0.028109495 0.003565436
000120 e4 ad cf 3c c4 6e 33 3c 9f fc cb 3b b1 68 c1 3c
       0.025351472 0.010951702 0.006225183 0.023609491
000130 92 db c9 3a ab 84 a3 bd 9d b7 cb bc 76 ee da ba
       0.001540052 -0.07984289 -0.024867827 -0.0016703147
000140 d2 6a ae 3c 55 f1 d0 bc f0 88 ae bc 98 9f 68 bd
       0.02129117 -0.025505701 -0.021305531 -0.056792825
000150 f4 2e 4d bc 72 1c bd bc 45 1b f7 bc fc 95 d4 bc
       -0.0125234015 -0.023084853 -0.03016437 -0.025950424
000160 6b 51 05 bd 08 63 52 bb 03 a8 0a bd d9 a6 5e bc
       -0.03254835 -0.0032102484 -0.033851635 -0.013589584
000170 9f 6d 61 3b 99 16 6e bb a4 01 b9 bc 08 aa 3b 3c
       0.0034397615 -0.0036329387 -0.02258379 0.011454113
000180 b7 58 8f bb 0f 17 cf 3c 11 ad 11 bd c1 1f 17 3b
       -0.0043745893 0.02527955 -0.03556544 0.0023059698
000190 eb d7 e4 bc e5 c1 b5 3c 95 57 31 bd 55 42 77 3b
       -0.027934989 0.022187183 -0.043296415 0.0037728746
0001a0 46 82 d5 bc c5 68 41 bd 4d ff 8e bc ac 5e 1f bd
       -0.026063096 -0.047219057 -0.017455721 -0.038908646
0001b0 a4 64 c8 bc 49 4e 38 bd 94 28 23 3c 2f fa f4 3b
       -0.024462052 -0.044996534 0.009958405 0.0074761133
0001c0 ae 85 89 3a b1 2d 30 bc eb e1 27 bd c1 57 4e bc
       0.001049211 -0.010753081 -0.040986937 -0.012594164
0001d0 28 dc c1 3c 9f 73 17 bc 7b 72 bd 3b 64 0b ef 3c
       0.023664549 -0.009243875 0.0057814694 0.029180236
0001e0 ba 74 25 bd fa 4e fb 3c 25 e5 e4 3c 0d d8 12 bd
       -0.040394522 0.030677307 0.027941296 -0.035850573
0001f0 1b e7 26 bd 15 79 4b bc e8 2d 5f b9 ca 85 26 bd
       -0.040747743 -0.012419005 -0.00021284039 -0.040654935

weight f4 [128, 128]
000000 d9 ae 1c 3e 22 a7 04 be 21 06 d2 ba be 3c 0f be
       0.15301074 -0.12954381 -0.0016023555 -0.13988015
000010 e9 5c d1 3a ee bd 71 be 3c aa 69 be c7 02 16 3e
       0.0015973124 -0.23607609 -0.22818846 0.14649497
000020 b8 70 ce bd 11 d1 38 3e e3 72 16 be bd 17 2d 3d
       -0.10080093 0.18048503 -0.14692263 0.042258967
000030 7e 22 7f 3d 33 a6 09 bd 5f 9f 94 3d e3 b5 18 be
       0.062288754 -0.033605766 0.0725696 -0.14913134
000040 0f b4 7f bd 05 c1 87 3d 15 1b 04 3c 8f d9 32 be
       -0.062427577 0.066286124 0.0080630975 -0.17465805
000050 8b dc 20 be 7f 5c a8 bd b3 30 3f bb 5d ab c6 3c
       -0.1570913 -0.08220767 -0.0029173314 0.024251634
000060 84 28 63 be b0 cb fc bc 1e 8f 72 be e7 65 0e be
       -0.22183424 -0.030858845 -0.23687407 -0.1390606
000070 b2 46 aa 3d 13 4f 00 3b ee 60 62 3e 8f b7 ac 3d
       0.08314265 0.0019578382 0.22107288 0.084334485
000080 4b c1 a9 bd b3 09 ec bc 7e 4d 15 3e 7c d0 a8 bc
       -0.08288821 -0.028813219 0.14580342 -0.020607226
000090 ba 21 e2 3d 6c 0a 96 3c 9e 14 c5 3d e7 cb 0e 3e
       0.11041589 0.018315516 0.09623073 0.1394497
0000a0 e7 ec bc 3d 54 10 1e be e7 52 2c bd e1 6c b1 3c
       0.09224873 -0.15435916 -0.04207125 0.021658363
0000b0 96 15 a3 3d 08 92 20 be 51 dd 0c 3c cf 3b 61 ba
       0.079631016 -0.15680707 0.008597688 -0.0008591981
0000c0 bc 11 c6 3c 62 15 0e 3e f2 1b 02 3d 2a e2 94 3d
       0.024178378 0.13875344 0.031764932 0.072697
0000d0 09 9b 0c 3d ce a2 ed bc 3b 61 d5 3d 30 b3 a6 3c
       0.03432754 -0.029008295 0.10418936 0.020349115
0000e0 b2 70 c1 bd ba 3d 1e bd d7 19 84 bd 6a d4 c5 bd
       -0.09445323 -0.038633086 -0.06450241 -0.096596554
0000f0 61 87 26 3d c2 ac 60 bd 9e 4e fe 3d e1 13 01 bd
       0.04065645 -0.054852255 0.12417339 -0.0315131
000100 48 bb 1d bc 5a 1c 93 3e f6 31 77 bb 41 23 ff 3d
       -0.009627171 0.28732568 -0.0037718988 0.12457896
000110 cb 39 74 bd 63 b1 4d be 7b 7b 11 bd d2 a9 2f bc
       -0.05962543 -0.20087199 -0.03551815 -0.010721641
000120 02 8b 27 3d e2 d4 05 3d 7d 86 67 3d 7d 6e ab 3d
       0.040904053 0.032673724 0.056524742 0.08370683
000130 25 50 50 be 95 89 68 3c ce 44 8c 3e 01 e8 84 3d
       -0.20343073 0.014192958 0.27396244 0.06489564
000140 68 47 2a bd d2 fa 3c 3d 76 88 04 3e cd a6 b9 3d
       -0.041572005 0.04613764 0.1294268 0.09065018
000150 50 54 6a be 26 7c ac be df a3 72 3d d9 b0 a8 3d
       -0.22883725 -0.33688468 0.05923831 0.08236856
000160 d3 da ef bd f3 2d bf 3d bb 03 85 be a5 32 7e bd
       -0.11711659 0.09334936 -0.2597941 -0.062060017
000170 ec 5d 10 3e ca c9 a0 3b da ad 08 be 80 e8 69 3c
       0.14098328 0.0049068676 -0.13347569 0.014276624
000180 80 c3 c8 bc b5 da 20 be 7c f0 2a be 6d ae 40 bc
       -0.024507284 -0.1570843 -0.166933 -0.011760336
000190 06 5f 82 bc 35 7c 00 bd f0 24 84 be 8c 7e fa bd
       -0.015914451 -0.031368453 -0.2580943 -0.12231168
0001a0 5b 9e ab bd 62 68 b8 3d 1e 6f a4 bd 7c 39 14 3d
       -0.08379813 0.090042844 -0.080290064 0.036187634
0001b0 30 8a 06 3e 71 53 8c 3d be f4 fb bd 5e 28 a1 bd
       0.13138652 0.06851853 -0.1230254 -0.078690276
0001c0 d5 a8 44 3e c7 f8 0c be 17 43 30 be e9 05 2e 3d
       0.1920503 -0.13766776 -0.17213093 0.042486105
0001d0 a1 73 78 3c 56 40 31 3b 91 a4 06 3e e1 c3 04 bc
       0.015164287 0.0027046404 0.13148715 -0.008103342
0001e0 a7 c7 20 bd dc 93 b6 3c 57 5d 60 3d 5d f4 bf 3d
       -0.039252903 0.022287302 0.054776516 0.093727805
0001f0 99 26 78 ba 52 f5 22 bd e6 da 24 bc 42 c1 ef ba
       -0.0009466201 -0.039784737 -0.010061955 -0.0018291848
000200 f4 1f c2 3d 5d db 5d bd 42 fe 8a bd 96 2f d1 bc
       0.09478751 -0.05416428 -0.06786777 -0.025535386
000210 5d 14 95 3d 11 0f 41 bb a3 93 d2 bc 03 c1 fc bd
       0.072792746 -0.0029458443 -0.025705164 -0.123415016
000220 ad 5e 01 bd 2d 22 8d 3d 7d 8c 1c bc be af 80 3c
       -0.03158443 0.06891284 -0.009554979 0.0157088
000230 d7 d6 c1 bd 58 4e bb bd 72 3e 94 bc fc b6 90 3b
       -0.094648056 -0.09145802 -0.018096182 0.0044163447
000240 c3 ee 3c be 2c 07 58 3d e9 90 31 3e 79 60 93 3b
       -0.18450455 0.052741215 0.17340435 0.0044975844
000250 3d 30 40 3e 7e 0b fc bd 24 55 4f 3e 41 48 3b be
       0.18768401 -0.123068795 0.20247322 -0.18289281
000260 58 44 bd 3d 69 2d b0 bd 58 6c e4 3d 4a 74 02 3e
       0.09241551 -0.08602411 0.111534774 0.12739673
000270 57 25 58 bd 55 22 4b 3e 61 00 2e 3e 98 f6 b7 bd
       -0.052769985 0.19837315 0.16992332 -0.08982581
000280 73 1e dc 3c e1 b9 a7 3c a2 83 9b bc db 7b 84 be
       0.026869988 0.020474376 -0.018983666 -0.25875744
000290 c2 e5 08 bd 43 e3 10 be 81 bd 0b be 2b 42 29 3c
       -0.03342224 -0.14149193 -0.13646509 0.010330717
0002a0 3d 67 a8 3c 70 a8 9a bd 29 e9 a2 b9 cd e0 ce bc
       0.02055704 -0.07551658 -0.00031072766 -0.025253678
0002b0 7c 6f bb bd 7c 8e 4b bd 12 6b 06 3b 5e b4 7f bb
       -0.09152123 -0.04969643 0.0020510596 -0.003901742
0002c0 38 b4 49 be c5 67 08 3e 3d 1f fd bd 87 7d 57 bd
       -0.19697654 0.13320835 -0.12359474 -0.052609947
0002d0 cc b1 50 3d 94 bd 78 bd 4e 57 37 3e dc 99 f2 3d
       0.05095081 -0.06072767 0.17904398 0.118457526
0002e0 47 e5 80 3d dd 9e ec 3d 6a ea 09 bd a2 a8 c1 bd
       0.06293731 0.11553738 -0.03367082 -0.09455992
0002f0 70 98 4d 3e 02 f5 77 bd 96 e2 19 3c ba 2d b9 3d
       0.20077682 -0.060536392 0.009392401 0.09041925
000300 14 6f b3 3b 9e 3d 44 be 11 2c 84 3d 56 9c d3 3b
       0.005475888 -0.1916413 0.064537175 0.0064578457
000310 99 15 f6 3d 29 0f 23 3e f2 5a 81 3c 05 1a 51 be
       0.12015838 0.15923752 0.015790436 -0.20420082
000320 d0 41 56 3d 52 2d 04 3c b5 7f 0d bd 6c fd 43 3d
       0.052308857 0.008067446 -0.03454562 0.047849104
000330 7f a7 92 3d 2a 30 2b 3e ba 78 38 be e6 6e 27 bb
       0.071608536 0.16717592 -0.18014804 -0.0025548278
000340 01 74 e6 3d 4e 0e 84 3d a4 1b ba be 66 a8 ef bd
       0.11252595 0.06448041 -0.36349213 -0.11702041
000350 a6 2d 4b be db 88 2c bc a8 62 a7 3b e3 03 22 be
       -0.19841632 -0.010530676 0.0051081963 -0.15821795
000360 ac 06 a5 3d e9 38 52 3b e8 7c 34 bd b7 94 af bd
       0.08057913 0.0032077378 -0.044064432 -0.08573287
000370 90 f0 96 bd 81 2f e7 bd 8c c2 34 bd 74 e8 45 bc
       -0.073701024 -0.112883575 -0.044130847 -0.012079347
000380 cc 70 2f bd 2e 60 43 3d b4 fb fd bd ec c0 31 3d
       -0.04283218 0.047699146 -0.12401524 0.043396875
000390 51 64 7e 3d 4f e5 cf 3d f6 20 8d 3d cd f9 cf 3d
       0.062107388 0.10151159 0.068910524 0.101550676
0003a0 24 de eb 3d 31 31 58 bd 37 e6 73 3e 53 0a ad 3a
       0.11516979 -0.052781288 0.23818289 0.0013201929
0003b0 73 53 83 3d 6d 4a cc bc 12 69 70 bd 69 cb e7 3c
       0.06412401 -0.024937833 -0.058693953 0.028295236
0003c0 f3 8b 2a 3c c7 f3 60 3e c2 5c 38 be 23 91 1f 3e
       0.010409343 0.21967994 -0.18004134 0.15582709
0003d0 06 22 04 bc ae 15 3b be f5 b1 df bd 39 b0 da bc
       -0.008064752 -0.18269989 -0.109226145 -0.026695358
0003e0 34 0c d4 3c 1c 11 84 3c 30 c1 6d 3e 7d 9e 45 bc
       0.025884725 0.01612144 0.23218226 -0.012061712
0003f0 ad 62 d5 bd b9 95 0b 3e 82 90 f3 3c f6 39 58 3d
       -0.104192115 0.13631333 0.029731993 0.05278965

bias f4 [128]
000000 9c 44 51 3e 83 e8 44 bd 8e ff b4 bc 5c f6 ae bd
       0.20436329 -0.048073303 -0.022094514 -0.08543083
000010 53 bf 52 bd ec 6a c6 3d 12 ae 0c 3e 7d 7c a7 3d
       -0.051451992 0.096883625 0.13738278 0.08178041
000020 d3 a7 81 3d 85 19 8a 3e a2 7b 2e bc 19 7a 12 be
       0.06330838 0.26972595 -0.010649594 -0.14304389
000030 45 8c 97 3d 6b 91 d2 3c d4 13 77 bd 68 f9 e3 3b
       0.07399801 0.025704106 -0.060321644 0.006957222
000040 f4 d7 1e be 0e e6 91 3d 16 b0 ba 3c 28 9c 67 39
       -0.15512067 0.071239576 0.022789042 0.0002208805
000050 f6 fe ba 3d e6 33 49 bd a7 6f 61 bd 02 b6 55 3c
       0.09130661 -0.04912176 -0.05503812 0.013043882
000060 99 a3 20 bd 29 68 3b bd 27 4b 9b 3d 6b fc 92 bd
       -0.03921852 -0.04575363 0.075826935 -0.07177051
000070 1d 84 75 3d 96 9b 03 bd 21 33 6e 3d 7d df b3 bd
       0.059940446 -0.0321308 0.05815423 -0.087828614
000080 16 b3 68 3e 75 37 2e be 71 f7 02 3d 94 c9 f0 3d
       0.22724566 -0.17013343 0.03197426 0.11757198
000090 d2 d4 50 3d 5d 72 c4 3d cb 4c 91 bd fa 0e 95 3c
       0.05098421 0.095921256 -0.07094725 0.018195618
0000a0 cc e5 64 bc 70 2e 25 3e 97 5c 05 be 28 ef 2e be
       -0.0139708035 0.16130996 -0.13023601 -0.17083418
0000b0 4a 77 51 bd b3 ae d0 bd 19 e1 5b bd 7d 3a 96 bd
       -0.051139154 -0.10189571 -0.053681467 -0.073353745
0000c0 1e 50 38 3d 9f 81 23 bd 20 40 d9 39 b7 39 f3 bd
       0.04499828 -0.03991854 0.00041437242 -0.118762426
0000d0 68 d0 43 be 18 c7 c9 bc a6 a2 62 3d 26 b3 e1 3d
       -0.1912247 -0.024631068 0.055330895 0.11020498
0000e0 41 75 d9 3c 16 f8 fd 3d c3 93 07 be d8 b3 48 be
       0.026545169 0.12400834 -0.1323996 -0.19599855
0000f0 47 01 49 3d eb 59 1e be 1e 50 cd bd 4c 98 b0 bd
       0.049073484 -0.15463988 -0.10025047 -0.08622798
000100 47 a4 4d bd 3e 7b 7a bd 08 d0 6a 3d 92 8d a9 bd
       -0.050205495 -0.06115269 0.0573273 -0.082789555
000110 5b d7 bd bd 2a 9f 38 3b 36 37 f6 3b ea 29 e2 3d
       -0.092695914 0.002817104 0.007513906 0.11043151
000120 67 0e f5 bd 10 fe 2a be 33 b2 5f bd e4 40 d4 3c
       -0.11965638 -0.1669848 -0.054613303 0.025909849
000130 3d 57 9a bc f6 11 11 be 81 0c e1 bb b9 dd 00 bc
       -0.018840427 -0.14167008 -0.0068679457 -0.007865363
000140 5c d2 50 3b c5 60 2b be 4d 75 61 bd db c2 42 3e
       0.0031863665 -0.16736133 -0.055043507 0.19019644
000150 bc 55 09 bc 9e 37 d5 3d 29 e7 57 3d 0a a3 80 3c
       -0.008382257 0.10410999 0.052710686 0.015702743
000160 bc 12 b3 3d a9 11 87 3c 90 82 e5 3a 58 7a a8 3d
       0.08743808 0.016487913 0.0017510224 0.0822646
000170 1b 90 c2 bd 23 87 8b 3d 1e 4d 20 3e 1f da f2 bc
       -0.09500142 0.06812885 0.15654418 -0.029645024
000180 6d 11 24 3e 28 d2 34 3e 28 67 67 bd da 4f e6 3c
       0.16022272 0.17658293 -0.05649486 0.028114248
000190 6f 14 61 3d 98 10 16 3e 6f 0d 01 be 3e d5 4c 3d
       0.054951128 0.14654768 -0.12602781 0.05000805
0001a0 8c 26 94 bd 34 12 07 3e 00 90 1e 3e 56 b1 ba 3c
       -0.07233915 0.13190538 0.15484619 0.022789638
0001b0 db f0 de bd df 09 5b 3d 83 5a c7 3c 6f 19 80 bd
       -0.10885783 0.05347621 0.024335152 -0.06254851
0001c0 69 85 e0 3d 94 6e 51 bc ae e7 a1 bd b9 58 cc bd
       0.10962946 -0.012782712 -0.079055175 -0.0997786
0001d0 c6 df 0b be 77 ce 48 bd 3d 25 1c 3e 02 73 f3 bd
       -0.13659582 -0.049025025 0.1524858 -0.118871704
0001e0 cf e4 c2 bd ca 24 15 3e 84 4b 54 bd a6 dc f8 3d
       -0.09516298 0.14564815 -0.05182983 0.1215146
0001f0 8f 9e 0c 3e 21 2e 8b 3d 48 33 a9 bc 22 a2 c1 3d
       0.1373236 0.06795908 -0.020654336 0.094547525

weight f4 [10, 128]
000000 a6 34 12 be ce 19 08 be 13 19 4b 3e 1c d1 19 3e
       -0.14277896 -0.13291094 0.19833784 0.15021175
000010 17 18 60 3e cc 33 b4 be 3e 5a 78 bc 75 31 66 3d
       0.2188419 -0.35195768 -0.015158234 0.05619951
000020 aa 50 40 3a 69 94 6c be ba 12 9b b9 5f 88 6c bd
       0.00073362386 -0.23103489 -0.00029577856 -0.05774724
000030 cd c5 f3 3d b6 68 9c 3d 46 4f f7 bb 9b dd a4 bc
       0.11902962 0.076371595 -0.007547292 -0.020125201
000040 44 42 37 3d a0 aa 74 bd f0 b7 75 be a9 1f d9 3d
       0.04474093 -0.059733033 -0.23995948 0.10601742
000050 cf cd c5 3d bd ec 4d be 43 fa 8a bd db 45 4f be
       0.096583955 -0.2010984 -0.06786015 -0.20241491
000060 80 8b 07 bc 91 4f 95 3d 04 db 0c 3d 57 35 3e be
       -0.0082730055 0.07290567 0.034388557 -0.18575035
000070 05 f9 8e 3d 1d 5e d2 bc 52 44 b8 bd 79 a6 7c 3c
       0.069810905 -0.025679642 -0.08997406 0.01542055
000080 ea 3e 05 3e 97 96 aa bd 55 48 96 be 9b 08 49 3d
       0.13012281 -0.08329504 -0.2935206 0.049080472
000090 e9 50 fb 3d 21 ff 01 3c 62 e8 9a be c0 10 06 3e
       0.12271292 0.007934363 -0.3025542 0.13092327
0000a0 e3 49 11 3e 4c 37 33 be 76 8d de 3d 50 a7 7d be
       0.14188342 -0.17501563 0.10866825 -0.24770856
0000b0 d7 e3 d6 be 11 fb fb bd f7 f6 7c bd c8 03 0f 3d
       -0.41970703 -0.123037465 -0.06175896 0.034915715
0000c0 8e 50 a7 3c 16 29 24 be a5 73 8b 3d 98 f7 25 3d
       0.020424154 -0.16031298 0.06809167 0.040519327
0000d0 f1 3c c2 be b3 47 11 3d da 48 ad 3c 4b d5 ed bd
       -0.3793712 0.03546877 0.021152902 -0.11612948
0000e0 cc b0 0e 3b 7a df b8 3c aa 40 f6 bc 5f 4e 2d bb
       0.002177286 0.0225675 -0.030060131 -0.0026444418
0000f0 f0 e1 88 bd 46 9c 60 3d 2b e3 95 bd c5 c5 8e bd
       -0.06683719 0.054836534 -0.073187195 -0.06971315
000100 7e c2 ac bd 8d 9a 60 bd d7 a4 05 be 40 6e 15 bd
       -0.08435534 -0.05483489 -0.13051163 -0.036482096
000110 7c b6 0c 3d 62 8e 45 be a0 46 23 be 99 97 e4 bd
       0.03435372 -0.19292596 -0.1594491 -0.111617275
000120 89 12 07 3e 62 d0 aa bd d6 d6 58 bd 5e 1a 68 be
       0.13190664 -0.08340527 -0.05293926 -0.22666308
000130 2b a9 1e 3d f6 51 83 be 08 1f 19 3e 4e 53 45 3d
       0.03873555 -0.2564847 0.14953244 0.04817515
000140 92 8b 04 3e c1 78 90 3b ce 93 5e be 2c 9c 9d bd
       0.12943867 0.0044089262 -0.2173607 -0.07695803
000150 88 e5 81 be bb 71 07 3e dd b4 7d be 12 64 7f bd
       -0.2537043 0.13226978 -0.24776025 -0.062351294
000160 b7 0e 06 3d 4b af c7 3b ea eb 64 be c3 7d aa 3d
       0.032728877 0.0060938946 -0.22355619 0.083247684
000170 14 36 4a be e4 3c 16 be 22 b8 7d be ef f8 58 bd
       -0.19747192 -0.14671665 -0.24777272 -0.052971777
000180 d8 76 9d be a9 29 45 3d 52 a1 5b 3e 4e e9 34 3c
       -0.30754733 0.048135433 0.21448258 0.011041952
000190 1f 64 1a be 6f 62 0d be 4e d5 dd be f3 dd 9e be
       -0.15077256 -0.1380708 -0.433268 -0.3102871
0001a0 07 e7 6c 3d 4c b5 81 3c 2b a0 1c be 6f cc b6 bd
       0.057837512 0.01583352 -0.15295474 -0.08925711
0001b0 50 cc 34 3d cc 9e 01 3e 19 da 81 be 1d 17 e6 3d
       0.04414016 0.12658232 -0.25361708 0.11234877
0001c0 f6 64 c9 3d 08 cc 26 3e 71 ed a3 3d 33 3d 27 bc
       0.0983371 0.16288769 0.08004273 -0.010207462
0001d0 08 14 a8 3d 42 8d b6 3d 72 52 3b 3c 62 a9 d3 bd
       0.08206946 0.089136615 0.011433231 -0.103350416
0001e0 a4 90 93 be 74 5c 0a be 97 cf 10 3e 16 bc f6 bd
       -0.2882129 -0.1351183 0.14141689 -0.12047593
0001f0 09 ae cb bd 6f fd 5a 3c ca 1b d8 bd 34 ee 51 b9
       -0.09945304 0.013366087 -0.10552175 -0.00020020531
000200 ad 63 18 3c 24 62 72 3d 62 eb 2b be e3 c5 64 be
       0.009301108 0.059175625 -0.1678901 -0.22341113
000210 7b e0 16 be 1b f7 99 3d 38 c6 02 3e 4a d5 0c 3d
       -0.1473407 0.07517835 0.12770927 0.034383096
000220 e3 21 0a be 16 bc 21 be 35 cd 0e 3d 4f 9c 09 3e
       -0.1348949 -0.15794405 0.03486367 0.13438533
000230 70 58 fa be 27 bf 0b 3d 41 bb e3 3d 4e 90 09 be
       -0.48895597 0.034117844 0.111197 -0.13433954
000240 81 8d 2c 3e 1e 60 2c be 75 d0 a5 3d 1f 04 38 bd
       0.16850854 -0.16833541 0.08096401 -0.044925805
000250 2d 85 75 3d 8f 7d 34 be fb 55 6f bc ad c1 0a bd
       0.05994146 -0.17626022 -0.014607902 -0.03387611
000260 05 77 12 be 33 31 01 bd 8a 7d 18 be 72 dc a1 3d
       -0.14303215 -0.03154106 -0.1489164 0.07903375
000270 46 4a 90 3d 3c 15 06 be b7 40 17 be 21 c1 6a be
       0.070454165 -0.13094038 -0.1477078 -0.22925235
000280 79 13 20 be 5f 66 0a 3e cf 70 76 3b 41 d0 02 3e
       -0.15632428 0.13515614 0.003760386 0.12774755
000290 25 d6 c6 bd b3 2a 59 bd 75 dd 16 3d f1 db e1 bd
       -0.097088136 -0.053019237 0.03683229 -0.110282786
0002a0 dd b9 6f be ba d3 36 3c fa 75 19 bd 16 0e 9a bd
       -0.23410745 0.011158878 -0.037466027 -0.07522218
0002b0 be cb 4a be c3 b5 00 3e 6d 6a 5f be df b4 48 bc
       -0.19804284 0.12569337 -0.21817942 -0.012250154
0002c0 15 e2 d2 bd af 44 18 3d 3d ee 9d 3d 23 5d ba bd
       -0.10297028 0.037174877 0.07711456 -0.09099796
0002d0 78 61 ef 3d 27 75 c8 bd 80 d6 e1 bd ad 6e 25 be
       0.116885126 -0.0978797 -0.11027241 -0.161555
0002e0 2a c2 92 be d9 39 a0 be 20 3c 0e 3c 10 59 5b be
       -0.2866376 -0.31294134 0.008681327 -0.21420693
0002f0 d7 48 e8 3c da a7 86 3d 60 00 cf 3d f5 aa 80 be
       0.028355045 0.06574984 0.101074934 -0.2513043
000300 90 fb 15 3e e2 0c c4 3b bd 7f 19 be ee 90 d5 3c
       0.14646745 0.005982981 -0.14990135 0.026070084
000310 4c 16 f5 3d fe 9c e5 3d e2 54 52 be 02 eb 02 bc
       0.119671434 0.112115845 -0.20540193 -0.007990601
000320 9d d4 61 bd a4 59 be 3c 26 06 8d bc 70 48 1b be
       -0.055134404 0.023236103 -0.017214846 -0.15164351
000330 d2 84 5c be eb ff 27 3e a4 0d 14 bd 4e fd 94 be
       -0.21535042 0.16406219 -0.03614582 -0.29099506
000340 a4 40 60 3d c2 01 53 3d 3a f4 e6 3c a8 f1 67 bc
       0.054749146 0.05151535 0.028192628 -0.014156736
000350 83 95 e5 bd 19 a4 05 3e 39 2a 88 bd 6a 72 2b 3d
       -0.11210158 0.1305088 -0.06648678 0.04185716
000360 8a ea 42 3d 02 75 00 3e fc ec a4 3d d9 4f 1b be
       0.047586955 0.12544635 0.08053014 -0.15167178
000370 27 ea c3 bd 60 d6 62 3d 63 19 f8 bd d5 26 34 3e
       -0.095661454 0.055380225 -0.12114217 0.17592938
000380 ee 45 2c bd c6 65 7b be 70 50 35 3d a3 42 8f be
       -0.042058878 -0.24550542 0.044266164 -0.27980527
000390 1a db 9e be 95 84 25 bd a7 38 41 3e 0c 86 85 bd
       -0.31026536 -0.040409643 0.18869267 -0.06519708
0003a0 ba 9b 10 be 00 4b 6f be 94 43 c4 bc 50 fd 27 3d
       -0.14121905 -0.23368454 -0.023958005 0.041013062
0003b0 1e d8 33 3e 32 d9 0c be ca d7 8a 3c 75 3d 38 be
       0.17562911 -0.13754728 0.0169486 -0.17992194
0003c0 1a 82 60 be 8d 3a 56 be 75 5b bd bd 84 4a 1a be
       -0.2192463 -0.20920773 -0.0924596 -0.15067488
0003d0 22 7f 8e 3c 51 6d bd bd 96 f7 eb bc 73 c5 04 3d
       0.017394606 -0.09249366 -0.028804582 0.032414865
0003e0 8c 72 6c bd 16 f1 57 3d 5e 9d 44 3c d5 6b 47 bd
       -0.057726428 0.05272015 0.01200041 -0.04868682
0003f0 46 c6 85 3d cb 68 07 be c6 96 44 3e c1 39 96 be
       0.06531958 -0.13223569 0.1919814 -0.29340938

bias f4 [10]
000000 3f a2 1b bd 7d c5 09 be 59 cc 29 bd 78 cb 55 bd
       -0.037996527 -0.13454242 -0.041454647 -0.052195996
000010 dc c1 c9 bc 9c 1a 19 be 20 b4 11 bd 1a fd ae bd
       -0.024628572 -0.14951557 -0.03557217 -0.08544369
000020 3f 5d a1 3e bc 50 0c 3c
       0.31516454 0.00856417
