models/mlp_6_128.pth (torch, 676353 bytes, 12 tensors)

weight f4 [128, 784]
0.0057929987 0.035960924 0.0027574361 0.018345952 0.005464378 0.043010324 0.005148868 -0.0008403345
0.051520634 0.03903881 0.035718888 -0.018114015 0.02510673 0.0013413534 0.04135574 0.0025794269
0.034415968 0.033588845 0.045054298 -0.00045808963 0.050139118 0.019965025 0.05162305 0.045455072
-0.00022502408 -0.011157037 -0.0030572833 0.00919699 0.008709175 -0.013908847 0.040484257 0.030715365
-0.0031019347 -0.00062854344 0.042066373 0.051288497 0.051304262 0.04437652 -0.013365278 -0.015055525
0.027598528 -0.016783712 0.033736076 -0.010624076 0.044753168 0.04005575 -0.01125471 0.03639694
-0.006747086 -0.006454314 0.010877256 -0.0074706483 0.035310213 0.03967015 -0.010715791 0.024949653
-0.015777742 0.04763889 0.014570004 0.049070526 0.018515853 0.018898094 0.046386834 0.030194985
0.006117445 -0.018233988 0.019239917 -0.014255744 0.0022272044 -0.01066887 0.0113638695 -0.042773988
-0.042175315 -0.06893 0.014147498 -0.027615255 0.0043666116 0.04292362 0.051131275 0.0016508902
0.036411215 0.006690828 0.0061386917 0.041756902 -0.00063886994 0.0020201695 0.03545447 0.028335689
0.02387999 0.03077676 0.018552616 -0.0067002843 -0.015387477 -0.048095524 -0.013406703 0.0043325485
-0.041520923 -0.049138147 -0.048210934 0.0047763824 -0.05962442 0.030552259 0.027796047 0.017515728
-0.02963776 -0.032054808 -0.006389066 0.020277688 -0.0016828054 -0.003793773 0.017875684 0.016666595
0.023605028 0.023366911 0.04641742 0.00991543 0.046232678 0.0019949311 0.009838652 0.10005248
0.12558465 0.08656645 -0.0402126 0.023639988 0.06446398 0.12424561 0.06006775 -0.05266696
-0.05813881 -0.001801629 0.11785475 0.055900365 0.038229965 -0.072502464 -0.066371575 -0.019882465
-0.011690411 0.029545745 0.024674611 -0.011209291 0.020867517 -0.016142381 0.008087479 0.046620905
0.029062975 0.05116589 0.03485543 0.10919624 0.08996575 0.10123867 0.087315045 0.18146038
0.17267206 0.15041487 0.09926597 -0.045826484 0.030707842 -0.019654064 0.04291274 0.095775716
0.07018717 0.055987522 -0.09511051 -0.00887999 -0.03787591 -0.06616712 0.015101373 0.03939873
-0.017940927 0.038400553 0.030268772 0.014924525 0.063455775 -0.010026096 -0.016867053 0.0011604887
0.024756394 -0.0049586343 0.108790204 0.04379601 0.07442368 0.055152945 0.0966286 0.040724944
-0.011701672 -0.04151489 0.039334323 -0.04350052 0.03813507 0.11524379 0.058635097 -0.07756335
-0.078752905 -0.016467445 -0.010360679 0.030421985 0.018287813 0.022126824 0.021945015 0.010427326
0.018297097 -0.005569011 -0.068734825 -0.052647404 -0.10062755 0.044850696 0.10961936 0.06578575
0.049947143 0.18550901 0.069608256 0.052244995 0.03166273 0.002833735 -0.00872018 0.041463047
0.08707611 0.062425453 0.0054114535 -0.0114571685 -0.029916106 -0.00254143 -0.014237452 0.011959375
0.034895066 0.017777314 -0.008756022 -0.02511356 0.028571524 0.0066231536 -0.038491834 -0.08864996
0.010217274 0.053646613 0.054856237 0.08938618 0.17236398 0.1466539 0.14754611 0.100259
0.07254502 0.103793636 0.12429772 0.11215011 0.10258551 0.0718986 0.10283912 0.022041332
-0.016087463 0.026965862 0.007039489 0.013367047 0.014365978 0.037765246 0.039082427 -0.034884878
00000000: 32d3 bd3b c34b 133d 1ab6 343b 404a 963c
00000010: 860e b33b 982b 303d d6b7 a83b e549 5cba
00000020: 4d07 533d 29e7 1f3d f84d 123d d863 94bc
00000030: a1ac cd3c 5ad0 af3a a364 293d 9a0b 293b
00000040: c2f7 0c3d 7594 093d db8a 383d c02b f0b9
00000050: ad5e 4d3d b18d a33c b172 533d 192f 3a3d
00000060: 71f4 6bb9 01cc 36bc b45c 48bb f9ae 163c
00000070: edb0 0e3c efe1 63bc d2d2 253d ca9e fb3c
00000080: d449 4bbb d6c4 24ba ca4d 2c3d e313 523d
00000090: 6b24 523d 27c4 353d 0afa 5abc 73ab 76bc
000000a0: 4f16 e23c ff7d 89bc d72e 0a3d 9b10 2ebc
000000b0: 194f 373d 8011 243d ad65 38bc f514 153d
000000c0: a916 ddbb b67e d3bb 8536 323c 57cc f4bb
000000d0: 71a1 103d 2b7d 223d 4991 2fbc 3763 cc3c
000000e0: 5340 81bc ff20 433d 07b7 6e3c 2dfe 483d
000000f0: 8fae 973c 2dd0 9a3c 1f00 3e3d 795b f73c
00000100: d974 c83b 725f 95bc 089d 9d3c ed90 69bc
00000110: 4af6 113b 7ccc 2ebc 862f 3a3c c733 2fbd
00000120: 06c0 2cbd 2c2b 8dbd e8ca 673c 6339 e2bc
00000130: cb15 8f3b aed0 2f3d 076f 513d af62 d83a
00000140: ed23 153d bc3e db3b 1427 c93b 4909 2b3d
00000150: d679 27ba d264 043b b538 113d 3f20 e83c
00000160: f89f c33c 8b1f fc3c a8fb 973c 0f8e dbbb
00000170: c21b 7cbc d0ff 44bd caa7 5bbc 0df8 8d3b
00000180: d811 2abd 1545 49bd d478 45bd 3383 9c3b
00000190: bc38 74bd bb48 fa3c 89b4 e33c 257d 8f3c
000001a0: e3ca f2bc e74b 03bd 5f5b d1bb 651d a63c
000001b0: 9491 dcba f3a0 78bb 0770 923c 6288 883c
000001c0: 555f c13c f76b bf3c 3120 3e3d 5474 223c
000001d0: 7a5e 3d3d 64bd 023b 4c32 213c 51e8 cc3d
000001e0: 4399 003e c049 b13d f8b5 24bd a6a8 c13c
000001f0: b105 843d 7b74 fe3d 9a09 763d 4fb9 57bd
00000200: f622 6ebd a324 ecba d55d f13d c8f7 643d
00000210: 0697 1c3d 2c7c 94bd d2ed 87bd 8de0 a2bc
00000220: 2389 3fbc eb09 f23c 6922 ca3c 2da7 37bc
00000230: 5bf2 aa3c 073d 84bc 5881 043c 90f5 3e3d
00000240: 7a15 ee3c 5393 513d 91c4 0e3d 47a2 df3d
00000250: f73f b83d 3856 cf3d 3bd2 b23d c0d0 393e
00000260: f2d0 303e 5b06 1a3e f54b cb3d 8db4 3bbd
00000270: 038f fb3c 8f01 a1bc 45c5 2f3d 0f26 c43d
00000280: 4abe 8f3d 2c53 653d 4dc9 c2bd 617d 11bc
00000290: c523 1bbd a182 87bd c06b 773c 9060 213d
000002a0: daf8 92bc e649 1d3d 37f6 f73c ff85 743c
000002b0: 1af5 813d 7f44 24bc c62c 8abc 8a1b 983a
000002c0: eccd ca3c 0a7c a2bb 66cd de3d 7263 333d
000002d0: 716b 983d 0ee8 613d 37e5 c53d 33cf 263d
000002e0: 5fb8 3fbc 840b 2abd 071d 213d 9a2d 32bd
000002f0: 8533 1c3d f004 ec3d 5b2b 703d 89d9 9ebd
00000300: 3449 a1bd bce6 86bc d6bf 29bc 8737 f93c
00000310: 53d0 953c 5043 b53c 08c6 b33c 60d7 2a3c
00000320: cbe3 953c 407c b6bb d8c4 8cbd cea4 57bd
00000330: d115 cebd 5db5 373d 1d80 e03d aeba 863d
00000340: 6095 4c3d 13f6 3d3e c68e 8e3d d9fe 553d
00000350: c7b0 013d 2fb6 393b 16df 0ebc 28d5 293d
00000360: f654 b23d d5b1 7f3d 9052 b13b d9b6 3bbc
00000370: 9f12 f5bc 1f8e 26bb 3444 69bc 41f1 433c
00000380: 21ee 0e3d bba1 913c 6b75 0fbc f4ba cdbc
00000390: d40e ea3c 0a07 d93b 9da9 1dbd 1c8e b5bd
000003a0: 5a66 273c 8dbc 5b3d efb0 603d 1a10 b73d
000003b0: 2f80 303e 712c 163e 5416 173e 9754 cd3d
000003c0: 7c92 943d c291 d43d ce8f fe3d f5ae e53d
000003d0: 5a18 d23d 933f 933d 519d d23d 0690 b43c
000003e0: dbc9 83bc 83e7 dc3c 84ab e63b 7501 5b3c
000003f0: 475f 6b3c bbaf 1a3d e514 203d 72e3 0ebd

bias f4 [128]
-0.021239337 -0.03566066 -0.008828025 -0.0006161925 0.00037429243 0.01078991 -0.019364404 -0.041055515
-0.0072648968 -0.015698884 -0.014764257 -0.048999395 -0.03261168 -0.032050908 0.005777929 -0.033048715
-0.035723615 -0.0426574 0.0097230105 0.014862827 -0.0005047064 0.0018143686 0.003565852 -0.02673576
0.014795472 -0.034544334 -0.049226362 -0.0038803697 -0.049338724 0.016598478 -0.01691882 0.0034971347
-0.030281741 0.0035064355 -0.010450081 0.03843234 -0.0018578472 0.0033281434 0.0036198914 0.011069906
-0.03919949 0.0012890282 0.04281635 -0.026243143 0.0077923764 0.022115652 -0.079910494 -0.059906494
-0.0012186546 -0.018008934 0.029903846 0.017068153 0.03499032 0.005117647 -0.047778144 -0.032774918
-0.06317049 -0.046069194 -0.0072602183 -0.023396244 -0.039756753 -0.03403755 0.028988322 -0.05439072
-0.0047688033 0.04162509 0.0139290355 -0.03029464 0.0007578713 0.010054244 0.013746994 -0.051401958
0.02014451 0.036148544 -0.04856496 -0.045307387 -0.007052707 0.029626962 0.0056696436 -0.019508122
-0.07249818 -0.0048380797 -0.02470068 -0.036370654 -0.016964184 0.01604562 -0.021284182 0.019774731
0.045903694 -0.046675302 -0.006420926 -0.041619916 -0.011411358 0.020001166 0.027719574 -0.018169716
-0.032489914 -0.013034967 -0.017105365 0.018695943 0.030081337 -0.0082483655 0.0006786443 0.032974135
-0.023791773 0.0059746355 0.029669985 -0.0031827362 0.0071822167 -0.027917003 -0.020249983 0.030424282
0.011498054 -0.025374742 0.008463454 -0.05479584 -0.023325479 -0.05123481 -0.058758378 0.024537165
-0.071893886 -0.043672763 0.013045158 -0.03824092 -0.052248828 -0.011613724 -0.017354716 -0.04552754
00000000: 1efe adbc ea10 12bd 6ca3 10bc fb87 21ba
00000010: ae3c c439 2ac8 303c 19a2 9ebc d429 28bd
00000020: 5f0e eebb f29a 80bc c8e5 71bc 97b3 48bd
00000030: d393 05bd d047 03bd c854 bd3b 175e 07bd
00000040: ed52 12bd 87b9 2ebd 434d 1f3c 3783 733c
00000050: 464e 04ba 1cd0 ed3a 12b1 693b f404 dbbc
00000060: b568 723c 5c7e 0dbd 95a1 49bd cd4d 7ebb
00000070: 6717 4abd 88f9 873c 5699 8abc 2f30 653b
00000080: 6a11 f8bc 3acc 653b d136 2bbc 3b6b 1d3d
00000090: 0283 f3ba fb1c 5a3b b33b 6d3b 8d5e 353c
000000a0: a58f 20bd 9cf4 a83a 3260 2f3d dcfb d6bc
000000b0: 3157 ff3b e22b b53c 1da8 a3bd 8360 75bd
000000c0: 43bb 9fba 7987 93bc e9f8 f43c 83d2 8b3c
000000d0: 0352 0f3d efb1 a73b 04b3 43bd fe3e 06bd
000000e0: 885f 81bd 0db3 3cbd 20e7 edbb 7ba9 bfbc
000000f0: fad7 22bd f56a 0bbd eb78 ed3c cec8 5ebd
00000100: 9f43 9cbb 127f 2a3d 9c36 643c 772c f8bc
00000110: e2ab 463a 8eba 243c 123b 613c dc8a 52bd
00000120: 1906 a53c 7f10 143d 0dec 46bd 3d94 39bd
00000130: 651a e7bb 3eb4 f23c 6bc8 b93b 7fcf 9fbc
00000140: ed79 94bd c188 9ebb 1559 cabc 65f9 14bd
00000150: 79f8 8abc 1b72 833c 2a5c aebc 9efe a13c
00000160: 8305 3c3d 9a2e 3fbd a266 d2bb a579 2abd
00000170: b4f6 3abc 7cd9 a33c 2914 e33c a8d8 94bc
00000180: 2514 05bd 9d90 55bc 8d20 8cbc 3c28 993c
00000190: 236d f63c 2724 07bc 0ce7 313a e30f 073d
000001a0: f7e6 c2bc e0c6 c33b 780e f33c 7495 50bb
000001b0: cd58 eb3b 33b2 e4bc 4be3 a5bc 583c f93c
000001c0: 5562 3c3c b1de cfbc 4daa 0a3c 9a71 60bd
000001d0: 1315 bfbc 98db 51bd a0ac 70bd 2a02 c93c
000001e0: 1a3d 93bd 36e2 32bd 5cbb 553c 83a2 1cbd
000001f0: de02 56bd 7d47 3ebc 7a2b 8ebc 167b 3abd

weight f4 [128, 128]
-0.05197087 0.10449955 0.06802452 -0.049633235 -0.18442483 -0.0005680845 -0.12852661 -0.07163259
0.07065651 0.17193548 -0.03526819 -0.09405317 -0.03149533 -0.22754377 -0.04913547 0.06051101
-0.11471959 0.18635257 0.058763716 -0.024449551 -0.108443856 0.005090572 0.04337612 -0.1429213
0.06982458 0.04986003 0.08761139 -0.10470111 -0.011995084 0.084607616 -0.10199123 0.15431617
-0.07860783 -0.1341874 0.13730444 -0.06919716 -0.108662434 0.20731702 0.012988807 0.034450654
-0.11989608 -0.29708913 -0.2274892 0.101744734 0.13063921 -0.073367275 0.040938873 0.030339448
-0.33757976 -0.15278181 0.094963886 0.1552354 0.2656505 0.12794705 -0.015669724 0.09019544
-0.001571589 0.11716361 0.06821918 -0.11753217 -0.056047596 -0.09821258 -0.12954563 0.048680495
-0.081846535 -0.23414725 -0.41396162 -0.18106562 -0.035449844 0.05473424 0.13291061 0.04377886
-0.045585435 -0.08893957 0.10263764 0.14114536 -0.052683115 -0.108358294 0.0050574467 0.021442069
0.018733658 0.029433075 0.08490813 0.05559324 0.18333052 -0.044575687 -0.34376073 0.035259802
-0.1332163 -0.1000818 -0.15861754 0.079503596 -0.068296544 0.06821201 0.049458027 -0.19576456
0.103347175 -0.07433341 -0.08229014 0.044532876 -0.16386011 -0.113818415 0.13595101 0.07576714
0.09739533 0.011811054 0.010088873 -0.007580229 -0.027586 -0.08404121 -0.054951522 -0.11766944
-0.14451368 0.061261356 0.035908554 0.04723629 -0.41847736 0.015561044 0.1619006 0.034993682
0.21405071 -0.009826658 -0.15355925 -0.008943736 -0.22761156 -0.10138719 -0.16902412 -0.053902056
0.033150893 -0.040713124 -0.041795515 0.1156385 -0.087256126 0.031222492 0.0852218 0.029728908
0.0356645 -0.06220667 0.05155243 0.02227341 -0.07150871 0.0070807133 -0.011295171 0.053932387
0.1010486 0.05664981 0.01454597 -0.36643472 0.04263518 0.010893018 -0.0030048457 -0.048145913
-0.0058122515 -0.049889036 0.054404307 0.15067564 0.036312837 -0.029521784 0.11459587 -0.3867586
0.011262689 -0.0783826 -0.06963098 0.038802553 0.17788096 0.0026992946 -0.0028468212 0.1484216
-0.004870675 0.13616522 0.098781936 0.12839743 -0.0072153285 -0.11890188 0.040611785 0.10828733
0.077890426 -0.11838741 -0.08868507 0.09228415 -0.015324436 -0.050200343 -0.16118918 -0.09380243
0.044450648 -0.0124532655 0.09780853 -0.037424225 -0.028330956 0.09129679 0.1464318 0.053662244
-0.06568059 0.08426413 0.090759374 0.110681854 0.08761082 0.03283214 -0.1148297 -0.06892337
-0.042922433 0.09749492 -0.32957172 -0.059115935 -0.10769777 0.111083806 0.08032815 0.038989253
0.072549954 0.06279905 -0.0919608 -0.05847965 -0.08108159 -0.036847927 -0.07524004 0.053118266
0.06439773 -0.0326357 0.07387488 0.1949822 -0.08973405 -0.12784179 -0.159814 -0.17619814
-0.13904291 0.12014183 -0.114344716 -0.16460653 0.041965745 0.038432557 -0.10303988 0.0528844
0.09960552 -0.022049816 0.030870702 -0.0043471176 0.029802734 0.09109265 -0.18176454 -0.07600598
0.025197526 -0.2014933 0.07270874 0.047920007 0.04825555 0.07761232 -0.038519613 -0.14542803
-0.028439999 -0.06813548 0.006589853 -0.042421162 -0.08127575 0.090779975 -0.11991239 -0.0022718187
00000000: 68df 54bd dc03 d63d 7150 8b3d 384c 4bbd
00000010: ddd9 3cbe 81eb 14ba 7b9c 03be 1bb4 92bd
00000020: 5cb4 903d db0f 303e 6175 10bd f39e c0bd
00000030: 3f01 01bd 3c01 69be 4642 49bd 65da 773d
00000040: 1bf2 eabd 35d3 3e3e 39b2 703d 6d4a c8bc
00000050: d017 debd d0ce a63b 29ab 313d f659 12be
00000060: 3000 8f3d 083a 4c3d 9a6d b33d 896d d6bd
00000070: 0787 44bc c246 ad3d c7e0 d0bd 0f05 1e3e
00000080: 24fd a0bd 6c68 09be 8999 0c3e 3eb7 8dbd
00000090: 698a debd ea4a 543e 01cf 543c 211c 0d3d
000000a0: 138c f5bd 111c 98be eef2 68be 8b5f d03d
000000b0: 49c6 053e 9541 96bd 85af 273d 6f8a f83c
000000c0: 41d7 acbe d672 1cbe 6d7c c23d 07f6 1e3e
000000d0: 5803 883e 8d04 033e cb5d 80bc 63b8 b83d
000000e0: c7fd cdba 7af3 ef3d 7fb6 8b3d b5b4 f0bd
000000f0: 2a92 65bd ad23 c9bd 9ca7 04be 3365 473d
00000100: 289f a7bd 4cc4 6fbe c7f2 d3be 4469 39be
00000110: db33 11bd 0331 603d b819 083e 7651 333d
00000120: cbb7 3abd f325 b6bd af33 d23d 6988 103e
00000130: 40ca 57bd f4ea ddbd f0b8 a53b 47a7 af3c
00000140: 5477 993c a21d f13c 50e4 ad3d bdb5 633d
00000150: ffba 3b3e ff94 36bd 6801 b0be 956c 103d
00000160: db69 08be b0f7 ccbd a36c 22be c8d2 a23d
00000170: 0fdf 8bbd bdb2 8b3d 8094 4a3d 8176 48be
00000180: afa7 d33d 1d3c 98bd bc87 a8bd 1b68 363d
00000190: f2ca 27be a119 e9bd be36 0b3e cd2b 9b3d
000001a0: 3477 c73d 2783 413c cd4b 253c 9263 f8bb
000001b0: 09fc e1bc cc1d acbd d914 61bd adfc f0bd
000001c0: 65fb 13be 30ed 7a3d d914 133d d77a 413d
000001d0: aa42 d6be c0f3 7e3c 45c9 253e 8955 0f3d
000001e0: 1c30 5b3e feff 20bc a33e 1dbe bf88 12bc
000001f0: 0113 69be 16a4 cfbd a914 2dbe 67c8 5cbd
00000200: 3bc9 073d cec2 26bd c631 2bbd e1d3 ec3d
00000210: 57b3 b2bd 50c6 ff3c c488 ae3d 0a8a f33c
00000220: f014 123d 6ccc 7ebd a428 533d ba76 b63c
00000230: 2973 92bd 5405 e83b 620f 39bc 35e8 5c3d
00000240: 92f2 ce3d a209 683d 3852 6e3c 559d bbbe
00000250: 3aa2 2e3d a178 323c f2ec 44bb a634 45bd
00000260: b374 bebb 7258 4cbd 0dd7 5e3d b74a 1a3e
00000270: c5bc 143d abd7 f1bc 3db1 ea3d 3905 c6be
00000280: 2487 383c 0e87 a0bd b09a 8ebd 6def 1e3d
00000290: 6d26 363e a6e6 303b bc91 3abb d5fb 173e
000002a0: 2f9a 9fbb e56e 0b3e 2f4e ca3d 9e7a 033e
000002b0: 906e ecbb d482 f3bd 8b58 263d bfc5 dd3d
000002c0: 0485 9f3d 1975 f2bd 85a0 b5bd 79ff bc3d
000002d0: 5813 7bbc e09e 4dbd c70e 25be 7d1b c0bd
000002e0: e211 363d c808 4cbc d74f c83d 254a 19bd
000002f0: 5216 e8bc d0f9 ba3d 38f2 153e f1cc 5b3d
00000300: 8c83 86bd ac92 ac3d 0de0 b93d 2bad e23d
00000310: 4d6d b33d fe7a 063d d52b ebbd b227 8dbd
00000320: 6fcf 2fbd 6bab c73d a0bd a8be 8d23 72bd
00000330: a690 dcbd e87f e33d 1683 a43d 32b3 1f3d
00000340: 1295 943d ca9c 803d f255 bcbd 5c88 6fbd
00000350: 1b0e a6bd daed 16bd 7317 9abd 8a92 593d
00000360: f5e2 833d 03ad 05bd b74b 973d 6aa9 473e
00000370: 7cc6 b7bd f5e8 02be 48a6 23be 496d 34be
00000380: 4461 0ebe eb0c f63d 902d eabd 9d8e 28be
00000390: 46e4 2b3d 756b 1d3d 9306 d3bd 509d 583d
000003a0: fbfd cb3d d1a1 b4bc 8ee4 fc3c 4472 8ebb
000003b0: dd24 f43c c98e ba3d 7c20 3abe 06a9 9bbd
000003c0: 0b6b ce3c 4254 4ebe 52e8 943d c547 443d
000003d0: 9da7 453d 35f3 9e3d bec6 1dbd 16eb 14be
000003e0: 00fb e8bc 9d8a 8bbd b2ef d73b d0c1 2dbd
000003f0: e773 a6bd daea b93d a194 f5bd cbe2 14bb

bias f4 [128]
0.014323572 -0.12722877 -0.008916962 -0.068465464 0.03554018 0.18033206 -0.035593852 -0.16186242
-0.13389811 0.11185334 0.012434337 -0.1459499 -0.094093904 -0.14618413 -0.026926534 -0.012845288
-0.10200898 -0.09878751 0.030190757 -0.011334257 -0.08452387 -0.07561422 -0.024631444 0.017791934
-0.055185955 -0.01894026 -0.020487858 -0.022996534 -0.09776738 -0.094190195 0.005116203 0.025863592
0.19925092 -0.00804372 -0.07066675 -0.06826491 -0.05392686 0.1707815 -0.044063743 -0.0082291905
-0.11905418 0.013962529 -0.005035875 -0.1068005 0.1924344 0.07624768 0.036336012 -0.030634731
-0.07129713 0.11139715 -0.008482428 -0.24729788 -0.076218836 0.04607965 0.0021003068 -0.05514503
-0.114043996 -0.08182381 0.06644187 0.027247371 0.10022481 0.15521713 0.00048132415 -0.07863371
0.08624107 0.03891157 0.100035064 -0.017672904 -0.069555774 0.122867845 -0.13032772 -0.0026791757
-0.014323273 0.07328511 -0.09853803 -0.06788059 -0.03198591 -0.016812714 -0.037294623 -0.08418423
0.12183953 -0.09202843 -0.03201839 0.054912213 0.15723659 0.068689235 -0.03701613 0.1909425
0.07958737 -0.027183695 0.16773765 -0.0075441115 0.086165525 0.01108146 0.067178324 0.032345116
0.059758134 -0.022945654 0.037508752 0.041122492 0.1501902 -0.00035550282 -0.045766614 -0.024085574
0.10046592 0.09321488 -0.11908194 -0.06119143 0.03599683 0.008766088 -0.0788587 -0.1805114
0.055911228 0.03132271 -0.056623954 -0.12825856 -0.040013097 -0.044989258 -0.089023575 0.039748587
0.03302825 0.068694934 0.034526847 -0.059784245 0.036021363 -0.16577692 -0.049149215 0.08208073
00000000: 6aad 6a3c 4248 02be 7318 12bc 9f37 8cbd
00000010: 9492 113d f8a8 383e dcca 11bd 43bf 25be
00000020: 961c 09be 5d13 e53d 64b9 4b3c e473 15be
00000030: 4eb4 c0bd 4bb1 15be 0995 dcbc 0b75 52bc
00000040: 16ea d0bd 1b51 cabd 9b52 f73c 52b3 39bc
00000050: da1a adbd a1db 9abd e2c7 c9bc 64c0 913c
00000060: ab0a 62bd 9b28 9bbc 27d6 a7bc 3a63 bcbc
00000070: 443a c8bd cae6 c0bd d2a5 a73b e2df d33c
00000080: 6f08 4c3e cfc9 03bc bbb9 90bd 79ce 8bbd
00000090: 69e2 5cbd 58e1 2e3e 2f7c 34bd bad3 06bc
000000a0: aed2 f3bd 17c3 643c fb03 a5bb 38ba dabd
000000b0: 860d 453e be27 9c3d 12d5 143d b0f5 fabc
000000c0: 3b04 92bd 3024 e43d e2f9 0abc a83b 7dbe
000000d0: 9f18 9cbd 04be 3c3d 4da5 093b c1df 61bd
000000e0: e68f e9bd 3e93 a7bd ad12 883d e135 df3c
000000f0: aa42 cd3d 3df1 1e3e 3c5a fc39 b60a a1bd
00000100: 289f b03d bd61 1f3d 2fdf cc3d c4c6 90bc
00000110: 4273 8ebd 23a2 fb3d a174 05be 1c95 2fbb
00000120: 29ac 6abc 8116 963d 4fce c9bd fb04 8bbd
00000130: a803 03bd d1ba 89bc 3fc2 18bd c868 acbd
00000140: 0187 f93d 6779 bcbd b725 03bd a1eb 603d
00000150: a102 213e f1ac 8c3d 3a9e 17bd 6e86 433e
00000160: b4fe a23d 57b0 debc 6bc3 2b3e 9834 f7bb
00000170: 8d77 b03d 038f 353c ca94 893d 507c 043d
00000180: f2c4 743d 86f8 bbbc c7a2 193d 0f70 283d
00000190: 76cb 193e c862 bab9 c675 3bbd 1c4f c5bc
000001a0: 14c1 cd3d 71e7 be3d 3be1 f3bd dda3 7abd
000001b0: 6971 133d a39f 0f3c ac80 a1bd fbd7 38be
000001c0: 2c03 653d 3e4c 003d 85ee 67bd 3656 03be
000001d0: c6e4 23bd a846 38bd fe51 b6bd 6acf 223d
000001e0: a148 073d eeaf 8c3d 066c 0d3d 53e0 74bd
000001f0: 238b 133d 6dc1 29be b050 49bd f119 a83d

weight f4 [128, 128]
-0.17686161 -0.04229126 0.030049482 -0.14724606 -0.09479602 -0.03417922 -0.03410068 0.0036714475
-0.10569004 -0.059626624 -0.11021134 -0.019030936 -0.008205858 -0.033985704 -0.038172852 0.038140323
-0.14650741 0.011046046 0.05665596 0.028941374 -0.17355958 0.10747844 0.08743734 -0.09495745
-0.096472435 -0.026627315 -0.08167086 -0.11193815 -0.09714154 -0.0607524 0.02912168 0.04391523
0.08880834 -0.09829335 -0.14427274 0.0047641722 -0.08276783 0.051191647 -0.17039575 -0.010635095
-0.0073108627 -0.13074735 -0.054999005 -0.06008699 -0.062150575 -0.038718704 0.04706666 0.08082809
-0.029106598 0.031793203 -0.062747434 0.022185242 0.11188301 -0.05941675 -0.07144445 -0.04319365
-0.03768084 0.019197803 -0.004365321 -0.023985192 -0.035242263 -0.07067577 -0.014417804 -0.020728247
-0.0052847164 -0.09364207 -0.08709594 -0.06496915 -0.014617208 -0.15538923 -0.011630502 -0.0018181847
-0.14221528 -0.07124247 -0.09688355 -0.11718141 -0.008067495 -0.07329425 -0.028373076 0.119132705
-0.021862522 -0.082538165 -0.008233727 -0.037977144 -0.039129447 0.051942825 0.061799824 -0.008041048
0.021977732 -0.029305287 -0.016588453 -0.0032438189 0.000985005 0.049437486 -0.0764484 0.021373658
-0.0031578017 -0.10563088 0.1056846 -0.07527642 -0.045367427 -0.06619805 -0.11182532 -0.16223235
-0.06415195 0.018506551 -0.075233296 -0.017093606 -0.018802878 -0.118817635 -0.0046497434 -0.028217258
0.06172932 -0.03722873 0.054698367 -0.025680263 -0.11205765 -0.08235513 -0.067170575 -0.011501409
-0.12304816 -0.05349669 0.052293178 -0.15590273 -0.027609846 0.117849834 -0.019754823 -0.072379865
0.08110951 -0.077673845 0.052344587 -0.030639049 0.15118949 0.074806966 0.09299737 0.0061959783
-0.037608944 0.066211015 0.12947257 0.039612006 0.09197885 -0.015939457 -0.12273065 0.04902503
-0.11824578 -0.028024022 0.026225971 0.10123954 -0.110329896 -0.08115171 0.09370684 -0.14597182
-0.099595614 -0.11309627 -0.117869556 0.02979197 -0.05574134 -0.036184162 -0.06457082 0.103565484
-0.04394238 -0.10153946 -0.06289863 -0.007900813 0.13997501 -0.043663815 -0.084138624 0.04616016
-0.017461564 -0.01883357 0.046898227 -0.07865898 0.02919149 -0.05227251 0.04013456 0.075351514
0.1292046 0.054845404 0.035439458 -0.15903105 -0.07329112 0.065491594 -0.2058321 -0.14426118
-0.13673966 0.017959623 -0.043843556 -0.12779617 -0.040704362 -0.03806442 -0.06573298 -0.057206657
-0.06646338 -0.062123284 -0.21973507 -0.132028 0.050812915 0.068770275 0.00954103 -0.0677427
-0.008607279 -0.11219708 -0.11535958 0.028052524 0.06988106 0.10972577 0.12641943 -0.12866805
0.026380712 -0.12702145 0.025614792 0.17042507 -0.27251944 0.00045015034 0.013596461 -0.047258187
0.075130194 -0.008184507 -0.110678464 -0.13017483 0.031736914 0.06746962 -0.104802266 -0.041432753
-0.09082207 -0.083933644 0.0662009 -0.042523045 0.010765825 0.043014534 0.029680004 0.11185231
0.015648844 0.22007906 0.059196386 -0.023583509 0.03858549 -0.1855403 -0.008680841 -0.10232561
-0.19382264 0.0429295 -0.12933356 0.108914115 -0.06670591 0.0041609597 -0.20993708 0.11537836
-0.08706661 0.039214265 -0.026330557 -0.12893307 0.062176496 0.01583338 0.057355877 0.08989888
00000000: 361b 35be 9a39 2dbd 552a f63c acc7 16be
00000010: 6a24 c2bd 83ff 0bbd 28ad 0bbd ab9c 703b
00000020: 0574 d8bd 0c3b 74bd 7cb6 e1bd c4e6 9bbc
00000030: dd71 06bc 9834 0bbd 235b 1cbd 0739 1c3d
00000040: 0a06 16be 7afa 343c 1410 683d 7616 ed3c
00000050: 9ab9 31be a81d dc3d 5912 b33d 0d79 c2bd
00000060: 5793 c5bd 8721 dabc 0d43 a7bd d43f e5bd
00000070: 25f2 c6bd 82d7 78bd 9790 ee3c 75e0 333d
00000080: 26e1 b53d 064e c9bd 3cbc 13be c61c 9c3b
00000090: 2e82 a9bd 55ae 513d 397c 2ebe d23e 2ebc
000000a0: f68f efbb a2e2 05be a346 61bd c71d 76bd
000000b0: 9a91 7ebd 8197 1ebd f8c8 403d 3389 a53d
000000c0: f670 eebc 9739 023d ba81 80bd d3bd b53c
000000d0: eb22 e53d fa5e 73bd 7851 92bd d3eb 30bd
000000e0: 3957 1abd b644 9d3c f70a 8fbb 987c c4bc
000000f0: 315a 10bd 75be 90bd a738 6cbc 49ce a9bc
00000100: 6a2b adbb 6ac7 bfbd 5b5f b2bd 8c0e 85bd
00000110: 047d 6fbc 5b1e 1fbe dc8d 3ebc 2850 eeba
00000120: e2a0 11be 92e7 91bd e26a c6bd cffc efbd
00000130: 872d 04bc 4c1b 96bd a76e e8bc d9fb f33d
00000140: 0819 b3bc c509 a9bd c1e6 06bc ec8d 1bbd
00000150: 3346 20bd 00c2 543d d021 7d3d 9abe 03bc
00000160: a50a b43c a411 f0bc 82e4 87bc 4096 54bb
00000170: 491b 813a f67e 4a3d fb90 9cbd cf17 af3c
00000180: 1ff3 4ebb 0155 d8bd 2b71 d83d 862a 9abd
00000190: 32d3 39bd d892 87bd ac04 e5bd 3d20 26be
000001a0: 1962 83bd 0d9b 973c ea13 9abd e407 8cbc
000001b0: 7e08 9abc a956 f3bd e05c 98bb e127 e7bc
000001c0: e2d7 7c3d 277d 18bd 650b 603d 6a5f d2bc
000001d0: 7b7e e5bd cea9 a8bd ba90 89bd 6870 3cbc
000001e0: ac00 fcbd 581f 5bbd 5f31 563d f7a4 1fbe
000001f0: 0b2e e2bc 415b f13d ded4 a1bc e53b 94bd
00000200: be1c a63d 7713 9fbd 4767 563d befe fabc
00000210: 6bd1 1a3e 6534 993d 6875 be3d a207 cb3b
00000220: d60b 1abd a499 873d 7594 043e 3340 223d
00000230: 685f bc3d 7793 82bc 355a fbbd 78ce 483d
00000240: d82a f2bd a292 e5bc d9d7 d63c ad56 cf3d
00000250: a4f4 e1bd de32 a6bd 5fe9 bf3d a379 15be
00000260: c9f8 cbbd 049f e7bd 9865 f1bd 4a0e f43c
00000270: 0851 64bd d835 14bd b53d 84bd 241a d43d
00000280: edfc 33bd ecf3 cfbd ffd0 80bd 6972 01bc
00000290: 9c55 0f3e d4d8 32bd df50 acbd 7012 3d3d
000002a0: 8e0b 8fbc dc48 9abc 5b18 403d f617 a1bd
000002b0: fe22 ef3c b31b 56bd 2364 243d e551 9a3d
000002c0: 364e 043e 93a5 603d f728 113d 09d9 22be
000002d0: a819 96bd 7520 863d a6c5 52be 34b9 13be
000002e0: 7b05 0cbe 0f20 933c 4d95 33bd 00dd 02be
000002f0: 9eb9 26bd 70e9 1bbd 039f 86bd 8751 6abd
00000300: f41d 88bd fc74 7ebd 3b02 61be 5932 07be
00000310: 3421 503d 6ed7 8c3d fb51 1c3c afbc 8abd
00000320: 8b05 0dbc 95c7 e5bd a541 ecbd 68ce e53c
00000330: cd1d 8f3d e8b7 e03d 1874 013e 8fc1 03be
00000340: 5d1c d83c e911 02be 1dd6 d13c e983 2e3e
00000350: ab87 8bbe 2802 ec39 b1c3 5e3c cd91 41bd
00000360: dcdd 993d 4f18 06bc 64ab e2bd 8d4c 05be
00000370: 91fe 013d 832d 8a3d 92a2 d6bd 64b5 29bd
00000380: ec00 babd 67e5 abbd 5694 873d a52c 2ebd
00000390: 2563 303c 0230 303d 7b23 f33c d312 e53d
000003a0: 0132 803c 685c 613e e977 723d 3432 c1bc
000003b0: d20b 1e3d 47fe 3dbe 163a 0ebc 1790 d1bd
000003c0: 7179 46be d8d6 2f3d 0470 04be 5d0e df3d
000003d0: 1c9d 88bd a958 883b bff9 56be 7d4b ec3d
000003e0: fb4f b2bd 239f 203d 2eb3 d7bc 0807 04be
000003f0: c8ac 7e3d 01b5 813c ffed 6a3d e71c b83d

bias f4 [128]
-0.033480804 -0.018800346 -0.1394255 0.0433959 0.04910378 -0.14620097 0.034661774 -0.08629476
-0.06078163 -0.067899816 -0.07846039 -0.10570007 0.12643816 -0.111457296 0.05918075 0.11232948
-0.07992547 0.06233617 -0.11878469 -0.1491573 0.210956 0.05989442 -0.058106095 0.24354629
0.13969405 0.11000683 -0.038851876 -0.034516502 0.107950136 0.012647719 0.12938069 0.06594417
0.028284695 -0.16461144 0.033735517 -0.12688461 0.0057117096 0.014316536 0.012610669 0.00027903903
-0.11546534 0.14010699 0.061286077 -0.037886076 -0.049663194 -0.13521843 -0.07487045 -0.14303577
-0.044982374 0.045203768 -0.07523813 -0.053979017 -0.021561706 0.0909771 0.15858944 -0.0028170142
0.15793175 -0.055610158 -0.12710604 0.12629843 -0.11491681 -0.0028667632 0.10404285 -0.1668885
-0.14046095 0.09694054 0.108529694 -0.08391574 0.089847974 -0.13083206 -0.10218122 -0.006861199
0.18015923 0.07037941 0.023300333 -0.024635859 -0.02178075 0.22722663 -0.13865942 -0.03219223
-0.08394063 0.066475496 -0.029229034 -0.031818554 0.022056788 -0.11690752 -0.10801304 -0.116454594
-0.074655615 -0.09645984 -0.021806674 -0.07383067 0.24700373 0.056999568 0.06861467 0.09099787
-0.04147183 -0.075422145 -0.08615937 0.021879783 0.02246541 0.088011466 -0.1219963 -0.047574166
0.01616538 0.21691416 -0.005273553 0.013940794 0.007992075 -0.14516667 -0.17638023 -0.018598648
-0.02206221 -0.103283085 0.023399418 0.0146199 -0.19435696 -0.050424192 -0.17594261 0.2764706
0.09401221 0.04036958 0.004477324 -0.03508712 0.13062161 0.114120774 -0.013797907 0.06760487
00000000: 2b23 09bd 2f03 9abc 8fc5 0ebe e6bf 313d
00000010: 0c21 493d b5b5 15be 81f9 0d3d 4fbb b0bd
00000020: 29f6 78bd 0f0f 8bbd d7af a0bd 4779 d8bd
00000030: 0179 013e b943 e4bd 8467 723d 000d e63d
00000040: f7af a3bd 3654 7f3d 6345 f3bd b1bc 18be
00000050: da04 583e da53 753d a800 6ebd 3364 793e
00000060: f50b 0f3e 434b e13d 2523 1fbd 2d61 0dbd
00000070: f614 dd3d 6138 4f3c 5f7c 043e bd0d 873d
00000080: 4eb5 e73c e78f 28be 412e 0a3d 0aee 01be
00000090: 4b29 bb3b e78f 6a3c fb9c 4e3c fc4b 9239
000000a0: 1879 ecbd 3578 0f3e 1c07 7b3d 6e2e 1bbd
000000b0: a26b 4bbd b376 0abe ae55 99bd f877 12be
000000c0: 703f 38bd 9627 393d 7316 9abd 1a19 5dbd
000000d0: 2da2 b0bc 3452 ba3d 4565 223e a89d 38bb
000000e0: dcb8 213e 7ac7 63bd 1628 02be 6054 013e
000000f0: 8159 ebbd 4ee0 3bbb 6b14 d53d d2e4 2abe
00000100: ffd4 0fbe c388 c63d d144 de3d 04dc abbd
00000110: 3702 b83d d7f8 05be 6344 d1bd e9d3 e0bb
00000120: a97b 383e 1523 903d 57e0 be3c 24d1 c9bc
00000130: 8b6d b2bc 19ae 683e bcfc 0dbe 00dc 03bd
00000140: 11e9 abbd 4e24 883d ba71 efbc 2c54 02bd
00000150: 70b0 b43c 366d efbd f135 ddbd bf7f eebd
00000160: 0be5 98bd bd8c c5bd e9a3 b2bc 8934 97bd
00000170: 8cee 7c3e 6178 693d d985 8c3d 175d ba3d
00000180: 5ede 29bd ed76 9abd 5374 b0bd 3b3d b33c
00000190: 6109 b83c 5b3f b43d 32d9 f9bd 21dd 42bd
000001a0: 426d 843c bf1e 5e3e c5cd acbb ee67 643c
000001b0: 31f1 023c 92a6 14be 059d 34be 315c 98bc
000001c0: cfbb b4bc 1586 d3bd 23b0 bf3c 4e88 6f3c
000001d0: 8305 47be 9989 4ebd 4d2a 34be 8e8d 8d3e
000001e0: 7989 c03d 935a 253d 84b6 923b 83b7 0fbd
000001f0: acc1 053e 27b8 e93d 9e10 62bc 6c74 8a3d

weight f4 [128, 128]
-0.012821451 0.05433745 0.053029917 -0.09793787 -0.076021105 -0.04146151 0.12786944 -0.011949715
-0.05324717 -0.01758226 -0.016591772 0.05321031 -0.08340497 0.031750165 -0.09108951 -0.06798631
0.03824114 -0.02499951 -0.013400646 -0.031209875 0.046717875 -0.12774445 0.021857105 0.10589668
-0.12472516 -0.15746374 0.024541348 -0.04897499 -0.005008165 0.0477194 -0.08083665 -0.04233969
0.08105968 0.007674423 -0.13074492 -0.01329647 -0.1325622 0.06714616 0.03606914 0.015755413
-0.06978399 -0.060968615 -0.038071394 0.056745164 0.024153076 -0.016539095 -0.09796345 0.08497036
-0.05281154 0.017515523 -0.037334573 0.0070212674 -0.052621085 0.014906754 -0.04776078 0.052391056
-0.006197642 -0.111951716 -0.10167006 -0.05020494 0.08698566 -0.044540368 -0.0833216 -0.0022993763
0.06314921 -0.16428939 -0.145304 0.053416554 -0.105031185 -0.039111562 -0.15192492 0.00088106917
0.0037162253 -0.058896244 -0.0030878114 -0.0032563899 -0.004785778 -0.09645041 -0.03137605 -0.051932614
0.022862148 -0.07282686 -0.038530175 0.018047329 -0.111720465 -0.08119636 0.02517779 -0.021819694
-0.04279616 -0.0036687702 -0.016165623 -0.030171176 0.05119132 -0.0122448215 -0.047731943 -0.041859813
-0.030344844 -0.027760424 0.07215864 0.027266255 0.11639507 -0.072252005 -0.05959651 0.019253248
0.1624937 -0.15736926 0.00492115 -0.03799816 -0.014308304 -0.0233492 0.0019644941 0.049838293
0.047126405 -0.027403437 0.004019075 0.07413775 0.08440851 -0.025075736 0.04710138 -0.08845537
-0.011187301 0.029745542 -0.09869266 0.07623572 0.009241723 -0.08210948 -0.006779142 -0.017809022
-0.029090969 0.041223075 0.028996825 -0.032844793 0.01674094 0.054444786 0.07816032 0.020384353
-0.030025642 -0.073852174 0.12752151 0.06310561 -0.037055865 -0.044578716 0.033409595 -0.009760616
-0.02218803 -0.075360894 0.0517903 0.07546679 -0.078617945 -0.049529146 -0.06313485 0.056957167
-0.018431293 -0.19058564 0.17215715 0.0149076935 -0.18731397 0.043172274 -0.25097537 -0.13368846
-0.06486497 0.041892182 -0.010278443 -0.07650143 -0.024364538 0.053522166 -0.08185411 -0.23903318
-0.032732595 -0.051124446 -0.086155996 0.085980944 -0.041233573 -0.17817008 -0.1439628 0.107125275
0.031769536 -0.019341614 0.0005661452 -0.012332621 -0.017767558 -0.035141323 0.010380047 0.018301036
0.010044378 -0.1458469 0.00876141 -0.14591992 0.13095817 -0.06327282 -0.03237338 0.022148253
0.07467437 0.110000335 0.046954934 0.1907074 0.023169423 -0.25810054 -0.07485756 -0.022434356
-0.14915708 -0.09195104 -0.16513197 0.103590466 -0.14460522 -0.09835885 -0.063370615 -0.07536307
-0.0569481 -0.049637455 -0.22428966 -0.018799538 -0.015385498 -0.06394406 0.06919496 -0.1030861
-0.10511521 -0.044392854 0.044931404 -0.02731183 -0.18455367 -0.18151645 0.009582494 0.08846913
0.011524715 -0.16361648 0.0684151 -0.103306256 0.11338299 -0.17065118 -0.0022882666 0.082548454
0.061005287 -0.0383892 0.01050317 -0.046587206 0.046051092 -0.122476265 0.043679807 0.008853584
0.013828062 -0.08504922 -0.19414525 0.07264992 0.075229846 0.063927606 0.13776985 -0.045755714
-0.032981507 0.14786792 0.057397414 -0.07014043 -0.109560125 0.0456739 -0.25312555 0.016834818
00000000: 1011 52bc f290 5e3d e635 593d a693 c8bd
00000010: f4b0 9bbd 8bd3 29bd 35f0 023e bdc8 43bc
00000020: b419 5abd ac08 90bc 78eb 87bc 0ef3 593d
00000030: 3ad0 aabd 760c 023d 238d babd 683c 8bbd
00000040: bea2 1c3d c6cb ccbc 628e 5bbc daab ffbc
00000050: 3e5b 3f3d 71cf 02be ac0d b33c 5ce0 d83d
00000060: e86f ffbd 2d3e 21be f00a c93c 009a 48bd
00000070: 881b a4bb 6b75 433d b08d a5bd 626c 2dbd
00000080: 9e02 a63d ba79 fb3b ffe1 05be 70d9 59bc
00000090: 63be 07be ed83 893d 3cbd 133d 7f11 813c
000000a0: e9ea 8ebd 3aba 79bd c0f0 1bbd 9e6d 683d
000000b0: acdc c53c ff7c 87bc 10a1 c8bd f104 ae3d
000000c0: ea50 58bd b77c 8f3c 23ec 18bd a912 e63b
000000d0: 3589 57bd 753b 743c cfa0 43bd 0198 563d
000000e0: 9715 cbbb f146 e5bd 6438 d0bd b2a3 4dbd
000000f0: 8a25 b23d f66f 36bd 84a4 aabd 22b1 16bb
00000100: 5f54 813d 7a3b 28be 92ca 14be 51cb 5a3d
00000110: 971a d7bd 7233 20bd 3592 1bbe 8df7 663a
00000120: ea8b 733b 303d 71bd e15c 4abb 2869 55bb
00000130: 04d2 9cbb cb87 c5bd 2c84 00bd 4bb7 54bd
00000140: 6649 bb3c 4026 95bd d1d1 1dbd fed7 933c
00000150: b3cd e4bd 474a a6bd a741 ce3c 37bf b2bc
00000160: 074b 2fbd c06f 70bb c56d 84bc 8b29 f7bc
00000170: fdad 513d 819e 48bc 9282 43bd 3275 2bbd
00000180: c095 f8bc d469 e3bc e9c7 933d 7b5d df3c
00000190: 8a60 ee3d dcf8 93bd 781b 74bd fdb8 9d3c
000001a0: c064 263e 6825 21be 9941 a13b f5a3 1bbd
000001b0: 606d 6abc d246 bfbc bebe 003b 3d23 4c3d
000001c0: 9e07 413d 2c7d e0bc 72b2 833b 88d5 973d
000001d0: 5ede ac3d a16b cdbc 60ed 403d 1728 b5bd
000001e0: f14a 37bc ecac f33c 611f cabd 7921 9c3d
000001f0: 996a 173c 0429 a8bd 9123 debb 3ae4 91bc
00000200: 2f50 eebc 87d9 283d c08a ed3c 4388 06bd
00000210: 4c24 893c 7f01 5f3d 8512 a03d 16fd a63c
00000220: 56f8 f5bc cf3f 97bd 0095 023e 843d 813d
00000230: e4c7 17bd 2c98 36bd 80d8 083d feea 1fbc
00000240: acc3 b5bc d056 9abd 1122 543d 558e 9a3d
00000250: 7202 a1bd 13df 4abd d84c 81bd eb4b 693d
00000260: 39fd 96bc e228 43be f749 303e 663f 743c
00000270: 3ccf 3fbe 69d5 303d d87f 80be a1e5 08be
00000280: edd7 84bd 2397 2b3d ea66 28bc c8ac 9cbd
00000290: 2498 c7bc 0f3a 5b3d 21a3 a7bd 1dc5 74be
000002a0: 9d12 06bd de67 51bd 8e72 b0bd c716 b03d
000002b0: 89e4 28bd 3872 36be fc6a 13be 7f64 db3d
000002c0: c620 023d 4e72 9ebc 5c69 143a c30e 4abc
000002d0: 458d 91bc 59f0 0fbd 1311 2a3c 0eec 953c
000002e0: 2d91 243c e458 15be 048c 0f3c 086c 15be
000002f0: e619 063e 2e95 81bd f399 04bd 4170 b53c
00000300: e0ee 983d db47 e13d d153 403d cd48 433e
00000310: cdcd bd3c c125 84be ec4e 99bd 41c8 b7bc
00000320: a2bc 18be d450 bcbd 5b18 29be 3d27 d43d
00000330: 6413 14be 5d70 c9bd 74c8 81bd f457 9abd
00000340: 6942 69bd a550 4bbd 30ac 65be 7d01 9abc
00000350: 7513 7cbc 1af5 82bd 16b6 8d3d ce1e d3bd
00000360: a546 d7bd 48d5 35bd fe09 383d 0fbd dfbc
00000370: a3fb 3cbe 73df 39be e5ff 1c3c 4e2f b53d
00000380: 29d2 3c3c 148b 27be 371d 8c3d 3b92 d3bd
00000390: 5735 e83d 2fbf 2ebe bef6 15bb 2a0f a93d
000003a0: aee0 793d fe3d 1dbd 7d15 2c3c 3ad2 3ebd
000003b0: 12a0 3c3d d6d4 fabd 99e9 323d 9f0e 113c
000003c0: 198f 623c 492e aebd 03ce 46be 7bc9 943d
000003d0: 1b12 9a3d 7aec 823d 8a13 0d3e 586a 3bbd
000003e0: 9e17 07bd b06a 173e 8d19 6b3d c9a5 8fbd
000003f0: 0f61 e0bd 8e14 3b3d ac99 81be 2ce9 893c

bias f4 [128]
-0.086653836 0.013037633 -0.080540225 0.052714262 0.039594848 -0.07159545 0.1098174 0.11536957
-0.13720138 0.05479745 0.105674386 0.06734159 -0.027648965 0.028856372 -0.012962562 -0.12724738
0.047950357 -0.081396796 -0.07836514 -0.13938873 0.22757554 -0.045808777 0.029437391 -0.026156569
0.020024281 0.006104997 0.005677885 -0.10741339 -0.07481094 0.041920263 0.05563169 -0.051846296
0.020461544 0.22524902 -0.10585348 -0.030491967 -0.040168192 -0.11632202 -0.031832 -0.01843121
0.1662171 0.278376 -0.09051614 0.12436216 -0.061510913 -0.05947167 -0.1191894 0.069829196
0.17041041 -0.071142636 -0.1003377 -0.037645105 0.16521917 0.14062488 -0.0031450235 0.14505196
0.22469832 0.07299115 0.109187506 -0.054009043 -0.040437356 0.019978622 0.16624041 0.0601763
0.060788922 0.16445181 0.26289833 -0.009286301 -0.11663066 0.13390929 0.10823431 0.022070577
0.051290225 -0.004362739 -0.024975846 0.0026063968 0.052407216 -0.052141897 0.138051 0.019215155
-0.04551298 -0.09295284 0.2381631 -0.014441787 0.048178956 0.051593475 -0.057119817 -0.11539247
-0.06332164 0.18322133 -0.014508769 -0.099815786 0.14630069 0.16775154 0.10210572 -0.16636543
-0.114061505 0.0624952 0.14505668 0.071070045 -0.010052378 0.05371658 -0.054444566 0.0061787483
0.08231941 -0.039361775 -0.093015574 0.033900164 0.11963632 0.010175822 -0.10850715 -0.09671249
-0.11190642 0.16454569 -0.07417622 -0.022238493 -0.15615702 -0.013445674 -0.117845036 0.12824379
0.059872713 0.028435351 -0.024051253 -0.060338404 -0.076638035 0.0896344 0.29285777 0.26172104
00000000: 9177 b1bd cc9b 553c 46f2 a4bd e9ea 573d
00000010: 352e 223d a3a0 92bd f2e7 e03d e246 ec3d
00000020: 857e 0cbe 4a73 603d d06b d83d 63ea 893d
00000030: 1580 e2bc 3364 ec3c ed60 54bc 234d 02be
00000040: 9867 443d 5db3 a6bd e77d a0bd ebbb 0ebe
00000050: 9009 693e fca1 3bbd af26 f13c 4d46 d6bc
00000060: f609 a43c 6d0c c83b 8d0d ba3b 8dfb dbbd
00000070: 7a36 99bd 95b4 2b3d 0ede 633d c85c 54bd
00000080: f89e a73c aea7 663e b6c9 d8bd 4aca f9bc
00000090: 6787 24bd 3d3a eebd 4562 02bd 0dfd 96bc
000000a0: d134 2a3e 4d87 8e3e 8760 b9bd 97b1 fe3d
000000b0: def2 7bbd 9198 73bd 9219 f4bd 9c02 8f3d
000000c0: 1180 2e3e 3bb3 91bd da7d cdbd c131 1abd
000000d0: 372f 293e f8ff 0f3e bd1c 4ebb 8088 143e
000000e0: 5117 663e 627c 953d b39d df3d 9638 5dbd
000000f0: a4a1 25bd 35aa a33c ed3a 2a3e 6d7b 763d
00000100: cefd 783d 0e66 283e 9c9a 863e 9225 18bc
00000110: 0edc eebd 841f 093e f3a9 dd3d 5bcd b43c
00000120: b315 523d 4ff5 8ebb 259a ccbc 15d0 2a3b
00000130: f3a8 563d be92 55bd 3e5d 0d3e 1a69 9d3c
00000140: d26b 3abd 0f5e bebd 07e1 733e 3f9d 6cbc
00000150: 4c57 453d ae53 533d 78f6 69bd e352 ecbd
00000160: c7ae 81bd 5f9e 3b3e 30b6 6dbc 386c ccbd
00000170: d9cf 153e 0fc7 2b3e ce1c d13d b35b 2abe
00000180: 1499 e9bd f8fa 7f3d bd89 143e 2c8d 913d
00000190: bbb2 24bc eb05 5c3d 4401 5fbd 1977 ca3b
000001a0: 1497 a83d d039 21bd f37e bebd e6da 0a3d
000001b0: e303 f53d 7eb8 263c ff38 debd 3311 c6bd
000001c0: 312f e5bd aa7e 283e b4e9 97bd 802d b6bc
000001d0: a0e7 1fbe 3f4b 5cbc bd58 f1bd 5752 033e
000001e0: 173d 753d 41f1 e83c 2207 c5bc 6725 77bd
000001f0: 67f4 9cbd 3e92 b73d 74f1 953e 4d00 863e

weight f4 [128, 128]
0.13432585 -0.0038852347 0.014425259 0.068105645 0.14924082 0.0062732687 -0.12748426 0.020788793
-0.017087514 -0.030829193 0.025581265 -0.13523917 -0.015740182 0.012131179 -0.07049612 -0.04237626
-0.07125056 0.0817114 -0.1705217 0.081076056 0.04916164 -0.07148402 0.17415155 -0.089023516
0.007877629 -0.106362075 -0.013964393 -0.013143908 -0.041917343 -0.00090067484 0.03866418 0.00398057
-0.07038636 -0.06688073 0.061299685 0.10045473 -0.023538196 0.09853285 -0.035423715 0.041144133
-0.15720434 0.08836965 -0.22470973 -0.030193795 -0.08866601 -0.0024771432 -0.09128728 -0.0060957205
0.026240377 -0.24621236 0.040482722 -0.24103566 0.057343658 0.36282957 -0.09997046 -0.051051814
0.023729196 0.20344059 0.023709351 0.22176027 0.053162266 -0.052274644 -0.23666461 -0.03727665
0.030150192 0.13185403 -0.060413085 0.017813172 0.07522427 0.1691941 -0.20368436 0.11600988
-0.046699647 -0.08652775 -0.1051926 0.042406414 0.06141082 -0.056788918 0.0896924 -0.09847582
0.0032688112 0.021503508 0.004438221 0.113978915 -0.08356058 0.07669328 -0.06297949 0.13359578
0.12817468 0.038564555 0.08441932 -0.05476663 0.08123292 0.044402536 0.049748126 0.014694027
0.056163255 -0.1154989 -0.115204535 0.029119208 -0.08054221 -0.11148272 0.061846994 -0.0834458
-0.074933186 -0.08307957 -0.121275805 0.09168269 0.074517176 -0.07021577 -0.0047570104 0.03304988
-0.05075926 0.041825615 -0.0015771702 -0.03699021 -0.008819663 0.13873038 0.018678494 0.032312833
-0.1395798 0.0089795105 0.087063394 0.07519188 0.030878652 -0.11377424 0.031626936 -0.03153709
0.016480388 -0.20769866 -0.011464381 0.047009658 0.09295088 -0.0913706 0.014360386 0.06960436
0.034334335 0.09947183 0.08879811 0.04632727 0.06074016 -0.017701518 0.03017823 0.032803997
-0.14857523 -0.071034275 0.009786885 -0.118550934 -0.0013004058 0.063528 0.0069564907 0.0022834153
-0.11511469 0.07279941 -0.04804574 -0.07415839 0.13448656 -0.0016164195 0.044751313 -0.0043152594
0.06512928 0.058914136 -0.03690164 0.07852039 -0.0795615 -0.059342496 -0.010029816 -0.098402575
0.049971536 0.09435836 -0.057987895 -0.06946723 0.030358205 -0.025867216 -0.119226374 -0.15315665
-0.1349833 0.075613715 0.0037013558 0.05189824 0.059937503 -0.056112483 0.039330855 -0.035986293
0.11280765 -0.05130801 0.14575261 -0.019979516 0.09728703 -0.039205432 0.0201217 0.023957893
-0.055885356 0.04992872 0.04488022 -0.14778325 0.029070437 -0.13584629 0.05777385 0.15102185
0.0060973633 -0.085152104 0.010317677 -0.14322194 0.1742076 0.074779704 0.05001072 -0.020717045
-0.049858283 0.060170494 0.07178711 0.022013778 -0.034235336 -0.055774912 -0.076048866 0.036498386
0.05338284 -0.08209512 0.06353721 -0.025423508 0.032132447 -0.03221834 0.13238642 -0.097943
0.056482885 -0.11577778 0.037241403 -0.087911285 -0.16869108 0.07424776 0.06502621 0.046968795
0.062260613 0.04442204 0.007660903 0.07813578 -0.107082084 0.06937446 -0.005445389 -0.0040163747
0.058272675 0.12620015 0.08450717 -0.02497769 0.035331126 -0.09853495 -0.025917426 0.031280532
-0.026770946 0.010877961 0.104193665 -0.009271444 0.014783296 0.12278154 0.04002672 0.11050108
00000000: b78c 093e 6c9f 7ebb ec57 6c3c f97a 8b3d
00000010: 96d2 183e fe8f cd3b 3c8b 02be 424d aa3c
00000020: 1dfb 8bbc 818d fcbc cd8f d13c 237c 0abe
00000030: 8ef1 80bc dac1 463c 4560 90bd bb92 2dbd
00000040: d0eb 91bd 4e58 a73d 3e9d 2ebe 340b a63d
00000050: b75d 493d 3766 92bd c954 323e f651 b6bd
00000060: 2c11 013c 5cd4 d9bd e9ca 64bc 8c59 57bc
00000070: 85b1 2bbd 441b 6cba 555e 1e3d 716f 823b
00000080: b926 90bd c4f8 88bd 6115 7b3d 36bb cd3d
00000090: 2dd3 c0bc 97cb c93d 7518 11bd c086 283d
000000a0: 2dfa 20be 26fb b43d 4f1a 66be fa58 f7bc
000000b0: 8696 b5bd 9157 22bb d3f4 babd 9cbe c7bb
000000c0: 0ff6 d63c 181f 7cbe 36d1 253d 0dd2 76be
000000d0: 2fe1 6a3d ccc4 b93e 50bd ccbd b51b 51bd
000000e0: bb63 c23c bb52 503e 1d3a c23c 2015 633e
000000f0: adc0 593d f01d 56bd 3558 72be 67af 18bd
00000100: 89fd f63c be04 073e b673 77bd eeec 913c
00000110: 2f0f 9a3d 3841 2d3e a292 50be 9796 ed3d
00000120: 2148 3fbd 7635 b1bd 386f d7bd 59b2 2d3d
00000130: e989 7b3d 7f9b 68bd a6b0 b73d b1ad c9bd
00000140: 8d39 563b 2028 b03c 7f6e 913b c76d e93d
00000150: cf21 abbd 5e11 9d3d 64fb 80bd 55cd 083e
00000160: 3940 033e def5 1d3d 09e4 ac3d f952 60bd
00000170: 725d a63d 6fdf 353d b1c4 4b3d 37bf 703c
00000180: 710b 663d b08a ecbd 5bf0 ebbd 688b ee3c
00000190: 50f3 a4bd 0d51 e4bd 4653 7d3d a2e5 aabd
000001a0: 9276 99bd 9f25 aabd 735f f8bd 22c4 bb3d
000001b0: 769c 983d 49cd 8fbd b2e0 9bbb 505f 073d
000001c0: f1e8 4fbd 5651 2b3d 0db9 ceba 0c83 17bd
000001d0: 5980 10bc 560f 0e3e a403 993c 765a 043d
000001e0: 02ee 0ebe cc1e 133c 4b4e b23d 33fe 993d
000001f0: 3af5 fc3c 7802 e9bd 3f8b 013d 092d 01bd
00000200: e101 873c f5ae 54be 19d5 3bbc 338d 403d
00000210: 085d be3d 8220 bbbd d347 6b3c bb8c 8e3d
00000220: 29a2 0c3d e3b7 cb3d c9db b53d aac1 3d3d
00000230: adca 783d c602 91bc 5638 f73c 7c5d 063d
00000240: 1b24 18be 6b7a 91bd 2c59 203c d5ca f2bd
00000250: 6172 aaba f81a 823d 46f3 e33b 5aa5 153b
00000260: 40c1 ebbd db17 953d 9ccb 44bd 5be0 97bd
00000270: d8b6 093e 0ade d3ba 274d 373d 0567 8dbb
00000280: 8062 853d f34f 713d 2d26 17bd 4ccf a03d
00000290: 24f1 a2bd 1e11 73bd 1954 24bc 4a87 c9bd
000002a0: f4ae 4c3d f53e c13d b784 6dbd d644 8ebd
000002b0: c5b1 f83c 7ce7 d3bc f52c f4bd 19d5 1cbe
000002c0: 1039 0abe 5ddb 9a3d 7292 723b 4093 543d
000002d0: 0781 753d 34d6 65bd 6419 213d 5d66 13bd
000002e0: b207 e73d 5928 52bd 2c40 153e 15ac a3bc
000002f0: 6c3e c73d e095 20bd 43d6 a43c 5843 c43c
00000300: 0be8 64bd 0f82 4c3d 52d4 373d 7e54 17be
00000310: 2025 ee3c 4a1b 0bbe 46a4 6c3d 79a5 1a3e
00000320: 64cc c73b 3a64 aebd 790b 293c c6a8 12be
00000330: 7a63 323e 1a26 993d 0ad8 4c3d cbb6 a9bc
00000340: 3338 4cbd 5675 763d 1f05 933d 3d56 b43c
00000350: 5a3a 0cbd 3c74 64bd 82bf 9bbd 557f 153d
00000360: f7a7 5a3d 7c21 a8bd cc1f 823d f644 d0bc
00000370: 509d 033d 61f7 03bd 4e90 073e 5796 c8bd
00000380: 995a 673d e71c edbd 718a 183d d50a b4bd
00000390: 5bbd 2cbe 360f 983d 762c 853d 5a62 403d
000003a0: fc04 7f3d e3f3 353d 5008 fb3b a705 a03d
000003b0: da4d dbbd 3214 8e3d 3c6f b2bb cb9b 83bb
000003c0: 54af 6e3d 9d3a 013e 1812 ad3d 039e ccbc
000003d0: 5fb7 103d b1cc c9bd c850 d4bc 0420 003d
000003e0: be4e dbbc 7a39 323c 7d63 d53d 41e7 17bc
000003f0: a335 723c e374 fb3d 0ff3 233d 644e e23d

bias f4 [128]
0.075341955 0.07303532 -0.066832595 -0.029936826 -0.06334137 -0.05285933 -0.020723665 -0.022323249
-0.050266504 0.033896737 0.06855245 -0.053062808 -0.008064932 0.11443471 -0.027587382 0.22993675
0.045319505 0.078239396 0.0036511864 -0.009296705 -0.062001564 -0.011061542 -0.006529364 0.1791272
0.06944369 -0.040231556 -0.006429268 -0.02390705 0.10580729 -0.07354712 0.12569329 0.22771938
-0.138885 -0.16183928 -0.05275709 -0.021941569 0.14553511 -0.13897488 -0.02665926 -0.041800022
-0.13028543 -0.113348566 0.19959962 -0.06945891 -0.070708156 -0.0013180512 0.16500339 -0.007761132
-0.01752255 -0.105733864 -0.08515519 -0.008009054 0.012737781 0.10455303 0.16589065 0.09400793
-0.043549974 0.013134299 0.12912308 0.12936717 0.13568181 -0.11671005 0.14478566 0.19016714
-0.011990394 0.05670476 0.22546335 0.0516732 -0.11931189 0.09588653 0.22436681 -0.037533704
0.06651447 0.14095236 -0.038575064 -0.017714607 0.10936862 0.29577127 -0.076538175 0.13065632
-0.034091733 -0.0017292937 -0.0089180395 0.27145016 -0.09639166 -0.11533672 0.11273717 -0.062201142
0.11678091 0.20503072 -0.018564127 0.21952957 -0.072364226 0.0146785015 0.06859264 0.08045523
-0.08956238 -0.061373323 0.0090985615 0.16712981 -0.0982611 0.028975746 -0.052502483 0.06875222
0.06711228 0.24189422 0.17390065 -0.002489363 -0.10590184 -0.07465969 -0.02316823 -0.078689106
0.024297262 -0.09108545 -0.008970553 0.29176372 0.1727164 -0.10606393 0.026913282 0.09125874
0.15365775 -0.07536392 0.15115678 -0.016238788 0.009454177 0.2108068 -0.16297409 -0.1033954
00000000: e24c 9a3d 8b93 953d 87df 88bd 133e f5bc
00000010: 1fb9 81bd 0683 58bd adc4 a9bc 3fdf b6bc
00000020: 40e4 4dbd 4ed7 0a3d 3a65 8c3d 6358 59bd
00000030: c722 04bc bf5c ea3d effe e1bc 8a74 6b3e
00000040: f2a0 393d fa3b a03d be48 6f3b 3551 18bc
00000050: 5af5 7dbd 783b 35bc 46f4 d5bb 1f6d 373e
00000060: 7e38 8e3d d8c9 24bd 9cac d2bb b8d8 c3bc
00000070: 7eb1 d83d df9f 96bd beb5 003e 452f 693e
00000080: df37 0ebe 32b9 25be d217 58bd cebe b3bc
00000090: 2807 153e 6e4f 0ebe 8564 dabc 8036 2bbd
000000a0: 8b69 05be 4b23 e8bd d863 4c3e 7940 8ebd
000000b0: 70cf 90bd 76c2 acba a6f6 283e 1851 febb
000000c0: 738b 8fbc ff8a d8bd d865 aebd 6838 03bc
000000d0: 20b2 503c e61f d63d 3ddf 293e 3b87 c03d
000000e0: 7561 32bd 3e31 573c d738 043e d478 043e
000000f0: 2cf0 0a3e ae05 efbd b142 143e 2dbb 423e
00000100: 5c73 44bc 4043 683d dddf 663e 47a7 533d
00000110: cb59 f4bd 2860 c43d 6ac0 653e f1bc 19bd
00000120: bd38 883d d155 103e e300 1ebd 391e 91bc
00000130: a8fc df3d 556f 973e 0cc0 9cbd c5ca 053e
00000140: c6a3 0bbd 78a9 e2ba f81c 12bc 84fb 8a3e
00000150: fe68 c5bd a935 ecbd bfe2 e63d a0c6 7ebd
00000160: d42a ef3d 93f3 513e cc13 98bc 5ccc 603e
00000170: b233 94bd 197e 703c 4c7a 8c3d b6c5 a43d
00000180: 7b6c b7bd 9862 7bbd 2212 153c 1424 2b3e
00000190: 1e3d c9bd 8b5e ed3c d80c 57bd f7cd 8c3d
000001a0: 2a72 893d 1eb3 773e 0313 323e 9524 23bb
000001b0: 10e3 d8bd 2ee7 98bd 4dcb bdbc c127 a1bd
000001c0: 0d0b c73c 028b babd 3af9 12bc 0e62 953e
000001d0: 91dc 303e 0c38 d9bd 3e79 dc3c dde5 ba3d
000001e0: 7558 1d3e 6658 9abd d8c8 1a3e 3507 85bc
000001f0: b1e5 1a3c bddd 573e aee2 26be f8c0 d3bd
