models/mlp_7_128.pth (torch, 743355 bytes, 14 tensors)

weight f4 [128, 784]
00000000: 602d e33c b957 fa3a 5eb6 89bc 64f9 1bbc
00000010: 70f9 25bc 7ec0 a6bc d8a4 723c 4ec7 153c
00000020: 19f2 1f3d c045 e83c 8a57 963c 6d04 ea3c
00000030: 2866 313c 0a08 753c ec67 babc dd67 053d
00000040: 3aed 4b3c 2446 63bc 7a6f 233b b45b a0bc
00000050: 1440 b9bc d713 1e3d e01a e03c 55c3 313d
00000060: cc91 c53c 090e 51bb f6d5 56bc 275a 23bc
00000070: 4eb8 3dbc 49e9 1d3d 7a4a d43c ae1c ae3b
00000080: 55b7 dbbb 8186 f53c d0b8 aebc 7377 353d
00000090: 5422 b93c 4b6d c33a f290 cabc 5512 63bb
000000a0: 3c83 b83c 5bb8 3f3c dbf9 123c 536b 9bbc
000000b0: 756d 393b 001a 01ba 16ba 2f3d 290e 63bc
000000c0: f187 2b3d dba5 88ba 1676 74bc 2655 c93c
000000d0: 5251 19bc 7ddc 213d 66a7 223c 6e20 993c
000000e0: 1d05 0f3d 9392 ea3c 5f6a e0ba e749 013d
000000f0: 74c4 d13c e0a3 033c a8c5 1c3d 3efb f7bb
00000100: 43d7 49bc 2588 13bc a7e5 a9bd 6bc1 b6bb
00000110: c7cc ffbc 1e2f 2dbd f32a dbbc d8a5 1b3c
00000120: bf3e 133d 4601 353d aa74 973d 970f 973d
00000130: 452d 0f3c 7f5f 96bb eec9 933c b5e7 28bc
00000140: 49d9 c43c 915d e93b 4764 0e3d 1888 9e3a
00000150: 97ae fe3c 316d fe3c 9257 c8bc 0c19 4e3d
00000160: 1a84 1abc ed36 da3c bf36 103c 7c0e 403d
00000170: 9732 8d3d cb24 b03d fbc1 173e 07e3 c43c
00000180: 00cf 123e 8f70 a83d e530 dc3d c572 613d
00000190: 6053 9c3d d095 813d 9f24 bf3d bd5a d73c
000001a0: 4b69 243e b5db c2bd 41df 0ebe b64c f2bc
000001b0: 8a80 c13b ece1 ca3c 53df 7ebc 8c1b 88bb
000001c0: b569 6a3c 8266 8dbc 2e9c 6bbc 9ec1 433c
000001d0: 4c11 4bbc acfd 493d 84cd 64bc cec4 8bbc
000001e0: e047 283e 19d5 053e 0e88 163e 69fb 353d
000001f0: f018 a33c 319f 833d ad68 733c a08e 63bd
00000200: e9d1 6fbd 2138 afbc 379f e03d 09ba 403d
00000210: 7e5c 863d 15b4 213e 3786 9fbb 57af c0bd
00000220: ec04 793d 6c9a 513d 1197 0d3d 5cab 053d
00000230: 9ff0 d53a 0c40 923c 56f0 5c3c afb9 ec3c
00000240: 123a 233d ac0e cb3d 9a51 3f3d b043 493c
00000250: aab4 3dbd 94cf 20bd bfaf 6cbd 27bc f5bc
00000260: a9c3 30bd 4137 243d c24d 003d 6d11 403d
00000270: 8e3f ad3c 21ae 243d e93c 8b3d 1ea9 b7ba
00000280: ff9d 1f3d 4b64 123d 92c6 e93d 8da6 dc3d
00000290: 1f99 2cbc 60ef aa3c e48c 82bc 8463 163d
000002a0: e641 d23c 7ea9 a7bc aa83 8d3c a06a 24bd
000002b0: 7e75 4b3d 1e85 823d f208 973c 1a91 ffbc
000002c0: 38f9 efbc 1bf1 0d3d e1f8 2ebd 6bce bebd
000002d0: 4082 37bd c477 8cbc 1d3f 633d 671d df3d
000002e0: fcfd 0c3e 671e 023e bb88 1d3e 14f6 a93b
000002f0: 7559 5c3d 8599 a53d af76 e93d edca 0b3e
00000300: acff 593e cc49 4e3d 0135 953d d282 c93c
00000310: 9e16 54bc c0f8 823b df0a 19bc bf48 023d
00000320: 6c27 743b 4062 cb3d 3b25 d5bc f966 a9bd
00000330: 77b9 253c c67b c7bc d27a 333c 1a90 3c3d
00000340: b59e 8b3d 24a5 563d ec25 2f3e 3468 da3d
00000350: 1cbe 723e fc31 153e 2820 e43d 0777 053e
00000360: 05e8 283e e46d 8bbc b8d4 e13b e979 fe3d
00000370: 601c c83d 597b d13d 5d0f 083d ab33 32bc
00000380: 4e51 e7bb 6e41 f53b 830f 01bd 22c5 ca3b
00000390: 8ef9 a4bc 211f ac3c 481a bdbd 38e8 b4bd
000003a0: 8e35 4ebd 2760 9fbc a5c5 9d3c b0cd 0b3d
000003b0: 935a 1f3d db6a b03d aa17 c23d c278 6b3d
000003c0: 0088 f33d 5274 f83c 7be7 9a3d 1898 853d
000003d0: 2c7f 673e 14c2 e43d fac0 213d 33fd b9bb
000003e0: 05fd 4d3c 2102 6d3d 41e0 2a3c c5e2 3a3d
000003f0: 40fa 2fbc fd4f fbbb 52c9 4bbd 1390 1bbd
0.027731597 0.001909963 -0.016810592 -0.009519909 -0.010130271 -0.02035546 0.01480981 0.009141756
0.03904924 0.028353572 0.018352289 0.028566564 0.010827579 0.01495553 -0.022754632 0.032569755
0.012446696 -0.013871703 0.0024938271 -0.019574977 -0.022613563 0.03859314 0.027356565 0.043399174
0.024117373 -0.0031899235 -0.013112536 -0.009970224 -0.011579586 0.038552556 0.02591442 0.0053134775
-0.0067052045 0.029971363 -0.02132836 0.04430337 0.022599377 0.0014909891 -0.024727318 -0.0034648378
0.022523515 0.011701669 0.008970703 -0.018972075 0.0028294001 -0.0004924834 0.042902075 -0.0138583565
0.04187769 -0.0010425405 -0.014920732 0.024576735 -0.009357767 0.039516915 0.009927606 0.018692221
0.034916986 0.028634345 -0.0017121545 0.03156462 0.025606371 0.008034676 0.038274437 -0.007567792
-0.012319389 -0.009004627 -0.08295756 -0.0055772564 -0.031225575 -0.042281263 -0.026753878 0.009499989
0.03594851 0.044190668 0.07395299 0.073760204 0.00873882 -0.0045890207 0.018040624 -0.0103091495
0.02402939 0.0071217497 0.0347636 0.0012095002 0.03108911 0.031057926 -0.02445582 0.050316855
-0.0094309095 0.026637519 0.008802115 0.046888813 0.06894415 0.08600768 0.14820091 0.024034036
0.14336777 0.08224594 0.107515134 0.055041093 0.0763309 0.063274026 0.09333157 0.026288385
0.16055791 -0.09514562 -0.13952352 -0.029577594 0.0059052156 0.024765931 -0.015556174 -0.0041536745
0.014307429 -0.017260794 -0.014380498 0.011948017 -0.012394261 0.049314186 -0.013965014 -0.017061617
0.16433668 0.13069572 0.14700338 0.044429217 0.019909352 0.06426848 0.0148565 -0.05555594
-0.058549795 -0.021389069 0.10967868 0.047052417 0.0656061 0.15791352 -0.0048682946 -0.094084434
0.06079571 0.05117266 0.034567896 0.032634124 0.0016322321 0.017852806 0.013485035 0.028897135
0.039850302 0.09914908 0.04670868 0.012284204 -0.046314873 -0.039260462 -0.057784792 -0.029996945
-0.043155346 0.040091757 0.031324156 0.04689162 0.02114847 0.040205125 0.06798727 -0.0014012193
0.038969036 0.035740178 0.114148274 0.107739545 -0.010534554 0.020866096 -0.015936323 0.036716
0.025666188 -0.020466562 0.017274696 -0.040140748 0.049672596 0.06373046 0.018436883 -0.03119712
-0.029293641 0.034653764 -0.04271782 -0.09316715 -0.04480195 -0.017146952 0.05548011 0.1089428
0.13768762 0.1270691 0.1538419 0.0051868055 0.05379625 0.08085922 0.1139959 0.13651629
0.21288937 0.050363347 0.072855 0.024598513 -0.0129448455 0.0039969385 -0.009340971 0.031807657
0.0037254943 0.09930849 -0.02601873 -0.082715936 0.010115019 -0.024351012 0.010954576 0.046035863
0.0681738 0.052403584 0.1710431 0.106644064 0.23705333 0.14569849 0.11138946 0.13033687
0.16494758 -0.017020173 0.006891813 0.12425596 0.09771037 0.10228605 0.033217777 -0.010876576
-0.007059253 0.0074846065 -0.031508934 0.006188051 -0.020138528 0.021010937 -0.092335284 -0.08833355
-0.050344042 -0.019455029 0.019259283 0.034131706 0.038904738 0.08614131 0.0947717 0.05748821
0.11891174 0.030328903 0.07563683 0.0652315 0.22607106 0.1116983 0.039490677 -0.0056759357
0.012572532 0.05786336 0.010429443 0.04562642 -0.010740817 -0.0076694475 -0.04975254 -0.037979197

bias f4 [128]
00000000: 7af3 0dbd 591d 823b babf 213b 4d8d 3fbd
00000010: 0548 2dbc 10b7 0abd 20ed 7abd ae92 83bc
00000020: e7a5 0b3c 6fc5 35bd 1520 953b f843 e33a
00000030: c7a7 cabc 20b5 ef39 2df9 933c f74c 01bd
00000040: eefd 26bd bcc0 883c f457 2abd 944a 2fbc
00000050: 00d0 8f3b fcc7 0c3d 6a0c 51bd 350f 2dbc
00000060: aecb 1dbd 78fe 24bd dd17 983b 9d7f dc3b
00000070: 6516 bdbc 97eb d93c 8e35 7ebc a30a 40bc
00000080: 6943 dcbb 8d98 f2bc 8a41 97bc add4 32bc
00000090: 61a3 99bc 7b2c fdbc 59a6 f93b 684c 773b
000000a0: 535b 173b 61ba 133c 5023 2cbd 89ba fb3c
000000b0: 2591 34bd f9fe 18bd 25bd e4bc 97c8 eb3b
000000c0: 6938 50bc 10b9 40bd 1f36 25bb f27e 06bd
000000d0: 50b3 00bc b7ba 0cbd 6351 36bc cc02 e83c
000000e0: dd4d 1dbb 8543 c83c 2de0 40bd c06d 4fbd
000000f0: debb 91bd c59b 053d 02aa 32bd 4da1 c5bb
00000100: f0bb 053c 10a8 52bc 61e8 f0bc 478f fb3c
00000110: 68e9 ef3c 27f6 db3c cf9b a8bc fd9f 0ebc
00000120: 279b 86bc 6394 89bd 8e00 8e3b 8cbe 06bd
00000130: f4a7 013d 09ff d0bb f870 e33b 6505 26bd
00000140: 8106 85bd 6a5c aabc 90a3 efbc 6fba 97bc
00000150: 0735 57bb ebc4 42bd 7d3d d1bc d71e 9ebc
00000160: d5c4 ff3c 9691 39bd ad7d 2abc 4758 cfbc
00000170: 3c3e 013c e4cc f43b 1bd8 50bc 45df bf3c
00000180: a3ef 04bd b3c3 40bd dcc6 0dbd 920e 35bd
00000190: 71a3 9f3c b417 98ba 1f18 2b3c 9339 1abd
000001a0: 7533 19bd d3b1 65bc 1826 19bd cdfc a83c
000001b0: 48e8 9bbc 611b b9bc 071f 053c af48 04bd
000001c0: 9d14 aa3c 9c90 a53c 4785 e0bc b171 c53c
000001d0: 8628 50bb 2808 68bd c1ab 6abd 8c24 d03c
000001e0: 5352 90bb 0d24 c8bc 8c14 2ebd 4a4b 17bd
000001f0: e0fb 7bbd 51e8 bdbc 3fe4 053a 24fd 90bc
-0.034656025 0.0039707837 0.0024680928 -0.046765614 -0.010576253 -0.03386599 -0.061261296 -0.016061153
0.008523441 -0.04437774 0.0045509436 0.0017338982 -0.024738206 0.0004572058 0.018063152 -0.03156754
-0.04076951 0.016693465 -0.041587785 -0.010698933 0.004388809 0.034370407 -0.05103723 -0.010562708
-0.038524322 -0.040281743 0.0046415166 0.00672908 -0.023081968 0.026601596 -0.015515698 -0.011721286
-0.006721903 -0.029613758 -0.018463869 -0.010914964 -0.018754663 -0.030904999 0.007618707 0.003773475
0.0023095205 0.009016604 -0.042025864 0.030728595 -0.044083733 -0.037352536 -0.027922222 0.007195543
-0.012708762 -0.04705149 -0.002520926 -0.03283591 -0.007855251 -0.034357753 -0.011127803 0.028321646
-0.002400271 0.024446258 -0.04708879 -0.050641775 -0.07115911 0.032619257 -0.043619163 -0.0060311914
0.008162484 -0.012857452 -0.029407682 0.030707968 0.029286101 0.026850773 -0.020582108 -0.008705136
-0.016431404 -0.06717756 0.004333562 -0.032896563 0.031654313 -0.006378059 0.006940957 -0.04053249
-0.06495381 -0.02079602 -0.029252797 -0.018521516 -0.0032838003 -0.047551077 -0.025542015 -0.019301815
0.031221787 -0.045304857 -0.01040594 -0.025310649 0.007888373 0.007470714 -0.012746836 0.023421893
-0.032455098 -0.047061633 -0.034613475 -0.04420335 0.019487115 -0.0011603744 0.010442763 -0.037652563
-0.03740259 -0.014019447 -0.037389845 0.020628357 -0.019031659 -0.022596063 0.008125073 -0.03229588
0.020761782 0.020210557 -0.027407302 0.024102064 -0.0031762435 -0.056648403 -0.057292704 0.025408052
-0.004404345 -0.024431253 -0.042500064 -0.036937036 -0.061519504 -0.023182066 0.00051075587 -0.017698832

weight f4 [128, 128]
00000000: c710 10bc 0eff b03d a2f6 38bd 0252 cfbd
00000010: 7af8 3abe ea2c 8ebd e527 a5bc 26d1 d93d
00000020: 834a 193e afb2 aa3c 6aa8 683c 92e9 96bc
00000030: 882e 4bbe 3e65 153e f481 7c3c 7920 793d
00000040: c5a0 c23c d0c0 853c 5260 1c3d 7955 0a3e
00000050: 1831 97bd 5f0f 0e3c 2c85 c3bc 9698 3e3d
00000060: fc87 003d 7695 b83c c885 5cbe d701 b23d
00000070: 1a0f 97bc 4236 4bbd a9dd 043d 3a1c 14bd
00000080: 20e0 ef3d 2706 ecbd 0925 c83d 7932 633d
00000090: 9a00 953d 235b 27be 356a 8b3a 81a0 a6bd
000000a0: 9822 e93d 30ee d2bd e812 ae3c d5a2 d2bd
000000b0: d800 f9bd ae4d a93d e572 36bc 2a4b 15be
000000c0: c656 7ebd 508c 0c3d 866e 143d 51e2 703d
000000d0: 694d 093e d038 9c3c 7886 c43d 6700 47bd
000000e0: d8b3 25be eaf9 ffbd d85f 6f3d 04c9 dfbd
000000f0: 3dd8 923d b8c0 193d 8353 d03d 6657 c53d
00000100: ec38 5a3d c63a f83d c10c c5bd 7e9a a13b
00000110: 753a d4bb bd80 87bc 6150 54be c1ed 5a3d
00000120: 5185 d6bb 94d3 6fbd bb6d a33b c99b 93bd
00000130: 1889 a8be a992 babc 6154 053c 527c 683e
00000140: 1a8b 3a3c 0932 e3bd e3ee fb3d 94db 873e
00000150: c620 0c3e b3c6 e7bb 5062 cf3d 1f4f 35bb
00000160: c2b7 59bd ff9e 48bd 6058 3dbc c4d8 aabd
00000170: e1f9 35bd fccb e33d 86f1 70bd e69d 1b3d
00000180: e0b6 c13d 530b 40bd ca34 51bb d73b 033d
00000190: 3e28 283e e3c7 e2bd cb7b d13d e766 12bc
000001a0: 9b1e 033d 3dc6 1b3d 2924 8f3d 4a80 4b3d
000001b0: 747d 8abe 4375 61be 286b 263c d88b c4bd
000001c0: fb87 5bbe 8c49 1cbe d8b8 5abd 6988 22be
000001d0: 916d 9b3c 21bf 1c3e 0030 09be 0341 733e
000001e0: 8b1f 423d d8f4 6fbe 16e8 70be c65d ae3d
000001f0: 779d 32be def4 af3d 4430 5a3d cf93 133e
00000200: f354 00bc 372e 2e3d f0c0 3cbe 8a2e 183e
00000210: 708f 14be aaaf 3abd 981f 863d 94e4 103e
00000220: 62f3 9c3e 03e3 503d 9db6 93bd 67ee 25bc
00000230: d430 5cba a3de 253e 1d16 e03d 06ce aa3d
00000240: f6f7 dcbc bf7f 243e a374 6cbd f88f 0d3e
00000250: 8b6f 39bd 5cc6 483c 91d7 4abd e740 cd3d
00000260: 3be7 3d3d a4ea 283e 274b 66be f300 82be
00000270: 1937 b4bc ac5b 173d 868d 09be 712a 12be
00000280: 1fc5 583e 3bfa 30be accd 30bd 4a32 38be
00000290: 6a8d 703d 839f 87ba d778 84bd 9a53 05be
000002a0: bee4 393c d15c bcbd 6096 803c 12e1 5bbe
000002b0: b0ab 88be 48aa e13c 5c75 37be 9f02 36be
000002c0: a215 8c3d 2cf0 47bc 8114 04be e080 2e3c
000002d0: 413f 253d 057a d7bd 5bd2 283e f545 b3bd
000002e0: f48e f5bd 3357 343e 78e3 dfba 79a1 aa3e
000002f0: 1553 c3bd 5f47 d7bb f389 6f3c b27f fcbd
00000300: e1f5 373c 8310 e73c 6b63 e3bd 1fcc 32bd
00000310: d0aa 513c 3b55 0a3e 1cb6 babd 59b8 f5bb
00000320: b496 51bc 4249 91bd a67f a6bd 7efa b7bd
00000330: 34f5 3fbd 898c f5bd b859 cd3c b619 3f3d
00000340: 7cfd 0b3e d7f8 d2bd ae66 36be d36d f43d
00000350: 8846 4cbd af38 18bd 60dd f7bc c52f 70be
00000360: f92a fa3c 27d4 83bd 1608 e5bc 2ca1 083e
00000370: ea2c 39bd afd3 d6bd 95f4 14bd 8800 b23c
00000380: 34ee 083c 94bb 443c ca49 f03d de50 52be
00000390: d0bc a0bd 2548 093c 075c 3b3e 559c c03c
000003a0: f22b 27bd 6b2d 183d a79d 293d e097 113d
000003b0: 52d9 d43d ef7c 09be 208c f93d bad2 efbc
000003c0: 555a a8bd 0a0f 1dbd 86a1 6d3d a2d9 61be
000003d0: a349 d9bd f0a5 ecbc d0c4 cfbc b1a3 e93d
000003e0: 5078 2e3d a573 aebc 511d 8ebd cd81 9bbe
000003f0: bb04 c23d 89ad b8bd 2b6a cbbd d5d0 0fbe
-0.0087930625 0.08642398 -0.045157082 -0.101230636 -0.18258849 -0.069421604 -0.020160625 0.10635595
0.1496983 0.020837156 0.014200309 -0.018421922 -0.19841969 0.14589402 0.015411843 0.060821984
0.023758302 0.016327292 0.038177796 0.13509168 -0.07382411 0.008670657 -0.023867212 0.046532236
0.031379685 0.022532206 -0.21535408 0.08691757 -0.018439818 -0.04961229 0.032437954 -0.03615973
0.1171267 -0.11524611 0.09772689 0.055468056 0.07275505 -0.1634336 0.001063651 -0.081360824
0.11383551 -0.10299337 0.02124925 -0.10284964 -0.12158364 0.08266769 -0.011135791 -0.14579454
-0.062094472 0.0343135 0.036238216 0.058809582 0.13408436 0.019070059 0.095959604 -0.048584368
-0.16181886 -0.12498839 0.058441013 -0.109270126 0.071701504 0.037537307 0.101721786 0.096358106
0.05327694 0.12120585 -0.09621573 0.004931747 -0.006476695 -0.01654088 -0.20733787 0.053449396
-0.0065466543 -0.058551386 0.004987446 -0.07207448 -0.32917094 -0.022775011 0.008137793 0.22703674
0.011385703 -0.11093528 0.123014234 0.26534712 0.13684377 -0.0070732473 0.101261735 -0.0027665568
-0.05315376 -0.048979755 -0.011556715 -0.08342126 -0.044427756 0.11122891 -0.058824085 0.03799238
0.09458709 -0.0468858 -0.0031922334 0.03203949 0.16421601 -0.110732816 0.1022869 -0.008935667
0.03201161 0.03803085 0.06989319 0.049682893 -0.27048838 -0.22017388 0.010157384 -0.095969856
-0.21438591 -0.15262431 -0.053398937 -0.15872349 0.018973144 0.15307285 -0.13397217 0.23755269
0.047393363 -0.23433244 -0.23526034 0.085139796 -0.1744288 0.085916266 0.053268686 0.14411853
-0.0078327535 0.042524543 -0.18432975 0.14861503 -0.14507842 -0.045577683 0.06548995 0.14149696
0.30654436 0.050997745 -0.07212565 -0.01012764 -0.000839961 0.1619821 0.10941718 0.08340077
-0.026973706 0.16064356 -0.05772842 0.13824451 -0.04527239 0.012254324 -0.049521986 0.10022145
0.046363097 0.16495758 -0.22489606 -0.2539135 -0.021998929 0.03695266 -0.13432893 -0.14274003
0.21168946 -0.17282955 -0.043164894 -0.17987934 0.058728613 -0.0010347221 -0.06468361 -0.13020173
0.01134604 -0.09197391 0.015696704 -0.21472576 -0.26693487 0.027547017 -0.17915863 -0.17774437
0.06840064 -0.0122032575 -0.12898447 0.010650843 0.040343527 -0.1052132 0.16486494 -0.087535776
-0.11990157 0.17611389 -0.0017081341 0.3332632 -0.09537331 -0.0065697874 0.014620292 -0.123290434
0.011228056 0.028206116 -0.11102947 -0.043651696 0.0127970725 0.13509075 -0.09116766 -0.0074987826
-0.012792278 -0.07094051 -0.08129816 -0.089833245 -0.046864703 -0.119896956 0.025067195 0.04665538
0.13670915 -0.10301369 -0.17812607 0.1193501 -0.04987195 -0.037163433 -0.030256927 -0.23455723
0.03053807 -0.06436949 -0.027957957 0.13342732 -0.04520885 -0.10489594 -0.036366064 0.021728769
0.008357573 0.012007613 0.11732824 -0.20538661 -0.07848513 0.008379017 0.18296824 0.023512045
-0.040813394 0.03715269 0.041410115 0.03554523 0.10393013 -0.13426565 0.1218493 -0.029275287
-0.082203545 -0.03834442 0.05801537 -0.22055677 -0.10609748 -0.028887719 -0.025362402 0.11408175
0.042595208 -0.021295378 -0.069391854 -0.30372468 0.094735585 -0.09017474 -0.09932359 -0.14044507

bias f4 [128]
00000000: 7bd2 fabd 7ba2 ebbd c635 233e 0eb0 8ebd
00000010: 6786 02be d52f 933c e240 8ebd 01d5 933d
00000020: d169 debd 379f e6bd 4206 453e 7c95 2dbd
00000030: 8502 003e f8b1 96bc ebe7 143d 51fb 3dbd
00000040: 4e8d 923d 5a94 f6bc 2d32 d0bd 8466 ea3c
00000050: adce 1f3e c420 a7bd f7e6 e23d d90c 073d
00000060: 1ca8 163e 5e56 a2bc 29c0 e0bd 719b 1c3e
00000070: 60c4 a4bd 76b6 29bd 041c 383d 87c4 08be
00000080: 14cb 053e 1808 1fbd 1864 9c3c 626b 163e
00000090: 67c7 5fbd e722 c63d eb5b 0d3d 2fd4 80bd
000000a0: 0263 75bd 9086 9cbd 43ec 323e fa31 e83d
000000b0: 86e7 13be 0611 f23c 33fc 3a3c c97c 87bd
000000c0: 2ab5 babd 66f5 cabd 934d 8bbd 144b efbd
000000d0: 0df6 ba3d 42dc 323e ec11 e5bd 0d89 43bd
000000e0: ccbd 18be 27d1 40bc 0197 0c3e fd5a ddb9
000000f0: d847 53bd 559a c8bd ff42 bfbd 9497 adbc
00000100: 06d8 2a3d a268 8aba 8432 e63d 5512 d8bd
00000110: 93bf 97bd a240 dd3c d6f7 33bd 5df9 bcbc
00000120: f8d6 3bbc 642b c83c 8090 df3d 7881 863d
00000130: 3b4a 063e d455 72bd b877 81bd 0c0f 9b3d
00000140: 0955 84bd e651 8bbe d142 6e3e 3c20 d2bd
00000150: a32e a93d 47a1 273d 65b3 1abe 054a 84bd
00000160: 33e8 27be 3487 6d3d c648 e0bd ccb7 f0bd
00000170: 6b97 0c3e a9f9 103c c9cb ddbd 7e7e 11bd
00000180: fcf7 a93c bcb5 b23d 2a01 8cbd 6eb1 323d
00000190: 641d da3c 0ed0 7a3d 75a1 bebd e4b3 22be
000001a0: f35a c63a 13ff 4bbc e543 793d 8299 4c3c
000001b0: 5108 41bb 110e 68bd edf5 22bd c216 93bc
000001c0: 10a2 1f3d 2f48 bbbc d4fc 0c3e 7b90 c53d
000001d0: 120b 8cbd 4e99 87bc efe0 e83c 0ad8 12bd
000001e0: 4201 a53c 2ae1 ce3d f57a aebc e7bd 653e
000001f0: dc45 94bd 0aa8 4e3e ce9e cabd f756 a1bd
-0.12247177 -0.115056 0.15938482 -0.069671735 -0.12746583 0.017967144 -0.06945969 0.07218362
-0.10860027 -0.112608366 0.19240668 -0.042378888 0.12500961 -0.018395409 0.036353987 -0.046382252
0.07155858 -0.030100036 -0.1016582 0.028613336 0.15606184 -0.081605464 0.11079209 0.032971237
0.14712566 -0.019816574 -0.10974152 0.15293671 -0.08045268 -0.041433774 0.044948593 -0.13356219
0.1306575 -0.03882608 0.019090697 0.14689401 -0.054633524 0.09674626 0.034511488 -0.06290471
-0.059908874 -0.07642853 0.17472939 0.11337657 -0.14443788 0.029549133 0.011412668 -0.06615598
-0.091165856 -0.09910087 -0.068019055 -0.11684242 0.09128962 0.17466834 -0.11185059 -0.047738124
-0.14916152 -0.011768616 0.13729478 -0.00042220196 -0.051582187 -0.097950615 -0.0933895 -0.021190442
0.041709922 -0.0010559747 0.11240104 -0.105503716 -0.07409587 0.027008358 -0.043937527 -0.023068124
-0.011464827 0.024434753 0.10916233 0.06567663 0.13114254 -0.059163883 -0.06321663 0.07571229
-0.06461532 -0.2721092 0.23267676 -0.102600545 0.082608484 0.04092529 -0.15107496 -0.064594306
-0.1639717 0.057990268 -0.109513804 -0.117538065 0.13729636 0.008848586 -0.108298846 -0.035521023
0.020748131 0.08726069 -0.068361595 0.04362624 0.026625343 0.061233573 -0.09308139 -0.15888935
0.0015133306 -0.012450951 0.060855765 0.012487771 -0.002945442 -0.05665404 -0.039785314 -0.017955188
0.038972914 -0.022861568 0.13768321 0.09646698 -0.06838049 -0.016552594 0.02842757 -0.035850562
0.020142201 0.101015404 -0.021298865 0.22435723 -0.07239887 0.2018129 -0.09893571 -0.07877915

weight f4 [128, 128]
00000000: db82 5dbc 15e4 7c3d 98d1 84bc b75d a93d
00000010: 3261 15bd e6f2 a9bd 77ce b23d 18e5 be3c
00000020: c30b f5bc ebe9 32be a347 8b3c dda3 143d
00000030: 61e4 bb3d 43ac 2e3e 6f9f 5d3d 02e5 a23a
00000040: d5e2 313e 9a88 9dbd a4e2 553d c4c4 cb3c
00000050: 44f9 d43c bc6f 30be 32b9 3dbe 3561 8dbd
00000060: 747e 803d c3c9 b23d 0929 cb3c d82c 323d
00000070: 1573 543d 74a3 e03c 3004 123d 605a c03d
00000080: b4f2 b33d f021 d93b 8e7a 653d 0830 22be
00000090: 8d01 afbd 2bde 3cbe c241 4a3e 8a7f fdbd
000000a0: 5c1c f83c ebf7 dc3d 74ad f33d fbb5 11bd
000000b0: dd70 513d 6366 7ebd 44a7 c2bd c8d6 11be
000000c0: a681 42be 0307 a7bd e55a c9bd b853 883b
000000d0: c9cf 363e 1447 bebb a64c a1bd 7771 f9bc
000000e0: 5bb9 3f3d 04fd f53d 36ce 82bd eb21 193d
000000f0: ca68 073d 3fdd b3b9 8bc5 a4bd b1f8 1ebd
00000100: 228b 02bd 1ed6 c33d 5f23 39bb a9ca 963d
00000110: 48da 3bbc 1646 f63c 9822 a4bd 426f a7bd
00000120: eda8 1e3e ca02 cc3d 71c1 caba 4aea 453c
00000130: 6ae2 a43c fda2 0ebd fe75 9a3d 37d2 5139
00000140: 86a2 27bd b6c3 d3bc 261f 3abd 4fe1 4b3d
00000150: 566a dfbd a3c6 913c fea4 4c3d 60fb 89bd
00000160: e0a9 c2bc 1325 c63c 1382 4abd ec81 b9bd
00000170: c036 763d c93f b6bb af56 d0bd 8234 273d
00000180: ae88 cc3d 7916 9abd ca8b 223c 73ac d53d
00000190: 9c05 063b ad4c 17be 8b70 0c3e d279 ac3c
000001a0: 0599 e7b9 6eb2 093e 3f0c cd3d 7b66 183d
000001b0: f00f 6f3d 44ac 203d 4b64 71bd 6f56 57bc
000001c0: d822 233c 5b9e c43c e039 933d d42a 0ebb
000001d0: fc70 2c3d 45e3 46be 5d6b 603e ea60 d03d
000001e0: 0afa 1bbe 0c68 07be ef34 98bc 410f 8abd
000001f0: 1c0f ae3d 268d 6d3c 1f82 933c 4574 9d3d
00000200: f2a1 86bd 5387 9ebd 8e33 183e 539a 2d3c
00000210: 7ede 1abd 4024 c0bd 449a a6bd 5594 16be
00000220: 6e50 243c 7abb 65be ed81 3dbe 58ae d8bd
00000230: 8096 253e a7ff 55be 09be 12be 6d9c 42bd
00000240: 37ca 2ebd 50fa 73bd 74cb 11bd 32a8 1b3e
00000250: 92ca a63d 8d52 8c3d 0794 c9bd 4a03 173d
00000260: 8e91 cebc 38d3 13bd 2182 94bc a889 f53d
00000270: c97b 6a3d 459b a13d 4f60 423d b9c3 f9bc
00000280: 45ab dabc d552 0abb 052e 3abd 4a29 a9bd
00000290: 527c f03c b67c 14be d27f 0e3c c912 063e
000002a0: 19cf 543d ac31 5d3a 4661 0c3d d3d2 bdbd
000002b0: 8614 653d a49a a83d 2508 01bd e046 f73d
000002c0: e8bf 453d 589f 803d 68e5 87be 172a b5bb
000002d0: 7b14 11bd 89f6 963d 7235 413d 4d8b 30bb
000002e0: aa25 4c3d 3838 d6bc 861b 8c3d c45c ecbc
000002f0: d2d4 e7bc e772 8a3d 9f09 8abd 9398 323e
00000300: 7ef5 aa3d 2a2c 17be 008d cb3c 9914 b73d
00000310: a94b 0e3d 6811 c9bd d2e5 70bd f54d edbc
00000320: 5192 f2bd 3330 433e 52a8 bbbd a7c7 943d
00000330: a4e2 a03d 59d9 4dbe 5c57 88bd 294e 803d
00000340: e1cd 99bd 7af7 ab3e 01d1 55be d666 f8bd
00000350: b7d6 10be d107 963c b3ef 57bd 9f8c 843d
00000360: a6ed 0dbe 3baf 863d e81c dfbd 9d3b 8ebd
00000370: 863e d13c 182c 9e3d 5c51 9dbc 2ac9 b3bd
00000380: 76c3 533a 9e44 983d 4628 85bd 21ed 7cbd
00000390: 5a76 11bd 4b87 75be 6f92 a3bd 5df1 f2bd
000003a0: 132c 00bd d836 19bd 00da 84bd 73f5 363d
000003b0: 4012 3e3e acc1 b73c f212 bbbd 2ec9 ad3d
000003c0: 13f2 e23d 5d8a d53c 0868 70bd 1b8b 253d
000003d0: cc48 28be 10ca 6dbd 8769 3bbe f9ec 3b3d
000003e0: 2147 aa3d 0590 bc3b c58d 1b3e 1f09 cbbc
000003f0: 3872 c9bd 4406 283d 7caf 24be ce83 79be
-0.013519968 0.061740953 -0.016213223 0.08269828 -0.036469646 -0.08298282 0.08730786 0.0233026
-0.029912835 -0.17472045 0.017001932 0.036289085 0.09174419 0.170579 0.054107126 0.0012427869
0.17371686 -0.0769207 0.052218094 0.024874099 0.025997765 -0.17230123 -0.18527678 -0.069033064
0.06274119 0.08729889 0.02479984 0.043499798 0.051867563 0.02742169 0.035648525 0.09392238
0.08786526 0.00662636 0.05602508 -0.15838635 -0.08545218 -0.18444125 0.19751647 -0.12377842
0.03028696 0.10789474 0.11898318 -0.03557394 0.051133025 -0.062109362 -0.0950456 -0.14242089
-0.1899477 -0.08155634 -0.0983179 0.0041603707 0.17852701 -0.005806813 -0.07875948 -0.030449612
0.046807628 0.120111495 -0.06386988 0.037385862 0.03305892 -0.00034306382 -0.08045491 -0.03881139
-0.03187097 0.09562324 -0.0028249843 0.07362873 -0.0114656165 0.030062716 -0.08014411 -0.081755176
0.15494128 0.099614695 -0.0015469027 0.012079785 0.020127494 -0.034823406 0.075420365 0.00020010104
-0.04092648 -0.025850158 -0.04543986 0.049775418 -0.10908954 0.017794913 0.049962036 -0.06737399
-0.023762643 0.0241876 -0.049440455 -0.09057984 0.060110807 -0.005561803 -0.101727836 0.04082156
0.09987007 -0.075238176 0.009921024 0.10433283 0.002045012 -0.14775343 0.13714807 0.021054182
-0.00044173762 0.13446972 0.100121014 0.037207108 0.05836481 0.039226785 -0.058933537 -0.013143166
0.009957038 0.024001291 0.07188773 -0.0021693008 0.042099938 -0.19422634 0.21915956 0.10174735
-0.15232101 -0.13223284 -0.018579928 -0.06741191 0.08498976 0.014498984 0.018006383 0.07688192
-0.06573857 -0.07740655 0.14863417 0.010595876 -0.03780984 -0.09381914 -0.081348926 -0.14705022
0.010028942 -0.22434798 -0.18506594 -0.105801284 0.16170692 -0.20898305 -0.14330305 -0.04751246
-0.042673316 -0.05956489 -0.03559442 0.1520088 0.08144106 0.06851683 -0.09842687 0.03686837
-0.02521589 -0.036090106 -0.018128457 0.119891465 0.057246957 0.078909434 0.04745513 -0.030488836
-0.026692996 -0.00211065 -0.045454044 -0.082598284 0.029356156 -0.14500698 0.008697467 0.13093103
0.051955316 0.00084378826 0.034272455 -0.09268727 0.055927776 0.0823262 -0.031501908 0.12074065
0.04827872 0.062803924 -0.2654221 -0.005528699 -0.035419922 0.073712416 0.04717011 -0.0026938498
0.049840607 -0.026149854 0.06841187 -0.028852828 -0.028299723 0.06760197 -0.06740116 0.17441015
0.08347605 -0.14762941 0.024847507 0.089394756 0.034740124 -0.09817773 -0.058812924 -0.028967837
-0.11844314 0.19061355 -0.09162964 0.07264643 0.07855728 -0.20102443 -0.066572875 0.06264908
-0.075099714 0.33587247 -0.2088051 -0.121289894 -0.14144407 0.018314274 -0.05271883 0.06472134
-0.13860187 0.06576391 -0.10894185 -0.06944964 0.025542509 0.07723254 -0.019203834 -0.087786034
0.0008078137 0.07434963 -0.06501822 -0.06174958 -0.03551326 -0.23977391 -0.07986914 -0.11862443
-0.031292032 -0.03740582 -0.06486893 0.044667672 0.1856165 0.022431217 -0.09134473 0.084856376
0.11081328 0.026066953 -0.058692962 0.040415864 -0.1643402 -0.05805403 -0.18301974 0.04588029
0.08314348 0.005754473 0.151908 -0.024784623 -0.098362386 0.0410216 -0.16082567 -0.24366686

bias f4 [128]
00000000: 8b90 8fbd 337b efbc 6214 c2bc 85b3 8ebc
00000010: dc39 3a3d a272 983d ff2c 823e 3c98 893d
00000020: e3b0 a3bd 3263 e1bc 76bb 64bd f59a e0bd
00000030: b415 f2bd 8553 ac3d 9aa2 943d c614 afbd
00000040: 1c82 593c 36f1 e5ba 9635 ba3d cbad 1abe
00000050: d554 f2bc 4baf ee3d 46de 07be b1ac 56bd
00000060: c22c e2ba c5b1 833c b3a4 0a3d 00b8 31be
00000070: 6466 3dbd f608 413d ad7c 3dbd ad0c 403d
00000080: 9e5b b23e d779 eebd 04d6 783e 41e1 a73d
00000090: e22d ca3d 845f 633c 1eca 273e 0fb5 a1bd
000000a0: 725b 3dbe a0bd b03d e3db 373e ed41 46bd
000000b0: 48b8 373d 3112 063e 9ad5 843d 2499 253e
000000c0: 9783 19be 8198 0e3e f442 083e 8376 f1bd
000000d0: ae33 483e fadc 80bd 1eca cfbc f1dd ac3d
000000e0: 73a5 5ebd 8555 033e 32eb 963e 56ee 3f3d
000000f0: 7552 13be 1fd3 433e 3b41 49be fdf0 a33d
00000100: 197b 1f3c 974c 023e f15f d83c e7a4 51bb
00000110: fca6 e4bd a9e7 73bd cf4a 31ba dd7f 473e
00000120: a8a9 323d 01af 9fba 0acb 053e 2e05 cb3d
00000130: 2ac3 55bc 4bd5 43bd 205b 1f3e 13d4 c9bc
00000140: 09d6 043e 3a1b 263d 9c71 773d cafd 203e
00000150: b707 3c3d 6df3 33bd fa31 d83c 023f 473b
00000160: 2675 403e 4311 ad3c 23af 19bc e02b 34be
00000170: 6230 b23c 205b 9fbd 208d f53d ab80 2c3e
00000180: f1ec 1abe 0b03 94bd a47d 4d3d b92f 0a3e
00000190: e6d4 bc3d ac38 00bd 05be 623b e3a3 a8bd
000001a0: 7052 d1bd 453d ed3d 1fa0 873e f13a f5bc
000001b0: f516 edbd 2850 813d f951 04be 24d5 c73d
000001c0: 383b a63d 597e 87bc e40c 37bd 5395 04bd
000001d0: eb60 d2bb 2aae 83bd c46b 3fbe 85c9 b13a
000001e0: 8db8 583d 9a2d e03b 6374 b93c 8310 4e3e
000001f0: 0171 9bbd 7dfe 9dbd 4a6a 42bd 3582 013d
-0.07009991 -0.02923355 -0.02369136 -0.017419586 0.045465335 0.074437395 0.25424954 0.067184895
-0.07992723 -0.02751312 -0.05584284 -0.10967056 -0.11820546 0.084143676 0.07257576 -0.08548884
0.013275649 -0.00175432 0.09092252 -0.1510536 -0.029581467 0.11654528 -0.13268384 -0.052410785
-0.001725577 0.016075978 0.033848476 -0.17355347 -0.046240225 0.047127686 -0.04626148 0.04688709
0.34835523 -0.11644333 0.2430039 0.08197261 0.09872033 0.013877753 0.16385695 -0.07895862
-0.18491915 0.08629918 0.17954974 -0.048402715 0.04485348 0.13092877 0.06486054 0.161717
-0.14991604 0.13925363 0.1330679 -0.117901824 0.19550964 -0.06292148 -0.025364932 0.084407695
-0.054357003 0.12825592 0.29476315 0.046858154 -0.14386924 0.19123505 -0.1965379 0.08004949
0.009733939 0.12724529 0.026412936 -0.0031989159 -0.11164662 -0.0595471 -0.00067631615 0.1948237
0.043618828 -0.0012182893 0.13065735 0.09913097 -0.013047019 -0.047810834 0.15562105 -0.024637258
0.12972273 0.04055331 0.06041108 0.15721813 0.045905795 -0.04393332 0.026391018 0.0030402546
0.18794689 0.021126395 -0.009380135 -0.17594862 0.021751586 -0.077810526 0.11989808 0.16845958
-0.15129448 -0.07227143 0.05016865 0.13494767 0.09220295 -0.031304047 0.0034598124 -0.08234384
-0.10220802 0.11583952 0.2648935 -0.029935332 -0.11576644 0.06314117 -0.12921895 0.0975745
0.08116764 -0.01653974 -0.044690028 -0.03236897 -0.006420245 -0.064297035 -0.18693453 0.0013564086
0.052910376 0.0068413736 0.022638505 0.20123486 -0.07589913 -0.077145554 -0.047464646 0.031618316

weight f4 [128, 128]
00000000: 0d2d aabd a2d9 9dbd 8631 0b3e cdbb 773d
00000010: 0ad5 a0bd 7141 693d 3c98 163b 6cab debd
00000020: e30b 863c 3f0f 7b3d 9816 aebd 893c 1fbd
00000030: c0fc 1abe d824 253d 9350 c8bd a117 773d
00000040: d1e7 69bd 67f0 74bb bcea abbc 647c bf3d
00000050: d235 d43d 5731 f3ba b60a dc3c 6dcb a0bc
00000060: 21da 2a3d a7aa 21bd 3aad 74ba 738e a2bc
00000070: 34ff d2bc 8b88 a13d f1a2 a13d 5660 063c
00000080: 88b9 eebd 375c f03c 9c7c f2bd 79b6 6a3d
00000090: 9c4a 763d b82c 1d3e 9ae5 d63b a5bc 26be
000000a0: 4051 94bc f026 233e db2d 64be 2adf 73bd
000000b0: b80e 9a3d cabf 42bd 1296 52bd bfa0 b5bc
000000c0: 4dd1 053d 4c0d 0ebd 9691 8bbd 93e3 313d
000000d0: ede1 cebc 926f df3c 9290 06be 6179 313d
000000e0: 900e 2bbc b927 703c 8a2e 8dbd 2f9f d8ba
000000f0: 7d9f 1d3d 525b bcbd ffae 0ebe f67e 3a3d
00000100: 7026 91bd 6a8b 4dbd 22e6 d43d acb1 e93b
00000110: e8a4 a8bc b630 65bd a6cb 14bd 7e6c c13d
00000120: 47b4 31bd 8bca 823b af46 503c 4835 293d
00000130: 76d9 aabc 5b89 063e 818f 0abe 107e ba3d
00000140: a5bb 183e eafd fcbc acf8 39be c57e 923d
00000150: b4a7 7dbd a301 4abd 0211 13be 4246 f33d
00000160: cb84 92bd fdc5 f5bb 39ec d83d f491 f53d
00000170: eaa4 813c d71d 6d3c 4bb4 103e c1d0 42bd
00000180: ffba 30bd 91d6 80bb 9a22 5d3d 1dd2 ff3c
00000190: ab31 0bbd e8eb 973b cf01 653d 036c c53c
000001a0: a6db 7c3d 2b41 82bd f858 18be 7540 3e3d
000001b0: 23d0 203e 2f74 d7bd f680 6bbc cb80 14be
000001c0: 9c11 f5bd 244c 29bb 5767 aabc 8e29 c4bb
000001d0: 794f c93c 9fe6 9b3d 7c8a 3f3e 8261 b13c
000001e0: 439e 523c 7ecd 3e3d 544f ef3d 929d 6dbc
000001f0: 3b84 ffbd c9e9 94bc 33bc 4fbe da22 29be
00000200: 5f80 9ebd 72dd c0bc 1cbc c0bd cb6e e7bd
00000210: 53bc a1bd 6d82 a3bd 9a4a 8d3c ced1 f9bd
00000220: 5faa 56bc 73d0 6cbb 1254 a4bc 1fc7 5cbd
00000230: 2ac9 15bd b61b a0bd c012 69bb a0af b83c
00000240: 686c edbd 6607 d83d bd4c 52bd d6af e6bd
00000250: 464e cfbd 2538 df3b 7c92 973d 161b dc3c
00000260: d810 5b3d 8387 96bd e44c 3abd aecc 753c
00000270: b053 af3d d788 77bc 7069 033d 6917 02be
00000280: de8c 77bd a4b0 8fbb 2f70 dc3b cd32 c5bd
00000290: 96e9 7abd 3abe d4bd 0e2f c4bb b79a f53b
000002a0: 3c3a 07be 6097 8ebd 5180 cabc 6c96 4abb
000002b0: 33da 3fbd 8aca 653c 530f c3bd 980f a8bb
000002c0: 4b8d 56bd 845a f8bd 2910 cfbd 78c5 633c
000002d0: da1f f1bd a48e 85bd f47e 0dbd cf2a adbd
000002e0: 4663 143d 641c 85bd f08f aabd 1065 b3bb
000002f0: 8813 8c3c 898a 9bbd bece 4dbd ad45 d6bd
00000300: 63f1 32bc 4c10 b0bd 2379 cabc 5869 2bbd
00000310: 0033 97bd 79f7 893d 806c ff3b 4aeb d4bd
00000320: 4dbb 9dbd 12f1 0abe e672 7b3c 1863 29bd
00000330: e237 dcbd c073 63bb b11b 0f3d 1a28 1d3d
00000340: 4286 7e3d 2a48 70bd eaa0 fbbd 04ab e9bd
00000350: 90a1 bebc aad2 d13c 0aff ddbd ef47 acbb
00000360: fb52 e13c 2147 b1bd de7d 6b3c e71b 3bbd
00000370: fff9 c9bd 8c65 d2bd 5212 a43c f8e6 86bd
00000380: dd57 053d 7186 babd ed35 93bd 154e d1bd
00000390: c30f cfbd 129c d4ba 103c c5bd b121 953d
000003a0: 5d23 97bd 5690 f7bc be18 99bd 0881 cb3c
000003b0: 6640 2ebb 6493 a3bd b0cc debd b22e c5bc
000003c0: 0cc1 f5bd 25d3 5c3d a736 503c c4bb 01bd
000003d0: 303a 25bc 501f a53b ff34 e8bd 40ab eeba
000003e0: 3d9c 3dbd c0f6 723c d806 4f3d e346 12bd
000003f0: 8d1f f9bd 49bd 2c3d 515d 33bb 857b 4abc
-0.08309374 -0.07707526 0.1359311 0.060481835 -0.07853134 0.056947175 0.0022978922 -0.1087254
0.01636309 0.061293837 -0.08500403 -0.03887609 -0.15135479 0.04031834 -0.09780993 0.06032527
-0.057105843 -0.0037374736 -0.020985954 0.093498975 0.10361828 -0.0018554133 0.026860576 -0.019628251
0.04171193 -0.039469387 -0.0009333674 -0.019843316 -0.025756456 0.07887372 0.07892407 0.008201679
-0.11656481 0.029340846 -0.118401736 0.057302926 0.060129747 0.1534909 0.0065581324 -0.162829
-0.01810515 0.15932822 -0.22283117 -0.059538998 0.07522339 -0.047546186 -0.05141265 -0.022171376
0.032670308 -0.03468065 -0.06814878 0.043429922 -0.025254214 0.02727488 -0.13141087 0.043328647
-0.010440484 0.014657908 -0.06893642 -0.0016526933 0.038482178 -0.091971055 -0.13933943 0.045531236
-0.070874095 -0.050181784 0.10395457 0.007131776 -0.020586446 -0.055954657 -0.036327027 0.09444521
-0.043384816 0.00399143 0.012712165 0.04131058 -0.020855647 0.13138334 -0.13531305 0.09106076
0.1491533 -0.030882794 -0.18161267 0.071530856 -0.061927512 -0.049317967 -0.14361957 0.11878635
-0.071542345 -0.0075004087 0.10591931 0.11990729 0.015825707 0.014472446 0.14131276 -0.047562364
-0.043147083 -0.0039318283 0.053988077 0.03122812 -0.033982914 0.0046362765 0.055909928 0.024099356
0.06173291 -0.06360086 -0.14877689 0.04644819 0.15704398 -0.10520207 -0.014374008 -0.14502256
-0.11966249 -0.0025832737 -0.02080123 -0.005986399 0.024574028 0.07612347 0.18705171 0.02165294
0.012855115 0.04658269 0.116850525 -0.0145029 -0.12476393 -0.018177884 -0.20286636 -0.16517201
-0.077393286 -0.023543093 -0.09410879 -0.11300429 -0.07897248 -0.07983861 0.017247487 -0.1219822
-0.013102143 -0.0036134988 -0.02005962 -0.053900834 -0.036568798 -0.078177854 -0.0035564154 0.022544682
-0.115929425 0.10548286 -0.051342715 -0.11264007 -0.10122351 0.006812113 0.074009866 0.026868384
0.05348286 -0.073500656 -0.045483485 0.015002413 0.08560884 -0.015108309 0.032082975 -0.12704243
-0.060437076 -0.004385071 0.0067272405 -0.0962883 -0.06125792 -0.10387845 -0.0059870547 0.00749525
-0.13205808 -0.06962466 -0.02471939 -0.0030912412 -0.04683895 0.01402534 -0.09524407 -0.005128812
-0.05238084 -0.121266395 -0.10110504 0.013902061 -0.11773653 -0.06521347 -0.0345449 -0.08455431
0.036227487 -0.06499556 -0.08328235 -0.005474694 0.017099157 -0.07594783 -0.050245993 -0.10462508
-0.010921809 -0.085968584 -0.024715966 -0.04184851 -0.07382774 0.06736655 0.0077949166 -0.1039644
-0.077017404 -0.13568524 0.015347218 -0.04135427 -0.10752846 -0.0034706444 0.034938518 0.038368322
0.062139757 -0.05866257 -0.12286551 -0.11409572 -0.023270398 0.025613148 -0.108396605 -0.0052575986
0.027505388 -0.08656145 0.014373271 -0.045680907 -0.09862136 -0.10273275 0.020028267 -0.065870225
0.032554496 -0.09107674 -0.0718802 -0.10219971 -0.10110428 -0.0016220829 -0.09630597 0.07281817
-0.07379792 -0.030220192 -0.07475422 0.0248418 -0.0026588677 -0.07987097 -0.10878885 -0.024070118
-0.119997114 0.0539123 0.012708343 -0.031673208 -0.010084674 0.005039133 -0.11338233 -0.0018208995
-0.04629158 0.014829338 0.050543636 -0.035712134 -0.12164221 0.042172704 -0.0027368853 -0.012358551

bias f4 [128]
00000000: c642 e9bc 9cc3 24be 0396 36be dee4 d93d
00000010: b9f5 a73c 34c8 723d a238 a6bd 26b9 d5bc
00000020: f7d7 dcbc 5f91 9c3d 84a0 c43c 90ff a33d
00000030: b38d 2fbd 33f5 483c 7f25 3dbe 5881 013e
00000040: 8b83 a8bd f0b4 133e 8fcd f73d e538 c23d
00000050: e4a9 d53d a2c0 a33d 11d7 f33c 3861 093e
00000060: 9ece b43d c0e9 2b3c dcb9 783b e1a2 093e
00000070: 852d 353c 67ab 27bd a866 853d af53 dbbc
00000080: a09d 81bc 401c 373e f68b 033d 5982 a63c
00000090: e3b4 16bd faf4 8abd 20e9 79bd afc8 343e
000000a0: ff58 9dbd d6a2 0cbd 5ae6 1c3e 8afa d13c
000000b0: 6de1 52bd a00f 033d c47a 16bd e272 aebd
000000c0: 56cf 4abd 5178 cc3c 8729 9cbc d425 2c3d
000000d0: 9f47 f13d d17e 263e 3c86 4e3e 9171 1d3d
000000e0: 4e42 423e 7e27 483e e6df dcbd 5398 b73c
000000f0: 5407 7dbd e6b3 703e 7360 f5bb 8b63 7dbd
00000100: 0a1f 12bd b151 ccbd c0d1 373e 6205 61bd
00000110: e4b3 b8bd d8b0 bbbd 3028 683e 2d81 7bbd
00000120: 14b0 873d 2188 4cbd 2bd7 afbc 13c0 d5bd
00000130: 6bd5 543d a47f 543e 2d6e 0b3e 8a2a d4bb
00000140: 5bd9 273c 452a 7a3d f752 943d 9082 33bc
00000150: 625f 1b3e 2bd9 6b3d ea6f 403e 0326 4cbb
00000160: feb5 02be 7301 973c acc2 213d d4cf 6b3e
00000170: b239 693d d115 c8bd 5bb1 22be 1b18 e7bd
00000180: c641 bcbd 3192 2dbe de3f acbd e7c4 93bc
00000190: f7ab e0bd c8be 943b d70e fbbc 48ff 8cbd
000001a0: 2e04 6ebd fe3e 10be 416e 743b 9e08 ad3b
000001b0: a422 cabc 575f 103e 5072 423e 9d76 b13d
000001c0: 1b46 b5bd c159 523e 084a ca3d 675e 1dbd
000001d0: d0f2 56bd 84a9 76bc e011 dabd 0fd2 123d
000001e0: ee26 cebd 67b9 863e 1f68 a83e e425 1ebe
000001f0: 1d84 c93b 2fed dbbd b319 20be 6290 933e
-0.028474223 -0.16090244 -0.17830662 0.10639356 0.020502912 0.05927296 -0.081162706 -0.026089262
-0.026958449 0.07644915 0.024002321 0.08007729 -0.042859744 0.012265491 -0.18471335 0.12646997
-0.08228215 0.14424491 0.12099754 0.09483508 0.10432795 0.07995726 0.029765638 0.13415992
0.088284716 0.010492742 0.0037952578 0.1344104 0.011058216 -0.040934946 0.06513721 -0.026773302
-0.015822232 0.1788187 0.0321159 0.020325826 -0.0367936 -0.06785007 -0.06101334 0.1765468
-0.0768299 -0.03433498 0.15322247 0.025632162 -0.051484514 0.031997323 -0.036738172 -0.08518006
-0.049514137 0.024959715 -0.01906277 0.042028263 0.11781239 0.16259314 0.20168394 0.038438383
0.18970606 0.19546315 -0.10784893 0.022411501 -0.061774567 0.23506126 -0.0074883043 -0.06186251
-0.035674132 -0.09976519 0.17951107 -0.054936774 -0.090186864 -0.0916459 0.2267158 -0.06140249
0.06625381 -0.04993451 -0.021464905 -0.10437026 0.051961344 0.20751816 0.13616247 -0.0064747976
0.010244693 0.061075468 0.07242387 -0.0109564215 0.15173104 0.057580154 0.18792692 -0.0031150586
-0.12764737 0.018433308 0.039492294 0.23028499 0.05693979 -0.09769786 -0.15887968 -0.11283895
-0.09192233 -0.16950299 -0.08410619 -0.018038226 -0.109703 0.0045393445 -0.030646725 -0.068846285
-0.058109455 -0.1408653 0.0037297162 0.0052805683 -0.024674721 0.1409887 0.1898892 0.08665202
-0.08851262 0.20542051 0.098774016 -0.038420107 -0.052477658 -0.015055064 -0.10647941 0.03584486
-0.10066019 0.26313326 0.32891938 -0.15444142 0.0061497823 -0.107385986 -0.15634803 0.28821093

weight f4 [128, 128]
00000000: a383 663d a7a1 d93c d0a4 85bd e94a afbc
00000010: b7a0 06be 819d a8bd 2939 5c3d fd37 25bc
00000020: 8beb c23d 8cff 68bd 5067 9dbd 4b16 29be
00000030: e349 e73d 4032 523d 910f b7bd d9be 1cbe
00000040: 29d0 ab3d c512 853c 13a9 b0bd 8598 9dbd
00000050: 284b e1bd 880e d7bc c53b c23d c272 dfbd
00000060: 66cc d43c 423d 50bd d8ec db3d 1482 09bd
00000070: 98c1 d83d 8594 40ba f5cd 6cbe 857e 25bc
00000080: 7662 17be 9b1d c4bd d094 c6bd 69cc 04be
00000090: 3371 ea3c 4b90 a83b 9db5 823d f86c 39be
000000a0: 2847 a93d 8598 733d da72 87bd b5c5 5a3d
000000b0: d52f 93bd d687 033d 3652 563d 3708 463d
000000c0: 0a25 dabc ba66 2e3e fe99 893d 8e58 a33d
000000d0: 4bee 2cbe 8ea1 b0bd a778 b23c b180 913c
000000e0: ae9b 8fbd 12f8 18be 6be9 5d3d c11c cabd
000000f0: e6af 9d3d 5b9c 28be 025f dbbc 28f1 313e
00000100: 6e0d c83d 6df4 803d 2d1d 4d3d 328e 43bd
00000110: e702 b63c 51aa 033d ace1 f6bc b7c7 d93c
00000120: 049a c23c bc0f 2b3d a396 ec3d e9d1 a9bd
00000130: 16df c0bc 6f42 7cbd bd68 acbd af61 853c
00000140: bae3 c43a 9453 9fbd 8344 36be f955 06be
00000150: d2f5 eabd d808 86bd c050 0abe fc1e 64bd
00000160: fab2 ecbd b44b 263d c405 b43c 5607 c4bd
00000170: d156 113d 9af5 8dbd 52c4 013e 78af 79bd
00000180: d260 39be e7df a63c c9fa 633d b136 c7bd
00000190: 982b b1bd 384e bfbd a0f7 dfbc 677e 50bd
000001a0: d68b 76bd 809f 85bd 8a96 82bd 7aae d4bc
000001b0: 116f 043d 0594 81bd aa39 ad3c 844f a03d
000001c0: 6b15 253e 5193 b73d 6499 e7bd ae83 413d
000001d0: f51b 933c 3b8d cf3b 305b 9cbc 1e29 b03b
000001e0: b431 a5bd 180c 193d 6722 9fbd d126 193d
000001f0: 1264 d7bd 021d 953d 7d25 91bb 8aad 5ebc
00000200: b935 e5bd 74af adbc ff63 88bd 7a4e 71bd
00000210: e278 30bd d504 b8bd 983e ad3c aeaa 8abe
00000220: 1d97 9f3c c9dd 313d b34d 283d 7429 433d
00000230: de31 c63c f0fb 60be c7d3 2d3b 96bc d43d
00000240: c325 f93c f258 d1bd 6769 9c3c ee23 b6bd
00000250: ea55 a3bd 578d 9dbd 4c14 59bd 4cc7 3e3e
00000260: 602a 983d 43ae 4a3d 5c26 2d3d ae8c f3bd
00000270: f6c2 b13d aef5 963d 33d7 c0bb c5a9 20be
00000280: 8782 153e e803 013e 9201 2c3e fe11 f0bd
00000290: 80c6 eebc 9b4a 11bc 8af4 d9bc fb38 16bd
000002a0: b5dd acbd 20e9 2abd 0615 8d3c 2320 5c3d
000002b0: 82fc 59be a33f 99bd f0ca 4fbc 2885 003c
000002c0: 50a0 d539 a42c 823c fde7 303e 46f2 24bb
000002d0: 4ff2 093e d9ca 7abd cc78 17bd 0a3e fdbd
000002e0: 97d7 133e 5238 803c ef98 d1bd 5c29 19bd
000002f0: 8b91 803a a60d 803c 1b7f 4b3d 8404 00bd
00000300: 908b 4bbd 4b04 0d3d 559e b4bc 4042 d7bc
00000310: f273 0f3d 407e a8bd f216 913d a8bb f73c
00000320: 3916 9abd a779 f13c c213 ff3c e91e c03d
00000330: 4324 7e3d 77d6 c23d 0017 04be 28c2 c83d
00000340: 96b8 5ebd 233a 49bd 31e0 17bd 5301 4cbd
00000350: c6c4 a63d d9df 273c 1938 4abd 4ade ca3d
00000360: b00a 7dbc 171b 82bd 0cd8 493d 7e44 80bc
00000370: 8a34 a4bd b1ec 933b e823 35bd a9da fabd
00000380: dde6 713d 2cba 363d 76cb 343b a914 f9bc
00000390: c822 0abd 7005 06be 217e eb3c 22ff 8c3d
000003a0: 9807 82bd c0ce a83c 6dc6 1dbd 874f 6e3d
000003b0: d280 8abd 57c5 c63d 28cb c9bc 505d e6bd
000003c0: 21c1 d8bd ca28 993c 4709 01be 325e 023d
000003d0: d8ab f2bc 1584 29bd c683 4fbe 4fbb c9bd
000003e0: a628 a63d d087 de3d 2a0d 8ebc ea53 f0bc
000003f0: 2b7e dfbd 9079 28bd c420 03bd 244d ed3c
0.056277882 0.02656634 -0.06525576 -0.021398025 -0.13147245 -0.082331665 0.05376545 -0.010084149
0.095175825 -0.056884333 -0.07685721 -0.1651241 0.1129339 0.051317453 -0.08938516 -0.15307178
0.08389313 0.016244302 -0.08625998 -0.076951064 -0.11000663 -0.026252046 0.094840564 -0.1091056
0.025976371 -0.05083967 0.10738534 -0.033571318 0.105838 -0.000734635 -0.23125441 -0.010100965
-0.14783654 -0.09575959 -0.096963525 -0.12968601 0.02861843 0.005144154 0.06382296 -0.18107975
0.08265525 0.059471626 -0.06613703 0.053411204 -0.071868576 0.032111965 0.052324496 0.048347678
-0.02662899 0.17031375 0.06718825 0.07975875 -0.16887777 -0.08624564 0.021786047 0.01776156
-0.070121154 -0.14938381 0.054177683 -0.098687656 0.076995656 -0.16465895 -0.026778702 0.1737715
0.097681865 0.062966205 0.050076652 -0.04774303 0.02221818 0.03214485 -0.030136906 0.02658449
0.023755081 0.041763052 0.11552169 -0.0829199 -0.023543876 -0.061586794 -0.08418415 0.01628193
0.0015021481 -0.07779613 -0.17799573 -0.13118733 -0.11472668 -0.065446556 -0.13507366 -0.05569361
-0.115575746 0.04059954 0.021975406 -0.09571712 0.035483185 -0.069316104 0.12672547 -0.060958356
-0.1810334 0.020370437 0.05565909 -0.097272284 -0.08650893 -0.09341091 -0.027339756 -0.050901797
-0.06019195 -0.06524563 -0.06376369 -0.025962103 0.032332484 -0.063270606 0.02114566 0.078276664
0.16121452 0.08963645 -0.11308554 0.04724472 0.017957667 0.0063339747 -0.01908645 0.0053759953
-0.08066121 0.03736505 -0.077702336 0.037390534 -0.10517134 0.072809234 -0.004429518 -0.01359118
-0.111918874 -0.021201827 -0.06659698 -0.05891273 -0.043084033 -0.08985297 0.021148011 -0.27083343
0.019481236 0.0434244 0.041089725 0.047646955 0.0241937 -0.21971107 0.0026523934 0.103875324
0.030413514 -0.10222043 0.019093229 -0.08893572 -0.07975371 -0.07692974 -0.052997872 0.18630713
0.074299574 0.049482595 0.04227291 -0.11892067 0.08679764 0.073710784 -0.0058850287 -0.15689762
0.14600573 0.12599146 0.16797474 -0.11722182 -0.029147387 -0.008867885 -0.026605863 -0.036675435
-0.08440725 -0.04172623 0.017221939 0.053741585 -0.2128773 -0.07482841 -0.012682661 0.007844247
0.00040745968 0.015890427 0.17275997 -0.002516882 0.1347134 -0.061228607 -0.036980435 -0.12365349
0.1443771 0.015651856 -0.10234248 -0.03739296 0.0009809 0.015631508 0.049681764 -0.031254306
-0.049693644 0.034427922 -0.022048155 -0.026276708 0.035022683 -0.08227205 0.070844546 0.030240849
-0.0752377 0.029476954 0.031137351 0.09380896 0.0620463 0.09513562 -0.12899399 0.09802657
-0.054375254 -0.04912771 -0.03707904 -0.04980595 0.08143 0.0102462405 -0.049369905 0.099056795
-0.015444443 -0.06352823 0.049278304 -0.01565766 -0.080178335 0.0045143 -0.044223696 -0.12248737
0.05905806 0.04461114 0.0027587092 -0.03040536 -0.033724576 -0.13088012 0.028746666 0.068846
-0.06349105 0.020606399 -0.03851931 0.058181312 -0.06762852 0.09705608 -0.024633005 -0.11248267
-0.105837114 0.018696208 -0.12601195 0.031828113 -0.029622957 -0.04138573 -0.20265111 -0.098501794
0.08113222 0.10865748 -0.017340261 -0.029336888 -0.109127365 -0.041131556 -0.03201367 0.028967448

bias f4 [128]
00000000: 92c8 93bd 41f8 c23d 3ea1 0ebd 58c5 fb3d
00000010: bad2 b8bc 7b71 143e 5b48 863d e45e 0ebd
00000020: 420c 8e3d 098c 2bbe e9d9 123e 9b14 973d
00000030: ef1e d33d 34e3 b13e 327a c9bd 2a08 343b
00000040: 669a 1f3d a344 86bd a8c1 ce3c 0f88 593e
00000050: 8bcf 13be 2ad3 cbbd 50dd 713c b741 b8bd
00000060: b68d 493d 280d 8fbd dec9 ca3c 25ed 813c
00000070: ac3d 93bb 66d3 e4bd cb52 cd3c 1271 ecbd
00000080: 09b5 fcbd 6885 773d c363 343d a113 1dbd
00000090: 8da6 9abd 1dfc c13d a383 74bd 7e84 17be
000000a0: b048 ccbc 478b 523e 0ea4 0a3d 74ef 3c3c
000000b0: 445a d33c 2bc2 453e dd2f 5c3e e0d6 283e
000000c0: 4f85 843e 330f 943d 91b9 633e 1d97 12bd
000000d0: fcba 55bd e5e1 ba3d 13ab e5bc 2b4f c13d
000000e0: ecd1 e53c 62af b2bd eeef 973d e929 19be
000000f0: f673 24bd 6a3a 8c3e b6a2 9fbc 8210 83bd
00000100: 2857 c9bd 792a b4bd 052c 333e 4392 2c3e
00000110: 9282 6a3d bd83 14bd 42f9 613d d9a2 0c3e
00000120: 4ae6 ea3d 2fc9 ef3d 69e4 3c3e 3cd8 9c3d
00000130: a1f7 513d 3b89 b33d 4895 84bd f6cd 15be
00000140: 7cdc 903e 55dc 453e 3294 5d3e 3218 3abb
00000150: 79bc 05be bd45 313e 72c6 053d 8a0c 7e3e
00000160: e989 c0bd e0a7 073e 690c 5ebd 8d46 713d
00000170: 4593 af3d 203e 1ebd ebf3 51bd 90d6 0c3e
00000180: 1092 2f3a 364a 613e 65db f23d 8c35 a83e
00000190: ef72 33bc 14b4 0ebd 8675 cb3d 34f3 5dbd
000001a0: 1b53 773e b6ef 7d3e 0e74 0abe 51b3 a23d
000001b0: 9310 023e b4cd 123d ac22 d9bc f178 bc3d
000001c0: d136 6f3e 61f1 113e 8c32 74bd 0c1c 923e
000001d0: f308 6f3e e146 6a3d 9910 063d 211f 863d
000001e0: a3a6 01be 31de a5bd d7f3 3ebe 6340 42bd
000001f0: 5737 8b3d 32d9 3d3d 5b5a 40bc f8a8 d33d
-0.0721599 0.09520007 -0.03482174 0.122935 -0.02256142 0.14496414 0.065567695 -0.034758464
0.06935932 -0.16752638 0.14340939 0.07376977 0.103086345 0.34743655 -0.0983776 0.0027470686
0.038965605 -0.0655606 0.025238827 0.21243308 -0.1443464 -0.09952386 0.014762238 -0.08996909
0.04920741 -0.06984931 0.02475446 0.01586015 -0.004493436 -0.111731336 0.025063893 -0.11545004
-0.12339217 0.06042996 0.044040453 -0.038348798 -0.07551298 0.09471915 -0.05969585 -0.14796636
-0.024937004 0.20560943 0.03384786 0.011531699 0.025799878 0.1931235 0.21502633 0.16488218
0.25882956 0.072294615 0.22238757 -0.035788644 -0.052180275 0.09125117 -0.028035676 0.09438928
0.0280542 -0.08724858 0.0741881 -0.14957394 -0.04014965 0.27388316 -0.019486766 -0.06399633
-0.09831077 -0.087971635 0.17497261 0.1685267 0.057253428 -0.036258448 0.05516935 0.13733996
0.114697054 0.117082946 0.18446507 0.07658431 0.051261548 0.08766409 -0.06473786 -0.14629349
0.28293216 0.19322331 0.21638563 -0.002839577 -0.13060178 0.1731176 0.032659955 0.24809471
-0.09401304 0.13247633 -0.054211054 0.058905173 0.08573011 -0.038633466 -0.05125801 0.13753724
0.0006697485 0.22000965 0.118582524 0.32853353 -0.010952695 -0.034839705 0.09934525 -0.054187015
0.24152796 0.24798474 -0.13520834 0.07944358 0.12701635 0.035840705 -0.02650579 0.09202755
0.23360755 0.14252235 -0.059618518 0.28537023 0.23343258 0.0571965 0.032730673 0.06548906
-0.12661223 -0.0809902 -0.18647705 -0.047424685 0.067976646 0.04634971 -0.011740292 0.103349626
