models/mlp_5_128.pth (torch, 609351 bytes, 10 tensors)

weight f4 [128, 784]
0	0x3d70a3d6	0.058749996
1	0x3d050e92	0.0324846
2	0x3d6ebf2d	0.05828779
3	0x3d837dc5	0.06420473
4	0x3b8c625b	0.004284186
5	0x3d74d195	0.059770186
6	0x3d7cfbcc	0.06176357
7	0x3d6431c3	0.05571152
8	0x3d71fe7e	0.059080593
9	0x3b5f712a	0.003409455
10	0x3cdfdb28	0.027326182
11	0x3c8ac0fc	0.016937725
12	0x3bc9e08c	0.0061608013
13	0x3c83a050	0.016067654
14	0x3c692adf	0.014231413
15	0x3d388db1	0.045057002
16	0x3b865540	0.004099518
17	0x3d702493	0.05862863
18	0x3ce2f81d	0.0277062
19	0x3c3e7ef3	0.011626947
20	0x3c9a12df	0.018807827
21	0x3b613c72	0.0034368304
22	0x3c5f9499	0.013646268
23	0xbbb247bb	-0.00544068
24	0x3b1a6d3e	0.0023563649
25	0x3ce60454	0.028078236
26	0x3d5fc2dd	0.054629195
27	0x3c1d6fd4	0.009609181
28	0x3cc6fd8c	0.024290822
29	0x3d05f66c	0.03270571
30	0x3d43aea8	0.047773987
31	0x3d853a37	0.06505244
32	0x3a8cf0bc	0.0010752897
33	0x3c106b5a	0.008814657
34	0x3d179c38	0.037014216
35	0x3d4088d6	0.047005497
36	0x3d8a3b79	0.06749625
37	0x3cf2f703	0.0296588
38	0x3a94a7a9	0.001134147
39	0x3d62b863	0.055351626
40	0x3d130876	0.03589674
41	0x3baa17ca	0.005190824
42	0x3d3b7a80	0.045771122
43	0x3d0b9360	0.034076095
44	0x3a8037ab	0.0009782215
45	0x3d5129a8	0.051065117
46	0x3d8afccd	0.06786499
47	0x3d7d463d	0.061834563
48	0x3d73201b	0.05935679
49	0x3ce1f0fa	0.027580727
50	0x3d81c34f	0.0633608
51	0x3caee111	0.021347554
52	0x3b711407	0.003678562
53	0x3b6b4493	0.0035899028
54	0x3a1fff5d	0.0006103421
55	0x3c749ef4	0.0149304755
56	0x3bc3aee7	0.0059717777
57	0x3ca651e4	0.02030272
58	0x3d0a7955	0.033807117
59	0x3d6bce24	0.057569638
60	0x3c93f837	0.018062694
61	0xbb1713ba	-0.002305253
62	0x3d317651	0.043325726
63	0x3d3577ea	0.044303812
64	0x3d8d9b9a	0.06914444
65	0x3b99b2f0	0.0046905205
66	0x3d2c7928	0.04210773
67	0x3d7a7e7d	0.061155785
68	0x3d8e0e31	0.069363005
69	0x3d4e0360	0.050296187
70	0x3cb94c26	0.022619318
71	0x3d688b0c	0.05677323
72	0x3d0d5712	0.034506865
73	0x3dcc0f19	0.09963817
74	0x3dac8d57	0.08425396
75	0x3dd4b98b	0.10386952
76	0x3d8a0a8f	0.06740295
77	0x3da69483	0.08133795
78	0x3da2910a	0.0793782
79	0x3c2e84cf	0.010651781
80	0x3b60d009	0.0034303686
81	0xbba7b7ea	-0.00511836
82	0x3d432148	0.04763916
83	0x3d25c99f	0.040475484
84	0x3d4bd3c5	0.049762506
85	0xbad3f9eb	-0.0016172504
86	0x3d425dcb	0.04745273
87	0x3c8fb025	0.017540047
88	0x3c84d7b8	0.016216144
89	0x3cbd15b7	0.023081644
90	0x3d1c4009	0.038147006
91	0x3dba959c	0.09110567
92	0x3d658fdc	0.056045398
93	0x3d9d2a6f	0.07674109
94	0x3b2f4e95	0.002674972
95	0x3dfbddd2	0.12298168
96	0x3d04abb0	0.032390296
97	0x3d312492	0.043247767
98	0xbd3b118e	-0.04567104
99	0xbd5b5df9	-0.053556416
100	0xbd70a773	-0.058753442
101	0x3cc3f41e	0.023920115
102	0x3e0d0efd	0.13775249
103	0x3d8e44da	0.06946726
104	0x3dfc2008	0.12310797
105	0x3e0c378e	0.13693067
106	0x3e04ce79	0.12969388
107	0x3df2d035	0.118561186
108	0x3be3869b	0.0069435365
109	0x3ccc3c4f	0.024931101
110	0x3d601ca2	0.054714806
111	0x3acd9209	0.0015683781
112	0x3d5bfe93	0.053709578
113	0x3d75b388	0.059985667
114	0x3d04c191	0.03241116
115	0x3d74d099	0.059769247
116	0x3c6e2928	0.01453618
117	0xba88bbee	-0.0010431984
118	0x3d4c7f12	0.04992587
119	0x3dc9093c	0.098162144
120	0x3d39ef62	0.04539431
121	0x3df99f90	0.12188637
122	0x3e4491c2	0.19196227
123	0x3daee230	0.085392356
124	0x3dfe801e	0.1242678
125	0x3d02ba9d	0.03191625
126	0x3d8a408c	0.067505926
127	0x3cd3432f	0.025788872
128	0x3d9717e2	0.07377602
129	0x3e178411	0.14796473
130	0x3e1ba04c	0.15197867
131	0x3e61d377	0.22053324
132	0x3e288a4b	0.16459005
133	0x3d992341	0.07477427
134	0xbc9224aa	-0.017839748
135	0x3ceb347c	0.02871155
136	0x3cf43479	0.029810177
137	0xbcc2def5	-0.023787955
138	0x3d0b7a8f	0.034052428
139	0x3d27170f	0.040793475
140	0x3d83263b	0.06403776
141	0x3c93edd7	0.018057747
142	0x3d36a1c7	0.044587877
143	0x3d11246a	0.035435118
144	0xbd162c73	-0.036663484
145	0xbc43f4d2	-0.011960225
146	0xbc994709	-0.01871063
147	0x3d910f4b	0.07082995
148	0x3d8627ff	0.065505974
149	0x3d8593c2	0.06522323
150	0x3df127b8	0.11775154
151	0x3dabf6d1	0.08396686
152	0xbbe66fd4	-0.007032374
153	0xbd882aed	-0.066488124
154	0x3c0ecf91	0.00871648
155	0x3bb7fe73	0.0056150495
156	0xbc06d166	-0.008228635
157	0x3dae3119	0.085054584
158	0x3dd678b5	0.10472242
159	0x3ddf5656	0.10905139
160	0x3cc83171	0.024437638
161	0x3d1024c8	0.035191327
162	0xbd1cfeca	-0.038328923
163	0xbd4692e2	-0.048479922
164	0x3c59b464	0.013287637
165	0x3cd626fa	0.026141632
166	0x3c77f9f1	0.015135274
167	0x3c199265	0.009373282
168	0x3d4e716f	0.050401147
169	0x3cde0334	0.027101137
170	0x3d4bfce4	0.049801722
171	0x3bf22e1d	0.007390751
172	0xbdb7e60a	-0.08979423
173	0xbd2e1f3a	-0.04251025
174	0xbd70f2d5	-0.058825333
175	0x3d0d5470	0.034504354
176	0x3dc3cc60	0.09560466
177	0xbb5989f0	-0.003319379
178	0xbd709111	-0.058732096
179	0x3ceec705	0.029147634
180	0xbcc4584d	-0.023967886
181	0xbdab6569	-0.08368952
182	0xbd988598	-0.07447356
183	0xbc6e87c7	-0.014558739
184	0xbdb11c5d	-0.08647988
185	0xbc3b7bcf	-0.0114430925
186	0xbcb07d68	-0.021544173
187	0xbc8b53da	-0.017007757
188	0xbd8d959c	-0.06913301
189	0xbdcb3fd0	-0.09924281
190	0x3d22bfab	0.03973357
191	0xbd39e270	-0.045381963
192	0xbaccd387	-0.0015627005
193	0xbca4e35c	-0.020127945
194	0x3d6c9eb9	0.057768557
195	0x3d7bd638	0.06148359
196	0x3cadf945	0.021237025
197	0x3d56c3a8	0.052432686
198	0x3d7184bc	0.058964476
199	0xbd0c8275	-0.0343041
200	0xbdf2da74	-0.11858073
201	0xbdb98363	-0.09058263
202	0xbe10ab2e	-0.141278
203	0x3befb633	0.007315421
204	0x3d352a13	0.04422958
205	0xbc2cd699	-0.010549211
206	0xbb410651	-0.0029453228
207	0xbda47e97	-0.080319576
208	0xbd6f7836	-0.05846425
209	0x3c52b6f8	0.012861006
210	0x3caf711f	0.021416245
211	0x3ca466f4	0.020068623
212	0xbd97ef1e	-0.07418655
213	0xbdcba3e4	-0.09943369
214	0xbd1db0f8	-0.03849885
215	0xbe0a2e61	-0.13494255
216	0xbe0aa89c	-0.13540882
217	0x3d4f467d	0.050604332
218	0xbbe8739e	-0.007093861
219	0xbd56f89a	-0.05248318
220	0xbce7232e	-0.028215017
221	0xbcfa5a53	-0.030560648
222	0x3d3bfbc3	0.045894396
223	0xbb8a64d2	-0.0042234445
224	0x3c2c94ca	0.010533521
225	0x3c6628b2	0.014047788
226	0x3d1391a4	0.036027566
227	0x3bc2b86c	0.005942395
228	0xbdbf0ea1	-0.09328962
229	0xbc3e0664	-0.011598203
230	0x3d64c4e7	0.055851843
231	0x3ca45501	0.020060064
232	0x3da5bd89	0.080927916
233	0x3da129af	0.07869279
234	0xbd8ac0bd	-0.06775043
235	0xbde43a77	-0.11143964
236	0xbdf51a2e	-0.11967884
237	0xbd0d1318	-0.034442037
238	0xbb5a26ac	-0.003328721
239	0x3c575ac6	0.013144201
240	0xbe1a65b2	-0.15077856
241	0xbe57341c	-0.21015972
242	0xbe124e90	-0.14287782
243	0xbe127f65	-0.1430641
244	0xbe03ec28	-0.12883055
245	0x3cb401ac	0.021973453
246	0xbdcc90e6	-0.09988575
247	0xbdd1abcb	-0.10237845
248	0xbd8e46ff	-0.06947135
249	0x3c9a601e	0.01884466
250	0x3d6515af	0.055928882
251	0x3d720658	0.05908808
252	0x3d571649	0.052511487
253	0x3bfd0c7f	0.007722437
254	0x3d098243	0.033571493
255	0x3ae144f5	0.0017186688

bias f4 [128]
0	0xbd6a02b6	-0.05713149
1	0xbd8601e3	-0.065433286
2	0xbc9f076b	-0.019412717
3	0x3cb7262a	0.022357065
4	0xbcfefc90	-0.03112629
5	0x3c477185	0.012173061
6	0x3c9313bf	0.017953752
7	0xbb7afcd4	-0.003829767
8	0xbd2e18f8	-0.04250428
9	0x3c17f408	0.00927449
10	0xbc564715	-0.013078471
11	0xbcc7d67a	-0.024394263
12	0xbd134574	-0.035954908
13	0x3cfefdbf	0.031126855
14	0xbd4639ed	-0.048395086
15	0x3b941908	0.0045195855
16	0xbb274750	-0.0025524683
17	0xbc4636e8	-0.012098052
18	0x3bb469b0	0.005505763
19	0xbc1f4410	-0.009720817
20	0xbced1f7f	-0.028945683
21	0xbc58b5ed	-0.013226968
22	0xbd14703b	-0.036239844
23	0xbd134c74	-0.035961583
24	0xbd1792eb	-0.037005346
25	0xbd24ac95	-0.04020365
26	0x3bd6d081	0.0065556173
27	0x3b0b059c	0.002121306
28	0x3bbf81a8	0.0058443137
29	0xbda13ea0	-0.07873273
30	0xbcc1ada4	-0.023642369
31	0x3cd3ec54	0.025869526
32	0xbce501ce	-0.027954962
33	0x3ca8cda8	0.020605877
34	0xbc39ddb7	-0.011344365
35	0xbd671fd1	-0.056426827
36	0xbbd653de	-0.0065407595
37	0xbb74b582	-0.0037339632
38	0xbd40cb63	-0.047068965
39	0x3c52ada8	0.012858786
40	0xbd014d5a	-0.03156791
41	0xbc2a7dd1	-0.0104059735
42	0xbd2542d5	-0.04034694
43	0x3c355327	0.011067188
44	0xbc361bfb	-0.0111150695
45	0xbd80fbcb	-0.06298026
46	0xbd0045a6	-0.031316422
47	0xbcebdf23	-0.028792923
48	0xba27d348	-0.0006402028
49	0xbcbd2ed2	-0.023093615
50	0xbd2fff4a	-0.042968072
51	0xbc293f78	-0.010330074
52	0x3cb76e50	0.022391468
53	0xbcbb2ec7	-0.022849454
54	0x396dd032	0.0002267964
55	0xbc8cbf37	-0.017181022
56	0xbcb7fa15	-0.022458116
57	0xbcbff0de	-0.023430284
58	0xbc693e48	-0.01423604
59	0xbcad2f4c	-0.021140717
60	0xbc8b5eda	-0.017013002
61	0xbc3ad7ac	-0.011403959
62	0x3d223aff	0.039607044
63	0x3d28e858	0.041237205
64	0x3d092dcc	0.03349094
65	0x3bfd6c56	0.007733862
66	0xba5e01d4	-0.00084689003
67	0xba5d4fdd	-0.00084423815
68	0x3b2ba063	0.0026188127
69	0xbd0a470a	-0.033759154
70	0xbca3cf0b	-0.019996187
71	0xbcea880f	-0.02862933
72	0xbc1f8b14	-0.009737749
73	0xbd49af0b	-0.0492392
74	0x3c4f59aa	0.012655655
75	0xbcaf9d64	-0.021437354
76	0x3b0afe94	0.002120887
77	0xbca5fb4e	-0.020261433
78	0xbcc9ddad	-0.024641836
79	0xbca58ec8	-0.020209685
80	0xbb84df67	-0.004054952
81	0xbcd9f107	-0.026604189
82	0x3c896ec5	0.016776452
83	0xbd15e339	-0.03659365
84	0x3b86a90d	0.004109508
85	0x3b054054	0.0020332532
86	0xbd23e5df	-0.040014144
87	0xbc55b8e4	-0.01304457
88	0xbd6583a9	-0.056033764
89	0x3b08f75c	0.002089939
90	0xbc544b85	-0.012957458
91	0xbd095ac7	-0.033533838
92	0xbd1597ba	-0.03652165
93	0xbd23d17e	-0.03999471
94	0xbc8b7ef6	-0.017028313
95	0x3ae0a4a8	0.0017138915
96	0xbd0b1bd7	-0.033962097
97	0x3aef945b	0.0018278466
98	0x3a2e3bd2	0.0006646487
99	0xbcb7329a	-0.022362996
100	0xbd3b41e4	-0.045717135
101	0x3c12aa17	0.008951685
102	0xbc73b71a	-0.014875198
103	0xbc8e6924	-0.01738412
104	0xbc15c708	-0.009141691
105	0xbd10d83a	-0.03536246
106	0xbbcd5ae9	-0.006266941
107	0xbcdb6171	-0.026779862
108	0xbb825d23	-0.003978388
109	0xbc3c0700	-0.011476278
110	0xbd10b44b	-0.03532819
111	0x3b724297	0.003696596
112	0xba10657f	-0.0005508288
113	0xbd32d603	-0.04366113
114	0xbcb96e52	-0.022635613
115	0xbb893191	-0.004186817
116	0x3d2607b1	0.04053468
117	0xbbefaecc	-0.0073145386
118	0xbc26e6cc	-0.010186862
119	0xbd38cdd6	-0.045118175
120	0x3b544f81	0.003239602
121	0xbcce6de2	-0.02519888
122	0x3c4ac4ab	0.012375991
123	0xba98ae00	-0.0011648536
124	0xbd00aad9	-0.031412933
125	0xbd2102c7	-0.03930929
126	0xbb497e38	-0.0030745398
127	0xbd217cce	-0.039425664

weight f4 [128, 128]
0	0x3c135948	0.008993454
1	0x3cd65377	0.026162846
2	0xbe7462df	-0.23865841
3	0xbddffb98	-0.109366596
4	0x3e2c656c	0.16835564
5	0xbd1cfdc6	-0.038327955
6	0x3e1df23e	0.1542444
7	0xbd7b695a	-0.061379768
8	0xbc85fdb7	-0.016356332
9	0x3b85795a	0.004073304
10	0xbc5185c5	-0.012788241
11	0xbd92dace	-0.0717064
12	0xbd09f929	-0.033684883
13	0x3d69ebfa	0.05710981
14	0xbc98c64a	-0.01864924
15	0x3d5d2b87	0.05399659
16	0x3deae07e	0.114686
17	0x3e2a1b2a	0.16611925
18	0xbe2e54b5	-0.170245
19	0x3cbbe43c	0.022935979
20	0xbddfb974	-0.10924044
21	0xbdc143ec	-0.09436783
22	0x3db0d740	0.08634806
23	0x3d94b881	0.07261754
24	0xbd34a3ce	-0.04410153
25	0xbe31f6a5	-0.17379244
26	0x3cc24cfb	0.023718348
27	0xbc5ae83e	-0.013361035
28	0xbdb011fd	-0.08597181
29	0x3df60c68	0.12014085
30	0xbe859d15	-0.26096407
31	0xbe092a5a	-0.13395062
32	0xbe3c7777	-0.18404947
33	0x3d6a2db4	0.057172492
34	0x3de406c2	0.111341015
35	0xbd3c79ba	-0.046014525
36	0x3d899d6f	0.06719481
37	0xbccc55ac	-0.024943195
38	0x3d20ca31	0.039255325
39	0xbda91deb	-0.082576595
40	0xbea4829a	-0.3213089
41	0xbdddd089	-0.108307905
42	0x3d55277f	0.05203962
43	0xbdf635ac	-0.12021956
44	0xbd4afb9a	-0.049556352
45	0x3bd6fbf0	0.006560795
46	0x3d6f0aea	0.058360018
47	0x3caf595c	0.021404915
48	0x3dda49a8	0.1065858
49	0xbd11fd88	-0.035642177
50	0xbd133007	-0.035934474
51	0xbc8da3ab	-0.017289957
52	0xbdc85b83	-0.097830795
53	0xbd49d53b	-0.049275618
54	0x3dfb92bc	0.12283847
55	0x3e0ebbd1	0.13938834
56	0x3d206d1b	0.03916655
57	0x3e135f3a	0.14391795
58	0x3cab0942	0.020878438
59	0x3b4cb935	0.0031238322
60	0xbd473700	-0.048636436
61	0xbe07722d	-0.13227148
62	0xbe20f2b0	-0.15717578
63	0x3dbdeadb	0.09273311
64	0x3d39616b	0.04525892
65	0xbd1dc724	-0.038519993
66	0xbd82f637	-0.06394618
67	0xbd91f6ec	-0.07127175
68	0xbe2e1cd0	-0.17003179
69	0xbdda81dd	-0.10669301
70	0xbda02947	-0.07820373
71	0x3d50be1c	0.050962552
72	0xbde577a6	-0.11204462
73	0x3d89103a	0.06692548
74	0xbd0fbc1f	-0.035091516
75	0xbd05a39b	-0.03262673
76	0x3dba882c	0.09108004
77	0x3dd05fd9	0.101745315
78	0xbb92d106	-0.004480484
79	0xbdd1f784	-0.10252288
80	0xbd621c9a	-0.055203058
81	0x3dc01e3a	0.09380765
82	0x3e060c6b	0.13090675
83	0x3d7c2d46	0.061566614
84	0xbe0ffce7	-0.14061318
85	0x3d86e7e7	0.065872006
86	0xbd3b8c75	-0.045788247
87	0xbe4a78b5	-0.19772609
88	0xbe1693c9	-0.14704813
89	0x3e197eef	0.14989828
90	0xbd96b163	-0.073580526
91	0xbd0e791b	-0.034783464
92	0x3d0707a8	0.032966286
93	0xbd2bfa3f	-0.0419867
94	0xbdd96289	-0.10614497
95	0xbcf47a3d	-0.029843444
96	0x3e0f2661	0.13979484
97	0xbc5be287	-0.013420708
98	0x3dab67e8	0.08369428
99	0x3d60eaeb	0.054911535
100	0x3d3b79c7	0.045770433
101	0xbd136046	-0.035980485
102	0x3e5a3b84	0.21311766
103	0x3e05b576	0.13057503
104	0x3e19972a	0.14999071
105	0x3d8bcdd8	0.06826371
106	0xbc7b9bc5	-0.015356963
107	0xbd38326f	-0.044969972
108	0x3a077999	0.0005167961
109	0x3a930923	0.0011217933
110	0xbd3857a8	-0.04500547
111	0xbe52bf83	-0.20580868
112	0x3cb6f98b	0.022335788
113	0x3d8264b1	0.063668616
114	0xbe412c81	-0.18864633
115	0xbdfa4f7b	-0.12222191
116	0xbc625c4d	-0.0138159515
117	0x3dc2c5a5	0.09510354
118	0xbcc31afb	-0.023816576
119	0x3d45f2cc	0.048327252
120	0x3db0f436	0.086403295
121	0xbb6948e2	-0.003559642
122	0xbe2c61ea	-0.16834226
123	0xbdba40e8	-0.09094411
124	0x3d76f718	0.06029424
125	0x3e472bf7	0.19450365
126	0x3cbcc173	0.023041463
127	0xbde748ec	-0.112932056
128	0x3d4973dd	0.04918276
129	0x3b657d25	0.003501722
130	0x3df3d556	0.11905925
131	0x3d15a5fd	0.036535252
132	0x3d380991	0.044931
133	0x3d4da09c	0.050201997
134	0x3e05c2a1	0.13062526
135	0xbcac3f93	-0.021026408
136	0x3d374e80	0.044752598
137	0xbcecd205	-0.028908739
138	0x3c84a124	0.01619012
139	0xbc257703	-0.010099175
140	0x3d913b78	0.07091421
141	0xbc93e3c6	-0.018052947
142	0x3e82184e	0.25409168
143	0x3e363694	0.17794257
144	0x3dd8d775	0.1058797
145	0x3caa580b	0.020793935
146	0xbe1d9e2b	-0.15392368
147	0xba6f2987	-0.00091233145
148	0xbcc41afb	-0.023938647
149	0xbd0f4a83	-0.03498317
150	0x3b3b0c10	0.0028541125
151	0xbdf4f464	-0.11960676
152	0xbe5a58ec	-0.21322984
153	0xbe3db9b6	-0.18527874
154	0x3cd6f65a	0.026240516
155	0xbe48fc39	-0.19627465
156	0xbd3b53d6	-0.04573425
157	0xbd07b9db	-0.03313623
158	0xbe69afa2	-0.22820905
159	0xbe94b8aa	-0.29047137
160	0xbdf5606f	-0.11981284
161	0x3d17f91f	0.037102815
162	0x3d12b485	0.035816688
163	0x3d90d00b	0.07070931
164	0xbd26e74d	-0.04074793
165	0x3e1420c1	0.1446562
166	0x3da4aefc	0.08041188
167	0x3d9909e8	0.074725926
168	0xbd4fdfdf	-0.05075061
169	0xbe47e729	-0.19521774
170	0x3d22aa10	0.039712965
171	0xbe796092	-0.24353245
172	0xbd43f8bc	-0.047844633
173	0x3e0db8c3	0.13840012
174	0x3e17aa72	0.14811113
175	0x3dab197d	0.08354471
176	0xbdee343c	-0.11631057
177	0x3b5543c4	0.0032541612
178	0xbd55f9ab	-0.052240055
179	0x3d9047bf	0.070449345
180	0x3cf07628	0.029353216
181	0xbbd250b7	-0.0064183134
182	0xbce669bf	-0.028126596
183	0xbc1a943e	-0.009434758
184	0xbd4baed7	-0.049727287
185	0x3dbd28aa	0.09236272
186	0x3dc1a876	0.094559595
187	0x3cad6106	0.021164428
188	0xbcfdb99f	-0.0309723
189	0xbe3a0e46	-0.18169507
190	0xbd9aacf8	-0.075525224
191	0x3d4989b4	0.04920359
192	0x3def9e29	0.117000885
193	0x3b520ced	0.0032051161
194	0x3cc48bba	0.023992408
195	0x3da31bb6	0.0796427
196	0xbdba9fd3	-0.09112515
197	0x3d7c9e0a	0.061674155
198	0xbde3572c	-0.11100611
199	0x3d930b0e	0.07179843
200	0xbd537249	-0.051622663
201	0xbcd483c0	-0.02594173
202	0xbd9a1192	-0.075228825
203	0xbd50c1e2	-0.05096615
204	0x3e1ef2a2	0.15522245
205	0xbb951b67	-0.0045503858
206	0x3d419dfe	0.047269814
207	0x3d9e7cf5	0.077386774
208	0x3dd0ee0d	0.102016546
209	0xbd204a1a	-0.03913317
210	0x3d8819e7	0.066455655
211	0x3db1f18d	0.0868865
212	0x3e163d38	0.1467179
213	0xbe2f32bd	-0.17109199
214	0x3da60446	0.08106284
215	0x3e15256d	0.14565058
216	0xbe84b3ea	-0.25918514
217	0x3d01b4f3	0.031666707
218	0xbe04d3b9	-0.12971391
219	0x3d066116	0.032807432
220	0xbc77dc60	-0.015128225
221	0x3dfc628d	0.123234846
222	0x3d9a79ae	0.0754274
223	0x3ce6bb67	0.028165532
224	0x3da4f491	0.0805446
225	0xbd065357	-0.032794323
226	0x3d7dca59	0.061960552
227	0xbe1f3347	-0.15546905
228	0xbe0f09dd	-0.13968606
229	0xbd74d490	-0.059773028
230	0xbc13fc7e	-0.009032367
231	0xbdcc912a	-0.09988625
232	0xbcb360a4	-0.021896668
233	0xbbc4ef87	-0.006009999
234	0xbde4d1b6	-0.11172812
235	0xbe272d7e	-0.16325948
236	0xbcf3277b	-0.029681912
237	0x3d8fce28	0.07021743
238	0x3e197e2a	0.14989534
239	0x3de0df82	0.10980131
240	0x3e240060	0.16015768
241	0x3dae3c0b	0.08507546
242	0x3a949d95	0.0011338467
243	0xbe0a5eba	-0.13512698
244	0x3cec7a5a	0.028866936
245	0x3e297591	0.16548754
246	0x3d1c4f02	0.038161285
247	0xbd0d0e09	-0.034437213
248	0xbd1a43a2	-0.037662156
249	0xbc1394c0	-0.009007633
250	0xbe0c30cc	-0.1369049
251	0xbd601531	-0.05470771
252	0xbd3ee0e5	-0.046601195
253	0xbd524f9f	-0.051345464
254	0x3d6e0f79	0.058120225
255	0xbdcc3d5a	-0.099726394

bias f4 [128]
0	0xbdb4cfc3	-0.0882869
1	0x3dc9345f	0.09824442
2	0x3da8718c	0.08224782
3	0xbdef9860	-0.11698985
4	0xbdd83f2c	-0.10558924
5	0xbb8e2bec	-0.004338732
6	0x3d5775c6	0.052602552
7	0xbd51360b	-0.05107693
8	0x3c3e6b31	0.011622236
9	0xbe0d972c	-0.13827199
10	0xbdef26a8	-0.11677295
11	0xbd96f06d	-0.07370076
12	0x3db0089e	0.085953936
13	0xba4beda4	-0.00077792467
14	0x3c443a06	0.0119767245
15	0x3cb4922a	0.022042353
16	0xbdede42c	-0.11615786
17	0xbd41216e	-0.04715102
18	0x3d6efff5	0.05834957
19	0x3c966018	0.018356368
20	0x3b2068f5	0.0024476622
21	0xbcd2dc0b	-0.02573969
22	0xbd8e2405	-0.06940464
23	0xbdb0ba7f	-0.08629321
24	0xbdde27b1	-0.10847414
25	0x3dd65138	0.1046471
26	0x3d5081bc	0.050904974
27	0xbe22dd2b	-0.15904681
28	0x3e4560e3	0.1927524
29	0xbe16a70f	-0.14712165
30	0xbdd8483e	-0.10560654
31	0xbdbea70d	-0.09309206
32	0xbe27e23c	-0.16394895
33	0xbdceca3b	-0.10097166
34	0xbd2af50f	-0.041737612
35	0x3d24c639	0.040228102
36	0x3d2693f4	0.040668443
37	0x3c90dcae	0.017683353
38	0xbddac27e	-0.10681628
39	0xbde755ab	-0.11295637
40	0xbd966bfb	-0.073448144
41	0x3df3f3e4	0.11911753
42	0xbcec71c6	-0.028862845
43	0xbce94f0a	-0.028480072
44	0x3d4b42df	0.04962432
45	0xbc9bc95d	-0.019016916
46	0xbc907790	-0.017635137
47	0x3d4e4a99	0.05036411
48	0xbde15234	-0.11002007
49	0xbd925f54	-0.07147089
50	0xbdada84e	-0.08479367
51	0xbccc0ce5	-0.024908492
52	0x3d92e2b6	0.07172148
53	0x3dc100cc	0.0942398
54	0xbe2772b5	-0.16352351
55	0xbd4a2d78	-0.04935977
56	0x3de3d5d3	0.11124768
57	0xbd9b27a5	-0.07575921
58	0xbdaf06ee	-0.085462436
59	0x3e4a685c	0.19766372
60	0xbd480b75	-0.04883905
61	0x3ca827d3	0.020526802
62	0x3d47a77d	0.048743714
63	0x3d78a39c	0.060702905
64	0xbe31668e	-0.17324278
65	0xbd56c1ae	-0.0524308
66	0xbd937059	-0.07199163
67	0x3e76c67d	0.24099155
68	0xbda997f1	-0.08280934
69	0xbc4b89b8	-0.012422971
70	0xbc90bc9c	-0.017668061
71	0x3d54df6b	0.05197088
72	0xbdd5cd38	-0.10439533
73	0x3d500a2d	0.050790954
74	0x3e3642d0	0.17798924
75	0x3da9d454	0.082924515
76	0xbd71fb51	-0.059077565
77	0xbda33888	-0.07969767
78	0xbcf36ec1	-0.029715898
79	0xbdb25100	-0.08706856
80	0x3cbab0f6	0.02278946
81	0xbd87914d	-0.06619511
82	0x3ca8e99f	0.020619212
83	0x3cc06ebe	0.023490306
84	0xbd182075	-0.03714033
85	0xbd82fdba	-0.06396051
86	0x3c29ee06	0.010371691
87	0xbd4a666d	-0.049414087
88	0xbdce4026	-0.10070829
89	0xbdeae6f3	-0.11469831
90	0x3dd9fb3c	0.10643622
91	0x3cdf3532	0.027247045
92	0x3ddaefe4	0.10690287
93	0xbd13af7c	-0.036056027
94	0xbd2e8a80	-0.042612553
95	0xbbf7e89d	-0.0075655715
96	0x3dc24193	0.094851635
97	0xbe0532f4	-0.13007718
98	0x3c50dd84	0.012748126
99	0x3e1c4956	0.1526235
100	0x3c89310a	0.016747016
101	0xbcc134b0	-0.023584694
102	0x3d464b31	0.048411552
103	0xbe1478a7	-0.1449915
104	0xbe2254e3	-0.15852694
105	0x3daf728d	0.08566771
106	0xbd14b910	-0.0363093
107	0x3d9d360c	0.07676324
108	0x3e0f5328	0.13996565
109	0x3cef7242	0.029229287
110	0xbd28e96e	-0.04123824
111	0xbdeb6c02	-0.1149521
112	0xbd9c2a93	-0.07625308
113	0x3d895e68	0.0670746
114	0xbc50d128	-0.012745179
115	0x3d17d768	0.03707066
116	0x3c3d64fe	0.011559723
117	0x3e4e9028	0.20172179
118	0xbd56d992	-0.052453585
119	0x3c885bcf	0.01664534
120	0xbcccab08	-0.024983898
121	0xbe2cd015	-0.16876252
122	0x3d696693	0.056982588
123	0xbcf68408	-0.030092254
124	0xbdcaebd5	-0.09908263
125	0x3dfc82db	0.12329646
126	0x3e051e60	0.12999868
127	0xbcaf2f86	-0.021384966

weight f4 [128, 128]
0	0x3c10be81	0.008834482
1	0x3d419e26	0.047269963
2	0x3c222c57	0.009898267
3	0xbda56dab	-0.08077558
4	0xbd1b8ec4	-0.03797795
5	0xbe0207b5	-0.12698252
6	0xbdd63e85	-0.104611434
7	0x3d0e7734	0.03478165
8	0x3dccc80c	0.099990934
9	0xbd9df68a	-0.07713039
10	0xbd70dc7f	-0.05880403
11	0xbdda92f7	-0.106725626
12	0xbe20755d	-0.1566977
13	0xbd27a4a6	-0.040928505
14	0xbd636837	-0.05551931
15	0x3e042f21	0.12908603
16	0x3cd2ef4d	0.025748873
17	0x3cf0e8ab	0.02940782
18	0x3c225a9d	0.009909299
19	0x3cd1fc20	0.025632918
20	0xbd66bf2d	-0.056334663
21	0xbde871ba	-0.113498166
22	0x3cdfff03	0.027343279
23	0xbd94d43b	-0.07267042
24	0xbc72be5f	-0.014815896
25	0xbd9003dd	-0.07031987
26	0xbc9249f5	-0.017857531
27	0x3c84c284	0.016206034
28	0xbd4fd0f7	-0.050736394
29	0x3e5cbd20	0.2155652
30	0x3d034367	0.0320467
31	0xbd510c76	-0.051037274
32	0xbda25cba	-0.079278424
33	0xbdb094ca	-0.08622129
34	0x3deed060	0.11660838
35	0x3db48205	0.08813862
36	0x3c643740	0.013929188
37	0xbd92131f	-0.07132553
38	0xbd6b7caa	-0.057491936
39	0x3d9a2317	0.07526224
40	0x3d9236b1	0.07139338
41	0xbd9b45e3	-0.07581689
42	0x3d856e51	0.06515182
43	0xbdfaf33f	-0.12253427
44	0x3deb0c10	0.1147691
45	0xbd26e240	-0.040743113
46	0x3d4554d2	0.048176594
47	0x3e1112a2	0.14167264
48	0x3dc8332d	0.09775386
49	0xbd97d692	-0.07413973
50	0xbdaa4e1c	-0.083156794
51	0xbda265da	-0.07929583
52	0xbd58a136	-0.052888118
53	0xbd09f125	-0.03367724
54	0xbda3339b	-0.07968827
55	0xbd079112	-0.033097334
56	0x3d74cb32	0.059764095
57	0xbda13290	-0.07870972
58	0x3d863b89	0.06554324
59	0xbdb843a2	-0.08997275
60	0xbd546e89	-0.051863227
61	0x3dbc0935	0.091814436
62	0xbcb687be	-0.022281524
63	0x3daf18d2	0.08549656
64	0x3dc53f62	0.0963123
65	0x3b91de65	0.0044515603
66	0x3d1a7c12	0.03771598
67	0xbd406da9	-0.04697958
68	0x3ad96413	0.001658561
69	0x3d82c8d4	0.06385961
70	0xbe3d2ee5	-0.1847492
71	0xbe05ec49	-0.13078417
72	0xbd18a58b	-0.03726725
73	0xbc703d71	-0.014663086
74	0xbdb31f5a	-0.08746214
75	0xbb7b1dfd	-0.0038317435
76	0xbd794896	-0.06086024
77	0xbdae6920	-0.08516145
78	0xbdc2bb60	-0.09508395
79	0xbdb5c87c	-0.0887613
80	0xbdbe8295	-0.0930225
81	0xbd2c956e	-0.042134695
82	0x3bbe4146	0.005806121
83	0xbd768275	-0.060183007
84	0xbc817e7e	-0.015807386
85	0xbe0d76c1	-0.13814832
86	0x3b371232	0.002793443
87	0x3dd0da53	0.10197892
88	0xbc37c6b6	-0.01121681
89	0x3d3dff51	0.046386067
90	0xbd1f71d5	-0.038926918
91	0x3d90141c	0.070350856
92	0x3daf1be8	0.085502446
93	0x3d3bf19c	0.045884714
94	0x3b1544cc	0.0022776602
95	0xbd8918de	-0.06694196
96	0x3d897a88	0.06712824
97	0xbe27f325	-0.16401346
98	0xbdea92af	-0.11453759
99	0x3d1a1601	0.03761864
100	0xbdaf2e7d	-0.08553789
101	0xbd362380	-0.04446745
102	0xbe1a9d27	-0.15099011
103	0x3d2e4264	0.042543784
104	0x3ca02208	0.019547477
105	0xbd8eff74	-0.069823176
106	0x3d4189e5	0.047250647
107	0xbdf9d327	-0.12198477
108	0xbd9f068a	-0.07764919
109	0x3d153311	0.036425654
110	0xbd3975b8	-0.04527828
111	0x3d96fd41	0.07372523
112	0x3d24efbc	0.04026769
113	0xbd3d511f	-0.04621994
114	0x3d7533f8	0.059864014
115	0x3b864917	0.0040980685
116	0xbcc3f2c7	-0.023919476
117	0xbd21e252	-0.039522476
118	0x3dcf1e79	0.10113234
119	0x3dfddf55	0.12396113
120	0x3e451273	0.19245319
121	0x3d1e6107	0.03866675
122	0x3a6f21f5	0.00091221865
123	0x3d04ae32	0.032392688
124	0xbdbf408c	-0.09338483
125	0xbe0c3427	-0.1369177
126	0xbcc00a01	-0.02344227
127	0xbbc1e279	-0.00591689
128	0xbd8da320	-0.06915879
129	0xbe04b23b	-0.12958615
130	0x3abc36d9	0.0014359608
131	0x3dea70aa	0.1144727
132	0xbc66b76a	-0.014081815
133	0x3c69f898	0.014280461
134	0x3d869d09	0.06572921
135	0x3d25d504	0.04048635
136	0x3bfbb1ca	0.007681106
137	0x3ce88f55	0.028388659
138	0xbcd286fd	-0.025699133
139	0x3dace189	0.08441455
140	0x3984c402	0.0002532304
141	0xbe632038	-0.22180259
142	0x3c9c5da2	0.019087616
143	0x3d9a4cc5	0.07534174
144	0x3e088c3b	0.13334744
145	0x3d9d2f02	0.07674982
146	0x3c7c2b67	0.015391207
147	0xbdcbe791	-0.09956277
148	0x3d335888	0.0437856
149	0x3cb8df60	0.022567451
150	0x3bf318a4	0.007418709
151	0xbdb7fca9	-0.08983738
152	0x3d99f91f	0.07518219
153	0x3d0c3e28	0.034238964
154	0xbd8c5218	-0.06851596
155	0xbb2d820e	-0.0026475224
156	0x3d1457fd	0.036216725
157	0x3d5e7a1e	0.05431568
158	0x3dba7ee2	0.09106232
159	0xbdb2a1c5	-0.08722261
160	0xbe061933	-0.1309555
161	0xbb20a6a3	-0.0024513386
162	0xbce8a54a	-0.028399128
163	0xbe2aee7a	-0.16692534
164	0x3dbdfb1e	0.092764124
165	0x3c836a6a	0.016041953
166	0xbd11f6cb	-0.03563575
167	0xbd47ac09	-0.04874805
168	0xbba6a547	-0.0050856206
169	0x3d8f9d9d	0.07012484
170	0x3d7722ba	0.060335852
171	0x3dfe006b	0.124024235
172	0xbe038c84	-0.12846571
173	0xbd5d0cc4	-0.053967252
174	0xbd07d54a	-0.033162393
175	0xbe210912	-0.15726116
176	0xbdb1bdf8	-0.08678812
177	0xba207ee9	-0.0006122427
178	0x3be960e6	0.007122147
179	0x3d7bd044	0.061477914
180	0xbdaf99e1	-0.08574272
181	0x3db503ec	0.08838639
182	0x3b19b209	0.0023452064
183	0x3de714b8	0.11283249
184	0xbbd16328	-0.006389994
185	0xbdd1d194	-0.10245052
186	0xbd1be407	-0.03805926
187	0x3d5a57cb	0.053306382
188	0xbcb9bf1e	-0.02267414
189	0xbcf779f7	-0.030209525
190	0xbe01b040	-0.1266489
191	0xbc9927d6	-0.018695753
192	0x3d9df8b0	0.07713449
193	0x3da7eb16	0.08199136
194	0xbe732634	-0.23745042
195	0xbdb5b955	-0.0887324
196	0xbd53b1d0	-0.051683247
197	0x3d04f75e	0.03246247
198	0x3e0eb35d	0.13935609
199	0xbd16f8e5	-0.036858458
200	0xbdaa464a	-0.08314188
201	0x3cc1a2cb	0.023637196
202	0xbdbec8ae	-0.0931562
203	0xbd0f4abd	-0.034983385
204	0x3d31b182	0.043382175
205	0x3db837bd	0.08995006
206	0xbc89b693	-0.016810691
207	0x3c85d47a	0.016336668
208	0x3db24194	0.08703914
209	0x3e0bb14d	0.13641854
210	0xbbf939d7	-0.007605772
211	0x3d11f8f8	0.035637826
212	0xbc9966dd	-0.018725807
213	0x3d98bffa	0.074584916
214	0x3e021ae4	0.1270557
215	0xbea7347f	-0.3265724
216	0xbe124d6c	-0.14287347
217	0x3cdcdbd6	0.026960295
218	0x3d19c818	0.03754434
219	0x3c8d1a8c	0.017224573
220	0x3d6a8d52	0.05726368
221	0xbba5314d	-0.0050412775
222	0xbaca03b1	-0.0015412477
223	0xbd82f40f	-0.06394207
224	0xbde6eee2	-0.11276032
225	0x3d674c34	0.056469157
226	0x3dc1e38e	0.09467231
227	0xbdf724cb	-0.120675646
228	0x3d96b947	0.073595576
229	0xbd91ea4a	-0.07124765
230	0xbd0178b0	-0.031609237
231	0xbdd10ed0	-0.102079034
232	0x3dc07fc5	0.0939937
233	0xba3ef7be	-0.0007284841
234	0x3cdd571e	0.02701908
235	0xbd493958	-0.049126953
236	0x3cbc4796	0.022983354
237	0x3cee7373	0.029107785
238	0xbdd76eae	-0.10519157
239	0x3d489bcb	0.0489767
240	0x3e1b4d49	0.151662
241	0xbe1de201	-0.15418245
242	0xbd26ea8b	-0.04075102
243	0x3da1dd1e	0.07903503
244	0xbcee49fe	-0.029088017
245	0xbe0fc810	-0.14041162
246	0xba870c64	-0.0010303375
247	0xbc0a9068	-0.008457281
248	0xbd6e7afa	-0.05822275
249	0x3cf0d648	0.029399052
250	0x3d9bcf9f	0.0760796
251	0x3d6d28fe	0.05790042
252	0x3bff7ad3	0.007796624
253	0xbbd06407	-0.0063595804
254	0x3d89ed16	0.06734674
255	0x3c515444	0.012776438

bias f4 [128]
0	0x3d5ac06f	0.053406175
1	0xbd354118	-0.04425153
2	0x3dae2281	0.08502675
3	0x3d9ad331	0.07559813
4	0x3cf7fcdf	0.030271946
5	0xbde1e6f2	-0.110303774
6	0xbd983119	-0.0743124
7	0x3d9a95f4	0.075481325
8	0xbd88c8aa	-0.06678899
9	0xbcd7da18	-0.026349112
10	0xbd81cfac	-0.063384384
11	0x3d9a3c1e	0.07530998
12	0xbcbe129f	-0.023202239
13	0xbe24af8d	-0.16082592
14	0x3d4a1210	0.049333632
15	0xbe362c21	-0.17790271
16	0xbc7dc1be	-0.015488086
17	0xbd932a5d	-0.071858145
18	0xbd939341	-0.07205821
19	0xbe1b5360	-0.15168524
20	0xbe0f6f15	-0.14007218
21	0x3e0c992d	0.13730307
22	0xbda51f68	-0.08062631
23	0xbd8d1dd2	-0.068904534
24	0xbb28fe0a	-0.0025786185
25	0x3e87c2b5	0.26515737
26	0x3d09adb0	0.033612907
27	0xbe18ca41	-0.14920904
28	0x3cd93388	0.02651383
29	0xbda3bf53	-0.079954766
30	0xbd644b5f	-0.055735942
31	0xbd691e9d	-0.05691396
32	0xbe0dcdad	-0.1384799
33	0xbd21a584	-0.03946449
34	0x3e4cd31d	0.20002408
35	0xbdb2a034	-0.087219626
36	0xbd728a18	-0.059213728
37	0xbdc686d8	-0.09693688
38	0x3d5c3050	0.053757012
39	0xbd9e6e54	-0.07735887
40	0x3e7f8119	0.2495159
41	0xbd319795	-0.04335745
42	0xbdd4383e	-0.1036229
43	0x3d9b134d	0.07572041
44	0x3d97f2bf	0.07419347
45	0xbe17912c	-0.14801472
46	0xbe14db67	-0.1453682
47	0x3e607524	0.21919686
48	0x3ea8a468	0.32937932
49	0xbdc3fe26	-0.09569959
50	0xbcb8e10b	-0.022568246
51	0xbbbdd08a	-0.005792682
52	0x3da1d9e3	0.07902887
53	0x3e9643e0	0.2934866
54	0x3db5486e	0.088517055
55	0x3e392908	0.18082058
56	0xbd9d0ab4	-0.07668057
57	0xbd986815	-0.07441727
58	0x3d791f29	0.060820732
59	0x3db8d211	0.09024442
60	0x3e3d2831	0.18472363
61	0x3e20a4d8	0.15687883
62	0x3d50a92a	0.050942577
63	0xbce86f0e	-0.028373268
64	0x3e6afe92	0.22948673
65	0xbc068c5e	-0.008212177
66	0x3c3f88eb	0.011690359
67	0xbdec5a2a	-0.11540635
68	0x3ba88930	0.005143307
69	0x3abdd66f	0.0014483462
70	0xbd6b5ad1	-0.057459656
71	0x3cb52524	0.022112437
72	0xbdcf1cba	-0.10112901
73	0xbd543fec	-0.051818773
74	0xbd4d11ff	-0.05006599
75	0x3cde3616	0.0271254
76	0xbde01bb2	-0.109427825
77	0x3dcf1dd0	0.10113108
78	0xbdd93ce1	-0.10607315
79	0xbe3c75a2	-0.18404248
80	0x3bed8934	0.007249022
81	0x3e50472d	0.20339651
82	0x3d1bdc12	0.038051672
83	0xbc80b2b6	-0.015710216
84	0xbdca3b43	-0.098745845
85	0x3e2f6c67	0.17131196
86	0xbc6e1f85	-0.014533882
87	0x3cffe4db	0.031237056
88	0xbd32ee74	-0.043684438
89	0xbd5b76b4	-0.05358
90	0x3e79ef8a	0.24407783
91	0xbe0e1509	-0.13875212
92	0xbdb96f16	-0.09054391
93	0xbda0c8fa	-0.07850833
94	0x3c8a3b7b	0.016874066
95	0xbcae20d4	-0.021255888
96	0x3d45aa68	0.048258215
97	0x3e9aaf49	0.30211857
98	0xbdf653bd	-0.120276906
99	0xbdb257d1	-0.08708156
100	0xbdae8b94	-0.08522716
101	0x3e3b15e6	0.18270072
102	0x3c4799fa	0.012182707
103	0x3d729f8d	0.05923419
104	0x3d378dde	0.04481303
105	0xbdb99f3f	-0.09063577
106	0xbda9f310	-0.082983136
107	0xbd42f1bc	-0.047593817
108	0x3ba6a504	0.0050855894
109	0x3cc2ca7c	0.023778193
110	0xbcdf20de	-0.027237352
111	0xbe05edbe	-0.13078973
112	0xbdcbc761	-0.09950138
113	0x3cf11074	0.02942679
114	0xbe156751	-0.14590193
115	0xbe088626	-0.13332424
116	0x3bd5c5ec	0.0065238383
117	0xbdcda276	-0.100407526
118	0x3d79f027	0.061020043
119	0x3c79a2b6	0.015236547
120	0x3d1a0ce5	0.037609953
121	0x3e7fb92e	0.24972984
122	0xbd6e5837	-0.058189597
123	0x3bb94658	0.0056541376
124	0x3c8bcbd4	0.017064966
125	0x3db73c39	0.089470334
126	0x3d7c2739	0.061560843
127	0x3cbaadef	0.022788016

weight f4 [128, 128]
0	0xbdd81049	-0.10549981
1	0xbcfcf492	-0.030878339
2	0xbd9d3fbd	-0.07678173
3	0xbe426405	-0.18983467
4	0xbe0ddd6c	-0.13853997
5	0x3e409650	0.1880734
6	0xbd88ca52	-0.066792145
7	0xbdb68b61	-0.08913303
8	0x3d49db42	0.049281366
9	0x3d97fcba	0.07421251
10	0x3e83ab3e	0.25716585
11	0x3dec0328	0.115240395
12	0x3da3f24b	0.08005198
13	0xbdd5f4c0	-0.10447073
14	0xbe0bb401	-0.13642885
15	0x3b152787	0.0022759156
16	0x3dc0fd4e	0.09423314
17	0x3df5cb57	0.120016746
18	0x3c46a698	0.01212468
19	0x3e04db0c	0.12974185
20	0x3d960222	0.073246256
21	0x3d50fcb5	0.05102225
22	0x3d3bfe72	0.045896955
23	0x3b87c962	0.0041438797
24	0xbe1da15f	-0.1539359
25	0xbd3250de	-0.043534152
26	0xbd28e804	-0.041236892
27	0xbd9d2fc5	-0.07675127
28	0xbd6615bc	-0.05617307
29	0x3d8d6d72	0.06905641
30	0xbd6a3c0f	-0.057186183
31	0x3d0d69f2	0.034524865
32	0x3aee59ff	0.001818478
33	0xbcd4bc8e	-0.025968816
34	0xbe495b0d	-0.1966364
35	0x3d00335b	0.031298976
36	0x3e63463e	0.22194764
37	0x3cd9dad4	0.026593603
38	0x3d55aade	0.052164905
39	0xbd2a2194	-0.04153593
40	0xbde75727	-0.1129592
41	0xbd577263	-0.052599322
42	0x3d74b184	0.059739605
43	0xbdea3f71	-0.11437882
44	0xbd3c5d2e	-0.0459873
45	0xbc835e7d	-0.016036266
46	0xbd8e99a4	-0.069628984
47	0xbe2e2094	-0.17004615
48	0xbda77833	-0.08177223
49	0x3d845e20	0.064632654
50	0xbe504ca8	-0.20341742
51	0xbccac35e	-0.024751361
52	0xbe0f34e2	-0.13985017
53	0xbcc40302	-0.023927215
54	0xbe6b4682	-0.22976115
55	0xbe3b15c6	-0.18270025
56	0xbd82530c	-0.06363496
57	0xbe00f14a	-0.12592044
58	0xbceaa81a	-0.02864461
59	0xbcd2bcfa	-0.025724877
60	0x3d91211b	0.070863925
61	0x3c73636f	0.01485525
62	0xbe25f397	-0.16206203
63	0xbe1363cb	-0.14393537
64	0x3dbe71bb	0.09299036
65	0xbe3e4c05	-0.18583687
66	0x3daacc06	0.08339696
67	0x3cf62fe0	0.030052125
68	0xbc0af104	-0.008480314
69	0xbb2ed721	-0.002667852
70	0xbda1856e	-0.07886778
71	0xbdee5b1c	-0.116384715
72	0xbc9290d7	-0.01789133
73	0xbe09f5aa	-0.1347262
74	0x3dcab980	0.098986626
75	0x3d1d1041	0.03834558
76	0x3e1c482c	0.15261906
77	0xbdacc924	-0.08436802
78	0xbe130d3d	-0.14360519
79	0xbcc9a483	-0.024614578
80	0xbd8d0204	-0.0688515
81	0x3d1d5f94	0.03842123
82	0xbd3136cf	-0.04326516
83	0xbd8faf2d	-0.07015834
84	0x3cb1501c	0.021644644
85	0xbd4ec989	-0.050485168
86	0x3e471e89	0.19445242
87	0x3dae54ca	0.08512266
88	0x3b1a9f26	0.0023593395
89	0x3d7427f0	0.0596084
90	0xbd8ba79f	-0.068190806
91	0x3c3b5b05	0.011435275
92	0x3adf7e40	0.0017051175
93	0xbd03a56a	-0.032140173
94	0xbcd39f04	-0.02583266
95	0xbd16558d	-0.03670268
96	0x3d28a444	0.04117228
97	0xbda8e952	-0.08247627
98	0x3d21992e	0.039452724
99	0xbe0fda7f	-0.14048193
100	0x3b9e426b	0.004829695
101	0xbdc0b485	-0.09409431
102	0x3dfdadf6	0.12386696
103	0xbdc1b985	-0.09459213
104	0xbc833247	-0.016015185
105	0xbd74e530	-0.059788883
106	0x3d25e22e	0.040498905
107	0xbe194485	-0.14967544
108	0xbd9e202d	-0.07720981
109	0x3d2f7e56	0.042845093
110	0x3b798376	0.0038072742
111	0x3d7e96ba	0.062155463
112	0xbd568903	-0.05237676
113	0xbe3b8c33	-0.183152
114	0xbd4e0a1b	-0.050302606
115	0xbda0bd56	-0.07848613
116	0xbc567c41	-0.013091148
117	0x3cd606c5	0.026126275
118	0xbd227c96	-0.039669596
119	0xbe1a150b	-0.1504709
120	0xbde85e91	-0.11346162
121	0xbd226550	-0.0396474
122	0x3d22a62c	0.039709255
123	0xbe55beb0	-0.20873523
124	0x3dc46020	0.09588647
125	0x3b68dba7	0.0035531314
126	0x3dfdab82	0.12386228
127	0x3d2d5d21	0.042325143
128	0x3db44670	0.088024974
129	0xbe0f7150	-0.14008069
130	0xbe154e01	-0.14580537
131	0x3db5a939	0.08870167
132	0xbd1f12fd	-0.038836468
133	0x3e0782cf	0.13233493
134	0x3e016867	0.12637483
135	0xbe6cf5d7	-0.23140655
136	0xbd3076b8	-0.04308197
137	0xbdebaf7c	-0.1150808
138	0x3d5c92e6	0.05385103
139	0x3e2db5bf	0.16963862
140	0xbcc46c65	-0.023977468
141	0x3ded4947	0.11586242
142	0x3d50deb0	0.05099362
143	0x3d668699	0.056280706
144	0xbda98370	-0.08277023
145	0xbd8c2194	-0.06842342
146	0xbe1a8545	-0.15089901
147	0x3db71486	0.089394614
148	0xbdfbff7c	-0.12304589
149	0xbe03a6b5	-0.12856562
150	0xbcdb50ac	-0.026771866
151	0xbc30a977	-0.010782591
152	0xbe2f5422	-0.17121938
153	0xbda421d3	-0.08014264
154	0xbd236288	-0.03988889
155	0x3d5bb898	0.05364284
156	0xbdfaaaf8	-0.12239641
157	0x3db94275	0.09045879
158	0xbb654c70	-0.0034988187
159	0xbc05288a	-0.008127341
160	0x3d2ea018	0.042633146
161	0xbdf0ffb0	-0.117675185
162	0xbd6d8f4e	-0.057997994
163	0x3d4f65a7	0.050634053
164	0x3a410d70	0.0007364368
165	0xbe04d98b	-0.12973611
166	0x3dce5955	0.100756325
167	0xbcec2f0a	-0.028831024
168	0xbdf33790	-0.11875832
169	0x3da97133	0.08273544
170	0x3e602087	0.21887408
171	0xbdc8ccc9	-0.09804685
172	0xbca0a131	-0.019608112
173	0xbd0d01e2	-0.034425624
174	0xbd2f7f52	-0.04284603
175	0xbdfdf2e1	-0.12399841
176	0xbe1c9e97	-0.15294872
177	0xbe275c70	-0.16343856
178	0xbdae71fc	-0.085178345
179	0xbda90c70	-0.082543254
180	0x3d1bbf4e	0.03802424
181	0x3cc41855	0.023937384
182	0x3d1cb151	0.03825504
183	0x3cc2f02e	0.023796167
184	0xbd3894d6	-0.045063816
185	0x3d540100	0.051758766
186	0xbd8b1382	-0.0679083
187	0xbe0ce112	-0.13757733
188	0xbe281864	-0.16415554
189	0xbe2c6d53	-0.16838579
190	0x3c04908b	0.008091102
191	0x3d984a75	0.074360766
192	0xbe425ff3	-0.18981914
193	0xbda01112	-0.07815756
194	0xbca9dc00	-0.020734787
195	0xbdcdf200	-0.100559235
196	0x3daa3261	0.0831039
197	0x3d4741e0	0.048646808
198	0xbd58f1d4	-0.052965
199	0x3aa1b990	0.0012338627
200	0x3ddadda2	0.10686804
201	0x3b7d76a1	0.0038675445
202	0x3e180136	0.14844212
203	0xbd4f13a8	-0.050555855
204	0xbe27a7fd	-0.16372676
205	0x3d2c8c7b	0.04212616
206	0xbde02363	-0.109442495
207	0xbd94fd92	-0.07274927
208	0xbcf22538	-0.029558763
209	0xbe174d41	-0.14775564
210	0x3d29011a	0.041260816
211	0xbd89ac47	-0.067223124
212	0xbdc5ab27	-0.09651785
213	0x3d1d6e81	0.038435463
214	0xbd026b84	-0.031840816
215	0x3cc57a84	0.024106272
216	0xbe0d64d4	-0.13807994
217	0xbe490dd0	-0.19634175
218	0xbb960123	-0.004577772
219	0x3db8afd5	0.09017912
220	0x3dac4f13	0.0841352
221	0xbe12668c	-0.14296931
222	0xbcf2114a	-0.02954926
223	0xbe040dff	-0.12895964
224	0x3d81be93	0.06335177
225	0xbdc6ca86	-0.09706597
226	0x3d11d3c2	0.03560234
227	0x3c5df2d0	0.013546661
228	0xbd75db22	-0.060023434
229	0xbd90cd5a	-0.07070418
230	0xbd83b279	-0.06430525
231	0xbd470389	-0.048587356
232	0x3d684eb0	0.056715667
233	0x3e071348	0.13190949
234	0xbc12e242	-0.008965077
235	0x3de5ff41	0.112303264
236	0xbdd31b2a	-0.103079155
237	0x3d8a9fc1	0.06768752
238	0x3ddc45f5	0.10755531
239	0xbdfe3c96	-0.124138996
240	0xbdc97d9f	-0.098384134
241	0xbe1b6454	-0.15174991
242	0x3d0bbc2e	0.03411501
243	0x3def1067	0.116730504
244	0x3dd68925	0.10475377
245	0x3cdda5cf	0.027056603
246	0xbd06d69a	-0.032919504
247	0x3d938e02	0.0720482
248	0xbc59ae49	-0.013286182
249	0xbd439ccc	-0.047756955
250	0xbdde8018	-0.10864276
251	0x3d524b7b	0.051341515
252	0xbcca6ec3	-0.024711018
253	0x3c8cf7d1	0.017208012
254	0xbe369cf9	-0.17833318
255	0xbdc43056	-0.09579532

bias f4 [128]
0	0xbd1bf28f	-0.03807312
1	0xbd9fd134	-0.07803574
2	0xbcf79bbb	-0.030225625
3	0xbe02f287	-0.1278783
4	0x3df2b2cf	0.11850511
5	0x3ce5862f	0.028018085
6	0x3e574fdf	0.21026562
7	0xbdb33af9	-0.087514825
8	0x3d9f4acf	0.077779405
9	0x3e891dd3	0.26780567
10	0x3e2d444c	0.16920584
11	0x3d55ff98	0.052245706
12	0x3dbd18fa	0.092332795
13	0x3a904cf2	0.001100926
14	0xbd5665c5	-0.05234315
15	0x3d41b6c8	0.047293454
16	0xbc3fbaff	-0.011702298
17	0xbd1bf6f4	-0.03807731
18	0xbd15b184	-0.036546245
19	0x3dade014	0.08490005
20	0xbdca1fdd	-0.09869359
21	0xbe4c2901	-0.19937517
22	0x3e16849b	0.14699022
23	0xbe2293ca	-0.1587669
24	0x3d0e0f08	0.034682304
25	0x3e1e2937	0.1544541
26	0x3d351b6a	0.044215597
27	0xbccdb956	-0.02511279
28	0xbd867c4a	-0.06566675
29	0xbda3fc49	-0.08007104
30	0xbd8c1f0a	-0.06841858
31	0xbd689609	-0.05678371
32	0xbdb7a735	-0.08967439
33	0x3d7bfc47	0.061519887
34	0xbd091c20	-0.033474088
35	0x3ac3c3b2	0.0014935641
36	0xbde9f612	-0.11423887
37	0xbdb8d16b	-0.09024318
38	0x3e1dc229	0.15406097
39	0x3d6678dd	0.056267608
40	0x3e07de13	0.13268308
41	0xbda93d51	-0.08263648
42	0x3cfd2d16	0.030905288
43	0xbcba2840	-0.02272427
44	0xbc3bce3f	-0.011462747
45	0x3e70de7f	0.23522376
46	0xbe09285b	-0.133943
47	0x3d0cb6bb	0.034353953
48	0xbd858aba	-0.065206006
49	0x3e14c76b	0.14529197
50	0xbdd71924	-0.10502842
51	0xbdc64502	-0.09681131
52	0x3bf2187e	0.0073881736
53	0xbd642c33	-0.055706214
54	0xbd7bc549	-0.061467443
55	0xbd6bf590	-0.057607234
56	0xbd755280	-0.05989313
57	0x3e908410	0.28225756
58	0x3e3315ba	0.17488757
59	0xbdc4e5e0	-0.09614158
60	0x3d32aa0e	0.043619208
61	0xbd8234a0	-0.06357694
62	0x3e232175	0.15930732
63	0xbd9910f3	-0.07473936
64	0x3df72e6f	0.120694034
65	0xbc9dc7d1	-0.019260319
66	0xbd704a47	-0.058664586
67	0xbe27784d	-0.16354485
68	0xbd5e8960	-0.05433023
69	0xbdddcf8e	-0.108306035
70	0x3c73162e	0.014836831
71	0xbd4faf75	-0.05070444
72	0xbcd7ea83	-0.026356941
73	0xbd7e16c3	-0.062033426
74	0x3ce2169c	0.027598672
75	0xbe0aa0d7	-0.13537918
76	0x3e56b3ea	0.2096707
77	0x3cb89068	0.022529796
78	0xbd20cdc8	-0.03925875
79	0xbd1e18be	-0.038597815
80	0x3e191215	0.14948304
81	0x3e9eaad9	0.3098972
82	0x3c079645	0.008275573
83	0xbd934c1a	-0.071922496
84	0xbc6b6ee3	-0.014369699
85	0x3c2be36c	0.010491233
86	0xbe1fc748	-0.15603364
87	0xbd1119b7	-0.035424914
88	0xbb4f6dfe	-0.0031651254
89	0x3e869c60	0.2629118
90	0xbdc1eca6	-0.09468965
91	0xbcb7f955	-0.022457758
92	0x3ae9b687	0.0017830887
93	0xbd861769	-0.06547434
94	0x3d5ceb63	0.05393542
95	0x3ddb2422	0.10700251
96	0xbd86451b	-0.065561496
97	0x3d69c429	0.05707184
98	0x3e7b9194	0.24567252
99	0x3d85099b	0.06495973
100	0x3d4766df	0.04868209
101	0xbdf96dd1	-0.12179149
102	0x3e79aeb4	0.2438305
103	0x3b1c2fd8	0.0023832228
104	0x3e67d8f8	0.22641361
105	0x3e85f973	0.26166877
106	0xbdbc5fb2	-0.0919794
107	0xbe11fdd1	-0.1425698
108	0xbd08c445	-0.033390302
109	0xbe399991	-0.18124987
110	0xbde520ab	-0.111878715
111	0x3e3f85bb	0.18703358
112	0xbd5a0641	-0.05322862
113	0x3e8f1acf	0.2795014
114	0xbc0d69ff	-0.0086312285
115	0xbc4e6fb8	-0.012599878
116	0xbd106e02	-0.03526116
117	0xbd745faf	-0.059661563
118	0x3e7d4850	0.24734616
119	0x3d9bc39c	0.07605669
120	0xbd0576bf	-0.03258395
121	0xbe298023	-0.16552787
122	0x3e868390	0.2627225
123	0x3deff473	0.11716547
124	0x3e7fd426	0.24983272
125	0x3e5fbdda	0.21849766
126	0xbd5102c8	-0.051028043
127	0xbdd3b33f	-0.10336923

weight f4 [10, 128]
0	0xbd8c0bb7	-0.06838172
1	0xbda41b8b	-0.08013066
2	0xbd092dc9	-0.03349093
3	0xbd9e149d	-0.077187754
4	0xbdf40792	-0.119155064
5	0xbe054e07	-0.13018046
6	0xbd740a0c	-0.059579894
7	0xbd181c2e	-0.03713625
8	0xbe0b1a75	-0.13584311
9	0x3d1d7c36	0.038448535
10	0xbdfc1be2	-0.12310006
11	0xbdf87185	-0.12131027
12	0xbe3757a3	-0.17904525
13	0xbd967f61	-0.07348514
14	0xbe1f2ee4	-0.15545231
15	0x3d9049f8	0.070453584
16	0x3d619c5e	0.055080764
17	0xbe5bcecf	-0.2146561
18	0x3cbab418	0.022790954
19	0xbd4120b7	-0.04715034
20	0xbe121a57	-0.1426786
21	0x3d99e77a	0.07514854
22	0xbe365157	-0.17804466
23	0x3cc34e4a	0.023841042
24	0xbe59a665	-0.2125488
25	0x3c176529	0.009240427
26	0x3ca6fb29	0.020383434
27	0x3b826155	0.003978888
28	0x3dabc40e	0.08387004
29	0xbe0727a3	-0.13198714
30	0x3c2452fc	0.010029551
31	0xbcbbbe2c	-0.02291783
32	0x3dc9d8bf	0.09855794
33	0xbdd72193	-0.10504451
34	0xbd249088	-0.0401769
35	0xbe097ae4	-0.13425785
36	0xbe16fab6	-0.14744076
37	0x3cc7c97f	0.024388073
38	0xbc928d62	-0.017889682
39	0xbe0db178	-0.1383723
40	0xbe6d7327	-0.23188458
41	0xbe658aa9	-0.22416176
42	0x3d8eb5fb	0.06968304
43	0x3da922c4	0.08258584
44	0x3dce4e89	0.10073573
45	0x3e1a1958	0.1504873
46	0xbc846f66	-0.0161664
47	0x3d1da9f7	0.03849217
48	0x3dec7737	0.11546176
49	0x3e12f36e	0.14350674
50	0x3d9ab9cd	0.0755497
51	0xbe2ec1ba	-0.17066088
52	0x3d44c0ca	0.04803542
53	0xbdcf682d	-0.10127292
54	0xbdc070e3	-0.093965314
55	0x3da4f571	0.08054627
56	0xbdd18297	-0.10229986
57	0xbdadaf8a	-0.08480747
58	0x3d361474	0.0444531
59	0x3d00d856	0.031456314
60	0x3da53016	0.08065812
61	0x3d8a9230	0.06766164
62	0x3d9529fd	0.07283399
63	0x3e10416a	0.14087453
64	0x3d1e062d	0.03858011
65	0xbd36b380	-0.04460478
66	0xbdaced22	-0.08443667
67	0x3d6840c8	0.056702405
68	0x3e136b53	0.1439641
69	0xbecf013c	-0.4043063
70	0xbde78da2	-0.11306311
71	0x3abbb3b5	0.0014320525
72	0xbdccb210	-0.099949
73	0xbdca2351	-0.09870017
74	0xbdbed448	-0.09317833
75	0x3d816191	0.063174374
76	0x3cea505e	0.028602775
77	0x3d120a2f	0.035654243
78	0xbe015d31	-0.12633206
79	0xbdb7a674	-0.08967295
80	0xbe60a11d	-0.2193646
81	0xbdb349ca	-0.087543085
82	0x3dd5b290	0.10434449
83	0x3dc7543e	0.09732865
84	0x3c904145	0.017609248
85	0xbe38f60e	-0.18062612
86	0xbcaffd81	-0.021483185
87	0xbd489e4f	-0.0489791
88	0xbd0bf8d8	-0.034172863
89	0x3d3b5c44	0.04574229
90	0xbe245148	-0.16046631
91	0xbe999979	-0.29999903
92	0xbd0c98c8	-0.03432539
93	0xbdbf5656	-0.09342639
94	0xbbf8116a	-0.0075704353
95	0xbe025ad6	-0.12729964
96	0x3cfbcc7f	0.03073716
97	0x3c82f22b	0.015984615
98	0xbd81c63d	-0.06336639
99	0xbd8b13a6	-0.06790857
100	0xbacf778d	-0.0015828476
101	0xbde55c7b	-0.1119928
102	0xbd9e48c6	-0.07728724
103	0x3df47236	0.119358465
104	0xbe4d1854	-0.20028812
105	0xbaf2420a	-0.0018482816
106	0xbb922e73	-0.0044611036
107	0xbdd2daf4	-0.10295668
108	0xbdc80417	-0.09766405
109	0xbbd85ca7	-0.006602842
110	0x3c1a0983	0.009401682
111	0x3d763c4d	0.0601161
112	0xbbe04ddd	-0.0068452195
113	0xbe8495ad	-0.25895444
114	0x3da6a4ee	0.081369266
115	0x3d946e9d	0.0724766
116	0xbd1035b1	-0.035207454
117	0xbdff0016	-0.12451188
118	0xbead1744	-0.33806813
119	0x3dd95b24	0.10613087
120	0xbdb7a65c	-0.089672774
121	0xbde2ce08	-0.110744536
122	0x3de6054f	0.11231481
123	0x3daeca70	0.08534706
124	0xbd6d4fb2	-0.05793733
125	0xbe223ed9	-0.15844287
126	0x3ce2d2e4	0.027688451
127	0x3d77945a	0.060444213
128	0xbe228eee	-0.15874836
129	0xbeb97604	-0.3622285
130	0xbdac4bb6	-0.08412878
131	0xbc902906	-0.017597686
132	0xbe0bce8b	-0.13653009
133	0xbda266ab	-0.079297386
134	0xbe0fc245	-0.14038952
135	0x3e0c574a	0.13705173
136	0xbe394117	-0.18091236
137	0xbc656005	-0.013999944
138	0x3cadddea	0.021223981
139	0x3dcaf8f9	0.09910769
140	0xbcca3ee8	-0.0246882
141	0x3d70ce58	0.058790535
142	0x3cca1ba9	0.024671393
143	0xbdc87592	-0.0978805
144	0xbdbad594	-0.09122768
145	0xbdc81882	-0.097702995
146	0xbe259ba2	-0.1617265
147	0x3d9c7daf	0.0764116
148	0xbe31614e	-0.17322275
149	0x3d817367	0.063208394
150	0xbc815899	-0.015789317
151	0xbe04ab69	-0.12956013
152	0xbdb5ad4c	-0.088709444
153	0xbd7919a7	-0.06081548
154	0xbce0fbdd	-0.027463848
155	0xbd637a82	-0.055536754
156	0xbd5f26e0	-0.054480433
157	0xbc7f10a3	-0.015567931
158	0xbc783c30	-0.015151069
159	0xbd314d2e	-0.043286495
160	0xbd9d42e3	-0.07678773
161	0xbe14a740	-0.14516926
162	0xbe0a9b14	-0.1353572
163	0x3ddff5a6	0.109355256
164	0x3d200ebe	0.03907656
165	0x3ca8a8ff	0.020588396
166	0x3ce56aa6	0.028004956
167	0xbc422341	-0.0118492255
168	0x3d8a4049	0.06750543
169	0xbdd94109	-0.106081076
170	0xbdb99a80	-0.09062672
171	0xbd6d40a4	-0.057922974
172	0xbe257f98	-0.16161954
173	0xbdaa61b5	-0.083194174
174	0x3d7c0d78	0.061536282
175	0xbd08d069	-0.03340188
176	0xbdb1eabb	-0.086873494
177	0xbdda7a13	-0.10667815
178	0xbedef182	-0.4354363
179	0xbd8360c6	-0.064149424
180	0x3d2f629f	0.04281866
181	0xbd952cd2	-0.072839394
182	0x3bef700a	0.0073070573
183	0xbda90cff	-0.08254432
184	0xbdeff2be	-0.11716221
185	0xbe1ca063	-0.15295558
186	0xbe9472f8	-0.28993964
187	0xbe11372e	-0.14181206
188	0xbe0d139c	-0.13777012
189	0xbda04c0d	-0.078270055
190	0xbe100847	-0.14065658
191	0xbdc7c272	-0.097538844
192	0xbe062e66	-0.13103637
193	0xbe925bab	-0.28585562
194	0x3d06a6f1	0.03287405
195	0x3b01e607	0.0019820945
196	0x3c2959e0	0.010336369
197	0xbe768677	-0.24074732
198	0xbd9328f0	-0.071855426
199	0xbd076cde	-0.03306281
200	0x3de57273	0.1120347
201	0xbd4c326d	-0.049852777
202	0xbcc46671	-0.02397463
203	0xbdbe9ef3	-0.09307661
204	0x3e02d804	0.12777716
205	0x3e08cdda	0.13359776
206	0xbdf49a3a	-0.11943479
207	0x3d170f39	0.03687975
208	0xbe4bfed3	-0.19921426
209	0xbc770806	-0.0150775965
210	0x3d39928a	0.045305766
211	0xbe819ec3	-0.25316438
212	0x3dff673e	0.12470864
213	0x3e056f2d	0.13030691
214	0xbcdde766	-0.027087878
215	0xbd4e1231	-0.050310317
216	0x3ce37c23	0.027769154
217	0x3da3f7c0	0.08006239
218	0x3de1e5f2	0.11030187
219	0x3e0bee51	0.13665129
220	0xbdf51d8c	-0.11968526
221	0xbd20ec4b	-0.039287847
222	0x3e18c57d	0.14919086
223	0x3c11839a	0.008881474
224	0xbd970e1f	-0.0737574
225	0x3d6f3a5b	0.05840526
226	0x3d32ae8f	0.043623503
227	0x3dc3e475	0.09565059
228	0xbce0a138	-0.027420625
229	0x3de8b3d7	0.11362427
230	0xbe54539f	-0.20735024
231	0x3de4a9d1	0.111652024
232	0xbe55c968	-0.20877612
233	0xbe5b02d5	-0.21387799
234	0xbeb37b06	-0.35054797
235	0x3b9a85d3	0.00471566
236	0xbe14002c	-0.1445319
237	0xbe2d109f	-0.16900872
238	0xbc8dabf3	-0.017293906
239	0xbda2ab8a	-0.07942875
240	0x3bace1e9	0.005275954
241	0xbd75cc62	-0.060009368
242	0x3b42b4bf	0.0029709784
243	0x3d561f42	0.052275904
244	0xbd55f1a8	-0.052232414
245	0x3cb5c251	0.022187384
246	0xbb7474e0	-0.0037301108
247	0xbdd55e9a	-0.104184344
248	0x3e003d5c	0.12523407
249	0xbcfc9b5b	-0.030835798
250	0xbd0f832e	-0.035037212
251	0x3db33ba1	0.08751608
252	0xbcfcbbc6	-0.030851256
253	0x3cf3bccd	0.029753113
254	0xbdadc2f6	-0.084844515
255	0xbd562b1d	-0.05228721

bias f4 [10]
0	0xbe0e6134	-0.13904268
1	0xbdbb5106	-0.09146313
2	0xbd7900fa	-0.060791947
3	0xbdaa785b	-0.08323737
4	0xbd604543	-0.054753553
5	0xbd977287	-0.07394891
6	0xbdbcd812	-0.092209
7	0xbdbb73ac	-0.09152922
8	0x3e766685	0.24062546
9	0xbaa36624	-0.0012466353
